res/european/regular/models/regular_5.pt (torch, 11551 bytes, 5 tensors)

fc1.weight f4 [64, 30]
0.08023479 1.6833552 -2.0165732 2.6598878 -3.2291698 0.35181165 2.402128 2.035342
-0.048687745 2.4223387 2.6882067 -2.9860332 2.9044986 1.4579884 3.4011824 0.10076695
2.2545557 1.9915601 1.2356344 -0.6700956 -0.4620615 -1.3753935 -0.08986611 0.074705705
0.32321355 -0.04398174 -0.07699616 -0.9885195 -1.2687291 0.020919738 0.1103191 1.7848554
-2.0902493 2.815631 -3.316429 0.3056594 2.6175857 1.9522418 0.1366293 2.446077
2.820953 -2.969665 2.762132 1.2244364 3.608602 0.30596626 2.3036425 2.0597236
0.9992542 -0.54625815 -0.38720718 -1.3100572 -0.33919713 0.14312047 0.2898935 -0.016104829
0.14980802 -0.8992079 -1.4266921 0.06744147 -0.07406494 -0.11555703 0.03626512 -0.13509132
-0.14905453 -0.09085576 -0.13346425 0.000134781 0.17889172 -0.14113489 -0.03605464 -0.09437415
0.010311455 -0.040007576 -0.13393778 -0.003408417 0.0063501596 0.17715287 0.09962419 0.12708601
0.18102932 -0.13400757 -0.011963591 -0.131337 0.12951136 0.17821416 -0.009294763 -0.18204598
-0.10414162 0.04863684 0.09125007 1.854784 -1.9461443 2.79518 -3.1758757 0.43934903
2.6675053 1.967389 0.16433312 2.3304117 2.8599546 -2.9605262 2.955973 1.19628
3.2445014 0.13390873 2.2104905 2.0847566 1.2348716 -0.32441324 -0.48323366 -1.3495607
-0.27582595 0.3847944 0.47499752 -0.012188292 0.11123749 -0.6699499 -1.1891485 -0.020553004
0.031158179 -1.709241 2.0800679 -2.8829875 3.192393 -0.18356018 -2.6298897 -2.0465908
0.0019531376 -2.3058376 -2.8061516 3.1502533 -2.697068 -1.1570423 -3.59441 -0.2719416
-2.3647773 -1.8925806 -0.8727802 0.4220155 0.39851567 1.1427613 0.31760997 -0.06834802
-0.5017943 0.30042472 -0.019319084 0.6487218 1.3758696 0.08414221 -0.053802416 0.0799358
0.08309414 -0.078939855 0.14299764 0.0027729818 -0.03664725 0.06840016 0.07606535 0.020200843
0.076906264 -0.14405261 -0.09877781 0.1291758 0.07358214 0.13486265 0.13529022 0.11481151
-0.058143027 -0.09664339 -0.1044349 -0.034913104 0.07342511 0.05700032 0.19554646 0.118058816
0.15177715 -0.10342016 0.07523588 0.045090545 -0.0092272805 -0.056428455 -0.09607782 -0.2251161
-0.09323484 -0.113781095 0.035565685 -0.27891323 0.27611306 0.23851748 -0.10830394 0.23587449
-0.05972537 -0.12404575 -0.4353852 -0.08326875 0.16683675 -0.1498967 0.37043115 -0.43734816
-0.19738846 0.21649392 0.5806698 -0.042041555 0.3393731 0.33507878 0.30364218 -0.44012237
0.14224975 0.05895963 -0.13969764 0.048727304 0.061858714 0.15459833 0.15683419 -0.013872415
-0.059071958 -0.12997687 -0.12957607 -0.124351345 -0.12851152 0.037741885 0.13630795 0.1690402
0.1008122 0.12914306 0.058637753 0.14450318 0.03253755 -0.11944618 -0.109939694 0.048287347
0.085868806 0.070711255 -0.07594466 0.01850465 -0.09553701 -0.00028839707 0.032415956 0.07062894
0.09562024 -1.7720311 2.071767 -2.7318406 3.287888 -0.43037754 -2.4810524 -1.8215879
-0.06555915 -2.4038084 -2.9316618 2.9999428 -2.859282 -1.3834603 -3.3413138 -0.32170844
00000000: 2352 a43d 2f78 d73f 890f 01c0 9a3b 2a40
00000010: b8aa 4ec0 a820 b43e 77bc 1940 0b43 0240
00000020: cd6c 47bd 9907 1b40 940b 2c40 2b1b 3fc0
00000030: 4ee3 3940 5d9f ba3f f9ac 5940 e75e ce3d
00000040: a44a 1040 71eb fe3f 4529 9e3f 638b 2bbf
00000050: 5393 ecbe e50c b0bf b90b b8bd 4eff 983d
00000060: 3f7c a53e 3226 34bd 2ab0 9dbd 9d0f 7dbf
00000070: b765 a2bf df5f ab3c fbee e13d 2476 e43f
00000080: a5c6 05c0 4c33 3440 5f40 54c0 647f 9c3e
00000090: 8686 2740 0fe3 f93f 8de8 0b3e 878c 1c40
000000a0: 7e8a 3440 fe0e 3ec0 c5c6 3040 55ba 9c3f
000000b0: 56f3 6640 9ca7 9c3e e16e 1340 83d2 0340
000000c0: 20cf 7f3f 93d7 0bbf 0540 c6be f4af a7bf
000000d0: 3fab adbe 2c8e 123e ec6c 943e 46ee 83bc
000000e0: 4667 193e 7d32 66bf d99d b6bf c11e 8a3d
000000f0: 5caf 97bd 2aa9 ecbd bc8a 143d 6155 0abe
00000100: c0a1 18be 9612 babd daaa 08be 0054 0d39
00000110: 642f 373e aa85 10be 08ae 13bd 3c47 c1bd
00000120: 60f1 283c fcde 23bd fc26 09be c05f 5fbb
00000130: 0015 d03b 9067 353e c407 cc3d d622 023e
00000140: c05f 393e 4839 09be f002 44bc 357d 06be
00000150: a09e 043e c67d 363e 1049 18bc 436a 3abe
00000160: 3448 d5bd 6c37 473d 51e1 ba3d 9069 ed3f
00000170: 421b f9bf 3be4 3240 8c41 4bc0 5bf2 e03e
00000180: 68b8 2a40 67d3 fb3f f146 283e 7725 1540
00000190: 7f09 3740 4379 3dc0 a92e 3d40 b41f 993f
000001a0: e9a5 4f40 5f1f 093e ad78 0d40 a76c 0540
000001b0: 4610 9e3f 7e19 a6be 676a f7be 68be acbf
000001c0: 0f39 8dbe c603 c53e e032 f33e 67b1 47bc
000001d0: 7bd0 e33d d681 2bbf 0536 98bf c65e a8bc
000001e0: 703f ff3c 69c8 dabf d51f 0540 de82 38c0
000001f0: 2b50 4c40 33f7 3bbe 1d50 28c0 58fb 02c0
00000200: 3600 003b d892 13c0 fd97 33c0 c09d 4940
00000210: c39c 2cc0 f619 94bf d00a 66c0 ee3b 8bbe
00000220: 8358 17c0 1540 f2bf 866e 5fbf 6a12 d83e
00000230: 3f0a cc3e 0146 923f c69d a23e 0cfa 8bbd
00000240: 9775 00bf 45d1 993e 0e43 9ebc a212 263f
00000250: 7f1c b03f c052 ac3d ec5f 5cbd 61b5 a33d
00000260: 432d aa3d 38ab a1bd f96d 123e eaba 353b
00000270: 6d1b 16bd 6215 8c3d 26c8 9b3d 3d7c a53c
00000280: 0881 9d3d 8782 13be 054c cabd a946 043e
00000290: 3cb2 963d 6f19 0a3e 8589 0a3e 4c22 eb3d
000002a0: 6227 6ebd f8ec c5bd f7e1 d5bd 0b01 0fbd
000002b0: e75f 963d 2b79 693d 553d 483e d2c8 f13d
000002c0: 786b 1b3e f3cd d3bd 4515 9a3d ddb0 383d
000002d0: 052e 17bc 8621 67bd 73c4 c4bd d684 66be
000002e0: e8f1 bebd 1006 e9bd 53ad 113d b7cd 8ebe
000002f0: b15e 8d3e ed3d 743e 75ce ddbd 1589 713e
00000300: 97a2 74bd b30b febd cfea debe ce88 aabd
00000310: 41d7 2a3e 857e 19be 27a9 bd3e 19ec dfbe
00000320: 3320 4abe 95b0 5d3e c7a6 143f c433 2cbd
00000330: 50c2 ad3e 728f ab3e fd76 9b3e b857 e1be
00000340: eba9 113e a77f 713d e60c 0fbe 4896 473d
00000350: 905f 7d3d 064f 1e3e 2499 203e 2049 63bc
00000360: 70f5 71bd a818 05be 97af 04be ebab febd
00000370: 8698 03be 3c97 1a3d 5094 0b3e e018 2d3e
00000380: a076 ce3d 143e 043e 242e 703d a4f8 133e
00000390: 1846 053d 33a0 f4bd 1028 e1bd f4c8 453d
000003a0: fcdb af3d 10d1 903d e088 9bbd 1097 973c
000003b0: e8a8 c3bd 0034 97b9 98c6 043d e8a5 903d
000003c0: 8bd4 c33d ead1 e2bf d597 0440 7ad6 2ec0
000003d0: c26c 5240 725a dcbe 90c9 1ec0 cb29 e9bf
000003e0: e043 86bd ffd7 19c0 59a0 3bc0 10ff 3f40
000003f0: 7afe 36c0 3a15 b1bf 16d8 55c0 f8b6 a4be

fc1.bias f4 [64]
0.32001537 0.24375227 -0.040190548 0.3350143 -0.45613518 0.09331773 -0.2770154 -0.035338774
-0.25249758 -0.3094755 0.49360234 -0.13734771 -0.13141921 -0.44082084 0.4630749 0.18201394
-0.13686754 -0.30574933 0.16571495 -0.1579979 0.335778 0.02511729 -0.123100996 -0.05774233
0.37360555 -0.17953947 0.37598908 -0.13820542 0.17647958 -0.052511558 0.22138406 0.31597733
-0.3432407 0.12048212 0.10320443 0.38047603 0.04421422 0.4419422 -0.008701533 0.1183902
-0.30704147 0.22088759 -0.017051935 -0.3872371 -0.1727939 -0.26591802 -0.020894691 -0.07971898
-0.36100194 -0.07785025 -0.48217136 -0.015480936 -0.06014408 -0.07947748 0.13704892 -0.25352484
-0.06435565 -0.2919839 -0.06447766 -0.2804558 -0.036035612 -0.38680273 -0.2588135 -0.40002298
00000000: 0ed9 a33e 329a 793e d89e 24bd ff86 ab3e
00000010: 8d8a e9be 5e1d bf3d f6d4 8dbe 64bf 10bd
00000020: 5d47 81be 9373 9ebe 72b9 fc3e e1a4 0cbe
00000030: c292 06be 45b3 e1be 2718 ed3e dd61 3a3e
00000040: 0127 0cbe 2d8b 9cbe 2eb1 293e 34ca 21be
00000050: 18eb ab3e c6c2 cd3c 601c fcbd 3983 6cbd
00000060: 3a49 bf3e 32d9 37be a481 c03e b985 0dbe
00000070: 10b7 343e 5c16 57bd 81b2 623e c8c7 a13e
00000080: 3fbd afbe 54bf f63d d85c d33d c1cd c23e
00000090: f819 353d 3f46 e23e e090 0ebc 9076 f23d
000000a0: 8a34 9dbe 5b30 623e 80b0 8bbc f143 c6be
000000b0: e2f0 30be 6826 88be 582b abbc b443 a3bd
000000c0: 3fd5 b8be f46f 9fbd 2adf f6be c0a3 7dbc
000000d0: a459 76bd 17c5 a2bd 8d56 0c3e 02ce 81be
000000e0: e5cc 83bd ea7e 95be dd0c 84bd e797 8fbe
000000f0: 149a 13bd 020b c6be 3483 84be d0cf ccbe

fc2.weight f4 [5, 64]
0.10550408 0.077400416 0.10344505 -0.01273696 0.040877156 -0.08153868 -0.15567136 -0.11437699
-0.061537933 -0.10756549 0.010635681 -0.03178373 -0.12412527 -0.037497636 -0.0027465571 -0.091246545
-0.113912016 0.030829303 -0.052326918 -0.028968245 -0.06910872 0.06914308 -0.071212485 -0.023319513
-0.14909571 -0.07532202 -0.00692511 -0.024547555 0.031326964 0.07373874 0.06242028 -0.083625294
0.013084381 -0.11908972 0.034509867 -0.12983957 0.108587 -0.11274946 -0.021411106 -0.04414907
0.017129527 -0.0065488876 0.07604274 0.015697014 0.10554001 -0.10089384 -0.037240222 0.042330384
-0.067400604 -0.015126736 -0.12957305 -0.08072567 0.11071628 0.030466527 -0.07948403 0.015260685
-0.10507357 -0.03306943 0.106815994 -0.0779647 0.037078276 0.06380248 0.03297622 -0.124327436
-0.0059396685 -0.1115815 -0.05212632 -0.05158544 0.047139734 0.031502414 0.10540469 -0.103333116
0.042880185 0.051891256 -0.17108549 -0.08108212 0.046559703 0.10409646 -0.09160006 -0.018366767
0.002065525 0.10150144 -0.078467906 -0.08800723 -0.05412888 0.021836903 0.027154908 0.024850393
-0.075252384 0.031672254 -0.13807416 0.010349866 -0.07498181 0.010520428 -0.0770159 0.01165387
0.0885549 0.0021359622 -0.028902456 -0.06870109 0.055304483 -0.006563554 0.014312461 -0.05520676
0.08914105 -0.110814564 0.114968255 0.027491916 -0.0570651 0.12576929 -0.09645045 0.106223434
0.07809314 0.004851725 0.08343946 -0.09121303 -0.01547204 0.029581115 -0.05759927 0.09714309
0.05733639 0.028200228 -0.07383226 0.059375014 -0.090424046 0.0992202 0.10949378 0.17554004
-0.12613639 0.00034537053 -0.019955352 -0.1260852 -0.071038336 -0.124153286 -0.105163604 -0.055777878
0.07806724 0.048831448 -0.0986418 -0.031524524 -0.06826386 0.088648185 -0.0955438 -0.07470341
-0.01961973 -0.10138367 0.020861179 -0.07660471 0.10940462 -0.089236125 0.10247278 0.07778691
-0.00987246 -0.039409935 0.09499258 0.061272874 -0.03076452 0.008599639 0.052142665 -0.008311307
0.05091785 -0.0015111715 -0.084646 -0.058282524 0.09460537 -0.11428155 -0.015129134 0.08760378
0.10365553 0.098909676 -0.09279546 -0.09498067 -0.0058098882 0.08455953 -0.08226092 0.051784873
-0.09081897 0.034865856 -0.07686964 -0.07535161 0.016752824 0.027152985 -0.06827359 0.10762201
-0.00033777952 0.119590744 0.023131952 0.095814764 0.020264342 0.10902168 0.0062431744 -0.042107537
0.020085089 -0.1291161 -0.012687027 0.06998672 0.015504424 0.08568989 -0.02761087 0.10077444
-0.07036848 -0.019049784 -0.066342555 0.06442794 0.0067928466 -0.013956689 -0.10174427 -0.11362668
-0.0053131203 0.045851406 -0.023085743 0.0946108 -0.020956738 -0.11194216 -0.08001099 -0.102193765
-0.084945306 -0.03074193 -0.037570287 -0.046564147 0.06681667 0.11594652 0.05527618 0.032084707
-0.057028733 0.018458292 -0.09533864 -0.053595852 -0.099843144 0.06159548 0.11327878 -0.06656997
0.031610563 0.079668835 0.1034029 0.007993442 0.004542038 0.11734119 0.09540632 -0.07546413
-0.011248957 -0.049885463 0.011212995 -0.08734296 0.056178033 0.09157613 0.08838006 0.025288384
-0.083490014 0.018975103 0.123280585 0.06342422 0.11366019 -0.05992001 -0.080269635 -0.038497463
00000000: 8612 d83d 1c84 9e3d 00db d33d afae 50bc
00000010: ce6e 273d c0fd a6bd 5068 1fbe 7c3e eabd
00000020: 330f 7cbd 4c4b dcbd 4841 2e3c a82f 02bd
00000030: 6435 febd 1f97 19bd 95ff 33bb 78df babd
00000040: b44a e9bd bc8d fc3c c054 56bd d04e edbc
00000050: df88 8dbd e39a 8d3d dad7 91bd 9008 bfbc
00000060: 8cac 18be 6e42 9abd 08ec e2bb f417 c9bc
00000070: b450 003d 5604 973d 68ac 7f3d bd43 abbd
00000080: df5f 563c 50e5 f3bd 385a 0d3d aaf4 04be
00000090: dc62 de3d 30e9 e6bd 5866 afbc a8d5 34bd
000000a0: 3953 8c3c 0d98 d6bb 4cbc 9b3d 0697 803c
000000b0: 5c25 d83d 6ea1 cebd 3489 18bd a062 2d3d
000000c0: 5409 8abd 21d6 77bc ccae 04be 8053 a5bd
000000d0: 38bf e23d f094 f93c 86c8 a2bd f407 7a3c
000000e0: d030 d7bd d073 07bd 58c2 da3d f5ab 9fbd
000000f0: 64df 173d e0aa 823d 1312 073d 629f febd
00000100: 8da1 c2bb d784 e4bd 6882 55bd 414b 53bd
00000110: 9815 413d ad08 013d 6ade d73d 50a0 d3bd
00000120: 22a3 2f3d ed8b 543d 0931 2fbe 620e a6bd
00000130: 63b5 3e3d 8630 d53d d098 bbbd e775 96bc
00000140: c25d 073b fddf cf3d c8b3 a0bd 223d b4bd
00000150: 3fb6 5dbd 4ee3 b23c f873 de3c 0d93 cb3c
00000160: ec1d 9abd c4ba 013d 5063 0dbe 7c92 293c
00000170: 1090 99bd e05d 2c3c 83ba 9dbd e0ef 3e3c
00000180: 455c b53d 80fb 0b3b d8c4 ecbc 28b3 8cbd
00000190: f486 623d 1513 d7bb d07e 6a3c 7c20 62bd
000001a0: 958f b63d bff2 e2bd 7a74 eb3d ba36 e13c
000001b0: 18bd 69bd aac9 003e d087 c5bd ac8b d93d
000001c0: 4cef 9f3d 38fb 9e3b 4fe2 aa3d e6cd babd
000001d0: 707e 7dbc 1854 f23c 36ed 6bbd f5f2 c63d
000001e0: 90d9 6a3d 2a04 e73c 5e35 97bd 3733 733d
000001f0: 3e30 b9bd f633 cb3d 463e e03d c5c0 333e
00000200: e629 01be d912 b539 6879 a3bc 7b1c 01be
00000210: 8c7c 91bd 1444 febd 0460 d7bd 5877 64bd
00000220: b8e1 9f3d 7c03 483d b604 cabd dc1f 01bd
00000230: eccd 8bbd 2e8d b53d 78ac c3bd 1afe 98bd
00000240: 8eb9 a0bc 3ea2 cfbd 10e5 aa3c eee2 9cbd
00000250: 880f e03d 6ec1 b6bd 40dd d13d be4e 9f3d
00000260: 19c0 21bc 506c 21bd 788b c23d 44f9 7a3d
00000270: e005 fcbc 80e5 0c3c 8c93 553d 262c 08bc
00000280: 3c8f 503d 8012 c6ba e25a adbd a8b9 6ebd
00000290: 76c0 c13d 720c eabd 30e0 77bc 9c69 b33d
000002a0: 5a49 d43d 2891 ca3d 8c0b bebd 3a85 c2bd
000002b0: e060 bebb 8c2d ad3d 6a78 a8bd 601c 543d
000002c0: 4cff b9bd 80cf 0e3d d46d 9dbd f251 9abd
000002d0: 383d 893c f06f de3c 06d3 8bbd ee68 dc3d
000002e0: 0018 b1b9 feeb f43d 387f bd3c 883a c43d
000002f0: 6801 a63c c246 df3d 8b93 cc3b f478 2cbd
00000300: 7c89 a43c 0337 04be 40dd 4fbc 3355 8f3d
00000310: 4506 7e3c 2e7e af3d 3130 e2bc d462 ce3d
00000320: 5a1d 90bd 4b0e 9cbc 9bde 87bd ccf2 833d
00000330: 8796 de3b 99aa 64bc 4d5f d0bd 1bb5 e8bd
00000340: af19 aebb afce 3b3d 501e bdbc 4fc3 c13d
00000350: 77ad abbc ee41 e5bd cddc a3bd f74a d1bd
00000360: cef7 adbd 80d6 fbbc 4de3 19bd 0cba 3ebd
00000370: 2ed7 883d 5e75 ed3d 4769 623d 416b 033d
00000380: f696 69bd d835 973c e840 c3bd 5387 5bbd
00000390: 907a ccbd 8b4b 7c3d b4fe e73d d655 88bd
000003a0: 147a 013d 6a29 a33d e6c4 d33d edf6 023c
000003b0: 60d5 943b 9450 f03d 6464 c33d f08c 9abd
000003c0: 8c4d 38bc b354 4cbd b6b6 373c dee0 b2bd
000003d0: f01a 663d 448c bb3d 9b00 b53d 9629 cf3c
000003e0: d0fc aabd ad71 9b3c 887a fc3d 8fe4 813d
000003f0: acc6 e83d af6e 75bd 6864 a4bd 84af 1dbd

fc2.bias f4 [5]
-0.03854384 -0.5023751 0.07880975 -0.12777834 0.35657766
00000000: 25e0 1dbd a89b 00bf 0267 a13d 53d8 02be
00000010: 5991 b63e

fc3.weight f4 [1, 5]
0.35830846 0.14603749 -0.37147495 -0.00041440272 -0.075300016
00000000: 3574 b73e da8a 153e f731 bebe 3144 d9b9
00000010: e536 9abd
