res/european/regular/models/regular_16.pt (torch, 14495 bytes, 5 tensors)

fc1.weight f4 [64, 30]
000000 3c f5 2e be 68 fb 14 3e 20 1c 62 bc 21 76 d5 bd
       -0.17085737 0.14549029 -0.013800651 -0.10422922
000010 a0 8c 16 3e 68 e9 d9 bd b9 26 ce bd 44 e1 29 3e
       0.14702082 -0.10640222 -0.100659795 0.16589838
000020 d8 4a 29 3e d0 68 6f 3c 60 15 5e 3d af 27 36 be
       0.16532457 0.014612392 0.054219604 -0.17788576
000030 c0 e4 c4 3b a2 ba 02 3e b2 b2 18 3e 68 1e 1b 3e
       0.0060087144 0.12766507 0.14911917 0.15148318
000040 32 17 35 be 09 f4 38 be b4 50 0a 3e dc a9 bc 3d
       -0.1768463 -0.18061842 0.13507348 0.092120856
000050 7c 82 29 3d c6 3f f9 bd dc 4e 6e 3d b0 e4 32 bd
       0.041384205 -0.12170367 0.058180675 -0.043675125
000060 b3 c8 2c be f0 66 31 3d f4 e3 bf 3d a8 3d 28 3d
       -0.16873436 0.04331106 0.093696505 0.041074425
000070 09 6e 9b bd 0c 85 a1 3d 80 49 98 bd c6 5d 28 3e
       -0.07589347 0.07886705 -0.07435894 0.16442022
000080 1a 5a 2a be 00 13 2c 3e 2c d7 27 be d4 30 2e 3e
       -0.16635934 0.16804123 -0.16390675 0.17010814
000090 c0 ee 19 3d 7c bc cc bd 98 c7 ac bc c0 fc 79 3b
       0.037581205 -0.09996888 -0.021091267 0.0038145036
0000a0 58 c4 f2 bd a9 47 29 be 9c 14 ff 3d e4 6a 37 3d
       -0.11853856 -0.16531242 0.12455103 0.044779673
0000b0 50 80 db bc 2f e8 f5 bd 66 53 82 3d c7 20 10 be
       -0.026794583 -0.12007176 0.06363563 -0.14075004
0000c0 62 59 21 3e 6d fb 1b be 44 5f b3 bd 62 20 02 be
       0.15756753 -0.1523263 -0.08758405 -0.12707666
0000d0 58 67 b3 3d 4b 35 00 be 24 f8 cc 3d b4 52 14 bd
       0.08759946 -0.1252033 0.100082666 -0.036211684
0000e0 8c f8 2d 3d 00 ce 18 3a 88 f4 30 3e e9 e2 02 be
       0.04247336 0.0005829036 0.17280781 -0.12781872
0000f0 d6 87 0a 3c 0d 19 a2 bf 7d c4 ab 3f 8f 1f e2 bf
       0.008455237 -1.2663895 1.3419338 -1.7665881
000100 b2 12 e7 3f e4 7a 45 bf 53 c5 b4 bf 23 72 ba bf
       1.805258 -0.7714064 -1.4122719 -1.4566082
000110 9f 2d 38 3e 5e b9 e0 bf 0e b7 f5 bf c3 f4 f6 3f
       0.17986153 -1.755657 -1.9196489 1.9293445
000120 c9 ff fb bf c1 7f 2b bf b5 27 f7 bf a2 61 67 be
       -1.9687434 -0.6699181 -1.9308993 -0.22595838
000130 13 b6 e1 bf a8 50 af bf 64 4d 92 bf 4a b2 49 3f
       -1.763369 -1.3696489 -1.1429868 0.7878767
000140 fa e6 0f 3f 86 21 fb 3e cb ae 62 3e dc ad e1 3d
       0.5621182 0.49049014 0.2213699 0.11019489
000150 64 13 62 be 73 60 db bc 49 0d a9 3e ce 4d b2 3e
       -0.2207771 -0.026779389 0.33017948 0.34824985
000160 13 2f 17 3f 85 8a 13 3e 7d ef 09 bc 7d 14 46 be
       0.59056205 0.1440831 -0.008418915 -0.19343753
000170 9a f0 2b 3e 70 05 de bd d5 e6 72 3e 85 a6 68 be
       0.16791001 -0.10840881 0.23720868 -0.22719772
000180 aa 5f 36 be 05 66 dc be b6 93 09 bd f9 11 6d 3c
       -0.1780993 -0.43046585 -0.033588134 0.014469617
000190 5e 5f 72 be b1 55 0a 3f bf 1a 01 bf 49 9e 9c 3e
       -0.23669192 0.54037005 -0.50431436 0.30589512
0001a0 c3 80 8d be df 75 87 be ff db d6 bd 2b 4c 43 be
       -0.276373 -0.26457116 -0.1049118 -0.19072025
0001b0 42 3a 4d be 42 24 24 3c 8e b8 b2 be 09 02 3f 3d
       -0.20041755 0.01001841 -0.3490643 0.0466328
0001c0 18 b0 c4 3c d1 d1 8a be 47 8e 02 3e bc 73 9e 3e
       0.02400975 -0.27113202 0.12749587 0.30947673
0001d0 be 98 92 3e 0b 7a 4d 3b 18 3d 04 be bd b3 1f 3e
       0.28632158 0.003135326 -0.1291393 0.15595908
0001e0 54 6f bc 3d d8 b1 a6 3f 88 9e d2 bf fb 6b d3 3f
       0.09200922 1.3023024 -1.645463 1.6517328
0001f0 e6 70 03 c0 b0 77 78 3f 31 f9 c9 3f 1d 98 c5 3f
       -2.0537658 0.9705763 1.5779172 1.5437046
000200 e3 4f 9a bd ae 3e d4 3f e7 10 ec 3f 40 63 01 c0
       -0.075347684 1.6581628 1.8442658 -2.0216827
000210 de b9 fe 3f e8 de 34 3f 15 56 03 40 05 bc 1b 3e
       1.9900472 0.7065263 2.052129 0.15208443
000220 06 7b bc 3f 7f 55 d2 3f 32 f3 a7 3f 1f 53 45 bf
       1.4725044 1.6432341 1.3121092 -0.7707996
000230 a8 0b 0b bf c3 9e 28 bf 30 ec eb bd ef 5e 29 3e
       -0.5431466 -0.6586725 -0.115196586 0.1654012
000240 17 97 43 3e 5a bc 14 bd ca 95 81 be 8a 82 be be
       0.19100605 -0.03631244 -0.25309592 -0.37208968
000250 8d 4f 32 bf da 7e df bc cc d3 f1 bb e0 ea 28 3f
       -0.69652635 -0.027282167 -0.0073799845 0.6598339
000260 8d 97 1e bf 5b c4 18 3f dc a8 1d bf a1 53 4d 3f
       -0.6195 0.59674615 -0.61585784 0.8020573
000270 61 ae ec 3e 0f 95 25 3f a9 92 7d be ef 6b 0e 3f
       0.4622679 0.6468057 -0.24762978 0.55633444
000280 62 c1 47 3f a9 b2 3f bf 88 7e 5b 3f 39 81 e9 3d
       0.78029454 -0.7488199 0.85739946 0.114016004
000290 3e 14 35 3f cb 81 eb 3d 5a 10 6a 3f e9 0f 2b 3f
       0.7073401 0.114993654 0.914312 0.6682115
0002a0 bb c9 29 3f 12 11 e8 be eb c8 b7 be c9 97 04 bf
       0.6632344 -0.45325524 -0.35895476 -0.51794106
0002b0 17 4c 72 3e e1 6a 29 bd 75 a9 26 3e 5a db 92 be
       0.23661838 -0.041361693 0.1627558 -0.28682977
0002c0 f7 9d 37 3d 84 18 dd bd 2a 51 80 bd 43 d1 d3 bd
       0.04482838 -0.107956916 -0.06265481 -0.10342648
0002d0 7e d7 aa bd 11 dc b8 bd 22 4b 77 3d 40 10 02 3e
       -0.08341883 -0.09026349 0.060374387 0.12701511
0002e0 ba 11 32 be f2 3c 15 3e c7 d2 48 3c d2 85 98 3d
       -0.17389575 0.1457403 0.0122572845 0.07447399
0002f0 5f b4 a5 bd 66 54 f0 3d 01 ec 9f 3c 8d 19 31 3e
       -0.08091044 0.11734848 0.019521715 0.17294903
000300 4f d7 c6 39 1a 23 34 be e5 4c 96 3d d1 6e a4 3d
       0.0003792592 -0.17591515 0.07338885 0.08028949
000310 8d c9 f0 bc d8 6b b2 bc cf ef d5 bd 4e 23 0f 3d
       -0.029392982 -0.02177994 -0.104461305 0.03494578
000320 8e e0 4e 3c af 42 b4 bd c4 5e cb bd 3f af cb bc
       0.01262678 -0.088017814 -0.099301845 -0.024863837
000330 a6 55 13 3d 4c 80 fe 3b e2 d1 aa 3d 52 ee bb 3d
       0.035970353 0.007766759 0.08340813 0.09176315
000340 72 d9 f4 3d 6b 28 82 3d f0 61 7e bc ac 13 38 3e
       0.11955537 0.06355365 -0.01552628 0.17976254
000350 70 29 77 3c 74 0f 03 bd d6 5d 35 be f0 52 15 3c
       0.015085563 -0.03199716 -0.17711577 0.009114012
000360 b0 4b 66 3c 30 a7 0d 3d 9c c4 47 3d d6 db 1d be
       0.014056131 0.03458327 0.048771486 -0.15415892
000370 20 14 a3 3b 74 58 cc 3d a4 d8 b8 3d 1e 70 1e be
       0.0049767643 0.099778086 0.09025696 -0.15472457
000380 80 22 62 3b 9a 44 16 be 89 a0 81 bd 90 61 65 bd
       0.0034505427 -0.14674607 -0.06329448 -0.056001246
000390 93 7d 00 be 78 11 9e bc 20 9a a3 3d 68 eb ce 3d
       -0.12547903 -0.01929544 0.079883814 0.10103494
0003a0 4a c5 2a 3e 05 cc d1 bd a0 fb 26 3e 64 5d 27 be
       0.16676822 -0.10243992 0.16306925 -0.1634422
0003b0 d8 4e 04 3e bd b0 32 be e1 6e a2 bd ae f5 80 bd
       0.12920702 -0.17450233 -0.07931305 -0.0629686
0003c0 cb d7 a6 bc d8 d1 ef bd ff 66 2a be 52 6d 6b bd
       -0.02036657 -0.117099464 -0.16640852 -0.057477303
0003d0 16 6a 97 bd 83 6e 3c bc bf 5e ec bd 1b 62 cd bb
       -0.07393281 -0.011500957 -0.11541509 -0.0062677986
0003e0 89 d3 d0 bd 2f c5 36 3e 5e 24 be bd 0d 97 10 3e
       -0.10196597 0.17848657 -0.0928428 0.14120121
0003f0 6f 88 bd 3c c1 a0 ee 3d 70 c2 aa 3d 5f bc 0a be
       0.023136346 0.11651755 0.08337867 -0.1354842

fc1.bias f4 [64]
000000 50 f4 a9 3d 7e 76 db bd d1 17 d2 3d 1e ab 66 be
       0.08298552 -0.1071596 0.10258449 -0.22526214
000010 7c 52 a8 bd a5 2e a9 bd 05 b6 90 bd 5d 1a a4 bd
       -0.08218858 -0.0826085 -0.070659675 -0.08012841
000020 f2 cf 11 3a 30 9c 2a bc fe 5f 30 be 14 29 19 bf
       0.00055622973 -0.010413215 -0.17224118 -0.59828305
000030 56 09 3d 3e f9 e6 c5 bd 54 e9 09 be ff c6 fd 3e
       0.18460593 -0.09663195 -0.13467914 0.49565884
000040 e1 d5 3b be ac ce 33 bd 58 23 62 3b 33 9f 3d 3e
       -0.18343307 -0.04389827 0.003450593 0.18517761
000050 10 e3 89 be 98 8a 38 be 43 3d d3 ba 16 5b d5 bd
       -0.26931047 -0.1802162 -0.001611628 -0.10417764
000060 c5 4c 10 3e 36 b3 37 be 74 7b a3 bc 8c d0 2b 3d
       0.14091785 -0.17939457 -0.019956328 0.041946933
000070 68 eb 83 be e0 8b 1b 3c 24 c6 50 3d c4 10 f2 bd
       -0.25765538 0.009493798 0.05097021 -0.11819604
000080 3f ae 09 bb 57 62 3d 3e 08 82 76 bb 97 41 4e 3e
       -0.00210084 0.18494545 -0.0037614126 0.20142208
000090 4a 58 85 3d b9 92 cf 3c 42 a1 10 3c 9c 64 83 be
       0.065109804 0.025338518 0.008827509 -0.25662696
0000a0 e8 7a 18 bd eb fd 58 3e 1c 25 7b bd 26 78 33 3e
       -0.037226588 0.21190612 -0.061314687 0.17526302
0000b0 80 56 aa 3a c2 04 a7 be 94 7f a5 be cf af a2 bd
       0.001299575 -0.32620817 -0.32323897 -0.07943689
0000c0 d0 3b ca bd 80 00 09 3e 08 6e a1 3e 67 ba 66 be
       -0.098746896 0.13379097 0.3152926 -0.22532044
0000d0 ac 64 25 3e b6 b8 b2 be 13 30 15 be cd e4 3a 3e
       0.16151685 -0.34906548 -0.1456912 0.18251343
0000e0 95 3d 86 3d 0b 7f ec be 5e 43 2f be 43 81 bf bd
       0.065547146 -0.46190676 -0.17115542 -0.093508266
0000f0 68 e1 17 bd 44 55 11 3e 23 1e bb 3d 44 b7 0d 3d
       -0.0370802 0.14192683 0.091366075 0.034598604

fc2.weight f4 [16, 64]
000000 d6 1e 8c 3d 58 db a0 3c c8 c8 f0 bd 70 c4 d4 bc
       0.06841819 0.019635841 -0.11757046 -0.025972575
000010 0a dc 89 3d 60 64 60 bd 32 6b b4 3d d0 e4 5b bc
       0.06731422 -0.054783225 0.088095084 -0.013421252
000020 04 f2 22 bd a0 2f 08 3d ba fc ad bd 5e ec fa bd
       -0.039781585 0.033248544 -0.084954694 -0.12252115
000030 18 03 3c 3d 78 ac cd bc 74 47 16 bd 70 c3 36 bc
       0.045901388 -0.025106654 -0.036689237 -0.011154994
000040 9c 18 fd 3d 50 33 01 bd 16 e8 9c 3d 60 6a 3e bc
       0.123582095 -0.031543076 0.076614544 -0.011622041
000050 c4 75 e3 bd 34 fe d5 bd 18 5a f1 3c e0 78 a5 3d
       -0.111064464 -0.10448876 0.029461905 0.08079696
000060 ac f6 20 bd 14 58 01 3d 66 a2 c1 bd 00 12 f6 3a
       -0.039297745 0.03157814 -0.09454803 0.0018773675
000070 08 0b 74 3d d8 94 ec 3c d8 8b ad bc 0a ca e2 bd
       0.059580833 0.028879568 -0.021184847 -0.11073692
000080 da 03 c0 3d 28 0d 46 bd c0 b8 b9 3d 38 e5 3e 3d
       0.093757346 -0.04835239 0.090684414 0.04660532
000090 a6 bb a7 bd 80 3e 0c 3d 40 c3 8b 3c 64 59 d3 3d
       -0.08190088 0.034239292 0.017060876 0.10319784
0000a0 60 19 ef bd 84 21 19 bd 90 04 a3 bc 70 45 3e 3d
       -0.11674762 -0.03738548 -0.019899637 0.04645294
0000b0 80 85 94 ba c0 22 45 3b e0 b2 5b bc 28 1b 8a bd
       -0.001133129 0.0030080527 -0.013409346 -0.06743461
0000c0 60 56 61 bd 50 4b 88 bd 2e ac 9d bd e8 d2 f1 3c
       -0.055014014 -0.0665499 -0.07698856 0.029519513
0000d0 da 16 f1 3d 20 c3 5b 3d 30 ba 8e bd 00 5d 08 ba
       0.11771937 0.053652883 -0.06969106 -0.00052018464
0000e0 00 05 bb bc dc 10 f2 bd b8 6a b1 3d d8 bb 6c 3d
       -0.022829533 -0.11819622 0.08662933 0.05779633
0000f0 80 00 c9 ba 5c 6d 7a bd a0 45 43 bc c0 01 4b 3d
       -0.0015335232 -0.06113945 -0.011918455 0.049562216
000100 40 74 ad bd 48 76 e9 bd 38 d5 ae bd 00 1f c7 3c
       -0.084694386 -0.113995135 -0.08536762 0.024306774
000110 5b b0 cf bc 7a f1 99 bc fb 74 da bc c0 19 6f 3c
       -0.025352648 -0.018791903 -0.026667109 0.014593542
000120 b0 af 80 bd 20 aa b6 3d c3 cf 61 bb 99 52 d9 3d
       -0.0628351 0.089191675 -0.003445611 0.106114574
000130 59 c8 13 3d ef 49 ae bd 3f a4 c4 3d e2 ad 15 3d
       0.03607974 -0.085101955 0.0960164 0.03654278
000140 14 7e 05 be 88 1d 27 3d e5 66 19 3d 09 bb 44 3d
       -0.13036376 0.040799648 0.037451643 0.048029933
000150 25 a0 e7 bd 02 e5 b8 bd 97 37 e1 bd 9e c0 f7 3d
       -0.11309842 -0.09028055 -0.10996931 0.12097286
000160 21 31 8a bc 80 07 fd bc 2a a8 bd 3d 6a 6e a0 3d
       -0.01686913 -0.030887365 0.092605904 0.0783356
000170 fd 3b 85 3c 38 ee 4e bd 05 84 c0 bc e6 f1 e9 bc
       0.016263956 -0.05052015 -0.023500452 -0.028557729
000180 09 0f 45 3d da 78 b0 bd 28 a9 ba bc 21 11 84 bd
       0.04811004 -0.086168006 -0.022785738 -0.064485796
000190 36 82 bb 3d d1 cb cc bd 00 34 da 3d 5d 55 93 bd
       0.09155695 -0.099998124 0.106544495 -0.07194016
0001a0 30 9b 72 3c dc 44 0e bc a4 29 49 3d 6e 35 5e 3c
       0.014807507 -0.00868341 0.049111977 0.013562543
0001b0 b0 52 d1 3d a1 f1 87 bc 1a 70 23 3d a4 aa c5 3d
       0.102208495 -0.01659471 0.03990183 0.09651688
0001c0 a9 b0 13 3c f2 78 da 3d 8e a2 af bd 67 24 e2 bd
       0.009014287 0.106676 -0.08575927 -0.110420994
0001d0 84 6b 4a 3d 01 f0 e4 3d 5d f9 1c 3d bc 5d 6e bc
       0.04941894 0.111785896 0.03832375 -0.014548715
0001e0 bd ba cf bd 7b c2 ca 3c 28 0b 90 3d 45 dc eb 3b
       -0.101430394 0.024750939 0.07033378 0.007197889
0001f0 60 78 71 bd 40 11 60 bc a9 e9 16 bd ea 83 a1 3d
       -0.05895269 -0.013675988 -0.03684393 0.07886489
000200 2c ce 00 bd 30 c2 7e bc 26 6d 8f bd 12 a9 d9 bc
       -0.03144662 -0.015549228 -0.0700324 -0.026569877
000210 82 d4 69 3d dc a1 07 3d 20 f0 8a 3b c0 33 10 bd
       0.05708743 0.033113346 0.004240051 -0.035205603
000220 00 c4 be 39 7e e5 80 bd 7b 60 0f 3d 78 0b fc bc
       0.00036385655 -0.06293772 0.03500412 -0.030767187
000230 2a da 1d bd d4 dc 1e bd 4a 7d 08 be 84 58 50 3d
       -0.038538136 -0.038784817 -0.13329044 0.050865665
000240 26 4d 67 3c c6 d3 ab bd d1 11 00 bd 06 fe c7 3d
       0.014117515 -0.08390002 -0.03126699 0.09765248
000250 58 e6 ab 3c c9 3d 92 3d 52 08 d3 bd 58 61 c8 3d
       0.02098386 0.07140691 -0.10304321 0.09784192
000260 4b 1c e0 bc 80 ae 2d bd db 45 2d 3a 60 b9 10 3d
       -0.027357241 -0.042402744 0.00066098355 0.035333037
000270 a0 44 f8 bd 0e 9c ff 3d e0 1a de 3d c3 08 29 bd
       -0.12122464 0.12480937 0.1084497 -0.04126812
000280 58 37 2e bd b8 58 8c bd b6 92 81 bd 67 cc a6 3d
       -0.04253325 -0.06852859 -0.06326811 0.081444554
000290 a0 f0 d5 3d 7a dc c4 3a f8 75 a1 3d 34 17 1f bd
       0.10446286 0.001501932 0.07883829 -0.038840488
0002a0 78 3e 97 3d aa 76 ed bd e0 2f 3f bd b5 a8 3a 3c
       0.07384962 -0.11594899 -0.046676517 0.011392762
0002b0 3a ea ec 3d b1 f8 c4 bd a4 b3 6e 3d 14 54 74 3d
       0.11568113 -0.096177466 0.058276787 0.059650496
0002c0 ce 15 9c 3d 5c 5d c9 3d dc f7 f9 3d 34 fa 96 bd
       0.076213464 0.0983226 0.122054785 -0.07371941
0002d0 f0 1d c5 3d f8 8c 8c 3d b6 f8 f0 bd 80 3c b9 3d
       0.09624851 0.06862825 -0.11766188 0.090447426
0002e0 7c 14 0b 3d bc ed 7c 3d 78 8d c3 3c fb 5f 12 3c
       0.033955082 0.06175016 0.023871168 0.008934016
0002f0 c0 d7 0c bb ba a1 d2 bd 9b 95 03 be 4c 14 de bd
       -0.0021490902 -0.10284753 -0.12850039 -0.10843715
000300 88 4b 71 bd 1c c1 64 bd 00 59 ce 3b f8 ac 73 bd
       -0.058909923 -0.055848226 0.0062972307 -0.059491128
000310 cc 35 94 bd e4 78 f5 bd 70 34 69 3c e6 9a 97 3d
       -0.072368234 -0.11985949 0.0142336935 0.074025914
000320 28 23 73 bd 68 67 d7 3d 00 89 a2 bb 40 8c e5 bc
       -0.0593597 0.1051777 -0.0049601793 -0.028020978
000330 30 9e be bc 48 8e 18 bd ea cb f8 bd b6 25 e9 bd
       -0.023268789 -0.037245065 -0.121482685 -0.11384146
000340 06 f6 f3 bd a8 cf 48 bd 50 04 56 bd 38 31 f3 3d
       -0.119121596 -0.04902616 -0.052250206 0.11874622
000350 d4 14 10 bd 58 e6 96 3c b8 cb fd bc 30 ed 0a bc
       -0.035176113 0.018420383 -0.03098093 -0.0084794015
000360 f0 bb 34 bc 94 01 c3 bd fc 6b 14 3d 60 85 ae 3b
       -0.011031136 -0.095217854 0.036235794 0.005325958
000370 44 d5 d5 bd 5c ab 97 3d c0 5e 51 3b e0 c7 9a 3b
       -0.10441068 0.07405731 0.0031947345 0.004723534
000380 04 01 4d 3d 80 2e 3b bb e4 53 b6 bd e0 9b e3 3b
       0.050049797 -0.0028561652 -0.089027196 0.006946072
000390 2a 62 d1 3d 3c 71 60 3d de 5c ef 3d 20 cd ac bc
       0.102238014 0.05479549 0.11687635 -0.021093905
0003a0 08 16 97 bc 30 19 ca 3d a4 d6 45 3d f0 75 b9 3c
       -0.018443123 0.098680854 0.0483004 0.022639245
0003b0 98 ae c8 bd 0c b9 94 bd a8 82 7d bd 4e 44 92 3d
       -0.09798926 -0.072618574 -0.06189218 0.07141934
0003c0 1c 8a 6c bd 6e 3c f6 bd 2e ec a9 3d c8 a7 26 3d
       -0.0577489 -0.12023245 0.08297001 0.040687352
0003d0 50 41 2b bc 00 c0 ed bd c0 e2 02 bc b6 60 81 3d
       -0.010452583 -0.11608887 -0.007988632 0.06317274
0003e0 a0 82 48 3d b0 9d f5 bd 88 5a d6 3d 5c 57 f1 3d
       0.0489527 -0.11992967 0.10466486 0.117842406
0003f0 e0 0a 9f 3c f8 9c 2c 3d 9a 0b e3 3d e4 ea a0 3d
       0.019414365 0.042141885 0.11086197 0.07857302

fc2.bias f4 [16]
000000 04 a8 ad bd 39 59 a5 3d 43 f8 74 bd 78 35 51 3d
       -0.08479312 0.080736585 -0.059807073 0.051076382
000010 50 22 8b 3d 1d 3a 94 bd 2f 83 ef 3b 99 cc 9a bd
       0.06793654 -0.07237647 0.0073093395 -0.07558555
000020 00 48 0a bd 66 ed 54 3d d8 18 db 3c 34 e5 c1 bd
       -0.03376007 0.051984213 0.026745245 -0.09467545
000030 51 d8 8b bd 14 aa 5a 3d 86 ed 03 be a7 4e 1c be
       -0.068283685 0.053384855 -0.12883577 -0.15264378

fc3.weight f4 [1, 16]
000000 00 69 f2 bb 11 e6 9f bd 44 e8 12 ba 60 32 21 be
       -0.007397771 -0.078075536 -0.0005604068 -0.15741873
000010 08 12 bb bb b9 f9 1a 3d d5 45 a2 3d 36 d8 19 be
       -0.0057089366 0.03783581 0.07923476 -0.15023884
000020 88 53 54 3d 4c 5d 05 be 0a 10 0f be 00 25 54 bd
       0.051837474 -0.13023871 -0.13970962 -0.0517931
000030 0f 93 78 bd de c1 00 be 85 5a 71 3c c6 d0 c9 bb
       -0.06068712 -0.12573954 0.014731054 -0.006158921
