res/european/regular/models/regular_9.pt (torch, 12575 bytes, 5 tensors)

fc1.weight f4 [64, 30]
0	0xbdb9197f	-0.09038066
1	0xbcd77258	-0.02629964
2	0x3d914e34	0.07094994
3	0xbc285120	-0.010273248
4	0xbc999c40	-0.018751264
5	0xbd009310	-0.03139025
6	0x3de1bdb0	0.11022508
7	0xbe02f2c8	-0.12787926
8	0xbcaa57c0	-0.020793796
9	0xbd4b9a7c	-0.049707875
10	0xbdfd772a	-0.12376244
11	0x3c7871d0	0.015163854
12	0x3de516d4	0.11185995
13	0xbd968c30	-0.073509574
14	0xbe1ed885	-0.15512283
15	0xbdbcb558	-0.09214276
16	0xbc8da6d8	-0.017291471
17	0xbe185216	-0.14875063
18	0x3e2daad0	0.16959691
19	0xbe1514da	-0.14558735
20	0x3dbfee70	0.0937165
21	0xbe27d4c7	-0.16389762
22	0x3d8e8b9c	0.06960222
23	0xbd2ed7d0	-0.042686284
24	0xbdf85afc	-0.12126729
25	0x3da63338	0.08115238
26	0x3e2194c6	0.15779409
27	0xbe09016b	-0.13379447
28	0xbe1a206c	-0.1505143
29	0xbc04c860	-0.008104414
30	0xbe1716df	-0.14754818
31	0xbd8ce6ab	-0.06879934
32	0x3e3681a4	0.17822891
33	0xbe0f2e51	-0.13982512
34	0xbdc84387	-0.09778505
35	0x3dadcd54	0.08486429
36	0xbd86efed	-0.06588731
37	0x3de46acc	0.111531824
38	0xbe1a231d	-0.15052457
39	0xbd859e6d	-0.06524358
40	0xbd678c20	-0.056530118
41	0xbb238d00	-0.0024955869
42	0x3d307d98	0.043088526
43	0xbe00ff8a	-0.1259748
44	0x3dcfdc10	0.101493955
45	0xbde0dac1	-0.10979224
46	0xbc24f2f0	-0.010067686
47	0x3e10f0ce	0.1415436
48	0xbd2bf280	-0.041979313
49	0xbe162802	-0.146637
50	0x3c1113a0	0.008854777
51	0x3e19be22	0.15013936
52	0x3e2d0562	0.16896585
53	0x3d107254	0.03526528
54	0x3d8da478	0.069161355
55	0x3b1e3e00	0.0024145842
56	0xbe2834b5	-0.16426356
57	0xbe16db51	-0.147321
58	0x3d26ada4	0.04069294
59	0xbdfa3be5	-0.12218455
60	0x3df2e709	0.11860473
61	0x3fbb375a	1.4626267
62	0xbfb373e5	-1.4019743
63	0x3ffcec75	1.9759661
64	0xc01a45ba	-2.4105058
65	0x3f3583d5	0.70904285
66	0x3fe71bb8	1.8055334
67	0x3fc02aad	1.5013024
68	0xbe43ebd7	-0.19132935
69	0x3ff70fb7	1.9301671
70	0x4005dae6	2.0914855
71	0xc002f417	-2.046148
72	0x4005885f	2.0864484
73	0x3f5fc85a	0.8741509
74	0x401bc816	2.4340873
75	0x3d8bb5f0	0.06821811
76	0x3fe5f64a	1.7965786
77	0x3fc2e22c	1.5225272
78	0x3f9146a0	1.1349678
79	0xbf501457	-0.81281036
80	0xbea7bb8c	-0.32760274
81	0xbf5c56bc	-0.86069846
82	0xbe4b30fa	-0.19842902
83	0x3e2bb5d4	0.1676858
84	0x3e960218	0.29298472
85	0xbdcf0159	-0.10107679
86	0xbea396df	-0.31951043
87	0xbf0ce6be	-0.55039585
88	0xbf6a6338	-0.91557646
89	0x3d171c50	0.036892235
90	0xba41bbf7	-0.00073903747
91	0x3f27c3de	0.65533245
92	0xbf4258a2	-0.7591649
93	0x3f3395c0	0.70150375
94	0xbf8e9d41	-1.114174
95	0x3eb2c3cc	0.34915006
96	0x3f3605c5	0.71102554
97	0x3f0f4acd	0.5597351
98	0x3deed2bc	0.11661288
99	0x3f5d9c87	0.86566967
100	0x3f30f1c5	0.6911891
101	0xbf8667f6	-1.0500476
102	0x3f3e806c	0.74414706
103	0x3f03fdc6	0.515591
104	0x3f97ba08	1.1853647
105	0x3df111c5	0.117709674
106	0x3f136b6d	0.57585794
107	0x3f0d8e4c	0.5529525
108	0x3f029910	0.51014805
109	0xbf0b192e	-0.54335296
110	0xbeae3b93	-0.34029827
111	0xbf007afb	-0.50187653
112	0xbd5999e0	-0.053125262
113	0x3c8af7cd	0.016963864
114	0x3ea93e6b	0.33055434
115	0x3cfe947f	0.031076668
116	0xbdcef259	-0.10104818
117	0xbdacbb81	-0.08434201
118	0xbebac732	-0.364801
119	0xbd7bf35d	-0.061511386
120	0xbd331643	-0.043722402
121	0xbe051f48	-0.13000214
122	0x3e22c856	0.15896735
123	0x3eb781e6	0.35841292
124	0xbcacdb68	-0.021100715
125	0x3e5469fc	0.20743555
126	0xbe2d0514	-0.16896468
127	0x3f0fe7e5	0.5621322
128	0xbeaa0b7d	-0.3321189
129	0xbeff815c	-0.4990338
130	0x3ed68bbe	0.4190349
131	0xbeecf39d	-0.46279612
132	0x3de1df30	0.11028898
133	0x3e2defc6	0.16985998
134	0x3f0b39af	0.54384893
135	0x3e90247e	0.2815284
136	0xbf33b147	-0.7019238
137	0xbdc004fb	-0.0937595
138	0xbecd1c05	-0.4006044
139	0x3edd3989	0.43207958
140	0x3c2549eb	0.010088424
141	0xbec65c6c	-0.38742387
142	0xbf0cdaf7	-0.55021614
143	0xbd2a76f5	-0.041617353
144	0xbea63e7a	-0.3246954
145	0xbf2c6ab3	-0.6735031
146	0xbede2078	-0.43384147
147	0x3f366772	0.71251595
148	0xbd6a027a	-0.057131268
149	0x3e18bb28	0.14915144
150	0x3d5e63d5	0.054294426
151	0xbf90d0ae	-1.1313684
152	0x3fb6ceaf	1.4281825
153	0xbfe508b7	-1.7893285
154	0x3ffb8242	1.9649127
155	0xbf163ac0	-0.58683395
156	0xbfeb1436	-1.8365543
157	0xbf96322f	-1.1734065
158	0xbd71b2af	-0.059008297
159	0xbfc8ef0a	-1.5697949
160	0xbfdd5c3b	-1.7293772
161	0x3ffc6f83	1.9721531
162	0xc0023c35	-2.0349247
163	0xbf55e508	-0.835526
164	0xc006e92f	-2.1079824
165	0xbd279da4	-0.040921822
166	0xbfb69c51	-1.4266454
167	0xbfc771bf	-1.5581588
168	0xbf595fd9	-0.84911877
169	0x3f23e394	0.6401913
170	0x3ec529bb	0.385084
171	0x3f30149c	0.6878145
172	0x3e82896b	0.25495467
173	0xbe783aef	-0.24241231
174	0xbedc9968	-0.4308579
175	0x3eba74fb	0.36417374
176	0x3e836cbe	0.256689
177	0x3f486aee	0.7828816
178	0x3f56dca0	0.839304
179	0xbcfb2529	-0.030657368
180	0x3e254b9b	0.16142122
181	0xbfc2e330	-1.5225582
182	0x3fc2438e	1.5176866
183	0xbfe77cea	-1.8084996
184	0x4013657b	2.3030689
185	0xbec7c122	-0.39014536
186	0xc0095b69	-2.1462042
187	0xbfbdfdc6	-1.484307
188	0x3df290a5	0.11843995
189	0xbfda4272	-1.7051528
190	0xbffd338e	-1.9781358
191	0x4017083b	2.3598773
192	0xc002ea4d	-2.0455506
193	0xbf7efeb0	-0.9960737
194	0xc026fe01	-2.6092532
195	0x3ba26de8	0.0049569495
196	0xbfda9227	-1.7075852
197	0xbfce63b0	-1.6124172
198	0xbf8832f3	-1.0640548
199	0x3f1dd5bf	0.61654276
200	0x3f08e189	0.5346914
201	0x3f470e13	0.7775585
202	0x3e80cf73	0.2515827
203	0xbe2897ad	-0.1646411
204	0xbe8ac654	-0.27104437
205	0x3da59853	0.08085694
206	0x3daf3bf7	0.08556359
207	0x3f437769	0.7635408
208	0x3f8a6d88	1.0814676
209	0x3e510bb5	0.20414622
210	0xbc5660d0	-0.013084605
211	0x3ce4c518	0.027926013
212	0x3e18cf00	0.14922714
213	0x3d2546e8	0.040350825
214	0x3d828efe	0.0637493
215	0xbd93576d	-0.071944095
216	0x3e24407a	0.16040221
217	0xbde68f47	-0.11257797
218	0x3dd9f018	0.106414974
219	0x3e133406	0.14375314
220	0xbd50d3e4	-0.050983325
221	0xbe282082	-0.16418651
222	0x3e021eca	0.12707058
223	0xbddfde4c	-0.10931072
224	0xbbcdf9a0	-0.006285861
225	0x3d350cd0	0.044201672
226	0xbd7a0ef6	-0.061049424
227	0x3da1f028	0.07907134
228	0xbd55708c	-0.052109286
229	0x3e24867e	0.1606693
230	0x3e29fc42	0.16600135
231	0x3d23c458	0.03998217
232	0x3d977534	0.073954016
233	0xbd92941b	-0.07157155
234	0x3df66104	0.12030223
235	0xbc88b648	-0.016688481
236	0x3dbae2c8	0.09125286
237	0xbd1c22bc	-0.038119063
238	0xbe239344	-0.15974146
239	0xbe2eab96	-0.17057642
240	0x3c56ae2f	0.013103052
241	0x3dc3744c	0.09543666
242	0xbdcdb930	-0.10045087
243	0xbe9df598	-0.30851436
244	0xbe47f822	-0.19528249
245	0xbe5379c3	-0.20651917
246	0xbd2ab340	-0.041674852
247	0xbec3c1eb	-0.38233885
248	0x3f234a88	0.637856
249	0x3eb4dd47	0.3532507
250	0xbf395c08	-0.72406054
251	0x3ed17fa2	0.4091769
252	0xbdda3406	-0.10654454
253	0x3e59a24d	0.21253319
254	0xbf465960	-0.77480125
255	0xbe4ea3f6	-0.20179734

fc1.bias f4 [64]
0	0xbd92012b	-0.07129129
1	0x3e09f034	0.13470536
2	0x3c1fabc9	0.009745547
3	0x3da67106	0.08127026
4	0x3e478ae0	0.1948657
5	0xbe846ef2	-0.25865895
6	0xbea52c66	-0.32260436
7	0xbc83aaa8	-0.016072586
8	0xbe925e1a	-0.2858742
9	0xbd5358f6	-0.05159851
10	0xbe250da4	-0.16118485
11	0xbd2d9b92	-0.04238469
12	0xbd95a6e1	-0.0730722
13	0xbadcf300	-0.0016857088
14	0xbc3a191d	-0.011358527
15	0x3dc86c3c	0.09786269
16	0x3e72bd16	0.23704943
17	0x3e1877ac	0.14889401
18	0x3e303fe6	0.17211875
19	0xbdfc57db	-0.123214446
20	0xbdc0776c	-0.09397778
21	0xbead6904	-0.33869183
22	0x3d671f44	0.0564263
23	0x3c96a07d	0.018387074
24	0xbe244921	-0.16043521
25	0xbb82bcf4	-0.00398981
26	0xbdda5353	-0.10660424
27	0xbe81bff2	-0.25341755
28	0xbe38ebee	-0.1805875
29	0x3dd0ce41	0.1019559
30	0xbe33591b	-0.1751446
31	0xbe44009d	-0.19140859
32	0xbdf18bfd	-0.11794279
33	0x3dd2d8b2	0.102952376
34	0xbe1c79f9	-0.15280904
35	0xbda1af0a	-0.07894714
36	0xbd24a268	-0.040193945
37	0x3e947e4e	0.29002613
38	0x3e2d0a6e	0.1689851
39	0xbcdf1613	-0.027232205
40	0xbda17b84	-0.07884887
41	0xbdc0d68b	-0.09415921
42	0x3e517f90	0.20458817
43	0x3d264374	0.040591672
44	0x3e816a66	0.25276488
45	0xbe8bc26c	-0.2729677
46	0xbc1d3ccb	-0.009597014
47	0x3d89c230	0.067264915
48	0x3e0d49e8	0.13797724
49	0x3dbeb860	0.093125105
50	0xbe26b5da	-0.16280308
51	0x3e133ca1	0.14378597
52	0xbe4eed77	-0.20207773
53	0xb98b2d54	-0.00026545918
54	0x3e4a3aed	0.19749041
55	0x3e517611	0.20455195
56	0xbe473142	-0.19452384
57	0x3e5bed2c	0.21477193
58	0x3e852044	0.2600118
59	0x3d3cd86c	0.046104833
60	0x3df74a28	0.12074691
61	0x3e5e9618	0.21736944
62	0xbebd6c32	-0.3699661
63	0x3e914cff	0.28379056

fc2.weight f4 [9, 64]
0	0x3dd5d5ac	0.10441145
1	0x3d91fa12	0.07127775
2	0xbd112a87	-0.035440948
3	0x3a34c9e1	0.00068965374
4	0x3dea2bb4	0.11434117
5	0xbc926044	-0.017868169
6	0xbe0a4a24	-0.13504845
7	0x3d03e668	0.032202154
8	0x3da58ecf	0.08083879
9	0x3dcc472b	0.09974512
10	0x3cc7e478	0.024400935
11	0x3cd50e1d	0.026007706
12	0x3de493fb	0.111610375
13	0xbde7db0a	-0.11321075
14	0xbdd7a9e0	-0.10530448
15	0x3cef8d68	0.029242232
16	0xbd2f15d6	-0.042745434
17	0x3d8ec276	0.06970684
18	0x3d1caa20	0.03824818
19	0xbb8e6d87	-0.004346553
20	0x3da7b925	0.081896104
21	0xbdb48c7a	-0.08815856
22	0xbdd2b5f0	-0.10288608
23	0xbdcc17bc	-0.099654645
24	0x3db1cb40	0.08681345
25	0x3d8685c8	0.065684855
26	0xbdf10394	-0.117682606
27	0x3cfdb3db	0.03096955
28	0x3bdb17de	0.006686195
29	0xbdae3617	-0.085064106
30	0xbcc89c4b	-0.024488589
31	0x3d9d2093	0.07672229
32	0xbdf3b5c4	-0.118999034
33	0x3ddd265e	0.107983336
34	0xbcfc36c8	-0.03078784
35	0xbddf2524	-0.10895756
36	0x3cd7a2e8	0.026322797
37	0x3dbec3a8	0.09314662
38	0x3d4ce7b6	0.050025664
39	0x3d664607	0.056219127
40	0xbccb983a	-0.02485286
41	0xbd8316d8	-0.064008415
42	0xbe06cce1	-0.13164093
43	0xbdcd858c	-0.10035238
44	0xbbb11625	-0.005404251
45	0xbdb1c740	-0.08680582
46	0xbd7748a4	-0.06037201
47	0x3df4fa20	0.1196177
48	0xbd52d4da	-0.051472522
49	0x3d6baa78	0.05753562
50	0xbd30e768	-0.043189436
51	0xbe04f9eb	-0.12985961
52	0xbdc24624	-0.094860345
53	0x3cab0552	0.02087656
54	0xbddf3555	-0.10898844
55	0x3dfb6d8c	0.12276754
56	0xbd38ccac	-0.045117065
57	0x3dad3b61	0.08458591
58	0x3db8ec64	0.09029463
59	0x3cb4606b	0.022018632
60	0xbdac4f68	-0.08413583
61	0x3d725c29	0.059169922
62	0xbd4fc8da	-0.050728656
63	0x3d810857	0.06300419
64	0xbd36b7f0	-0.04460901
65	0xbd5086ac	-0.050909683
66	0x3df5e564	0.120066434
67	0x3d946f9a	0.07247849
68	0x3c1ad5e0	0.009450406
69	0x3b15b280	0.002284199
70	0x3da7340c	0.08164224
71	0xbdbbb748	-0.091658175
72	0x3d9ee0b6	0.07757704
73	0xbdf26f2e	-0.11837612
74	0xbd2e5150	-0.042558014
75	0xbb757940	-0.0037456304
76	0xbc2d9500	-0.010594606
77	0x3d0c3820	0.034233212
78	0xbc5b6370	-0.013390407
79	0xbdc9fa04	-0.0986214
80	0xbc57be00	-0.013167858
81	0xbd960048	-0.073242724
82	0xbdfe95aa	-0.1243089
83	0xbd8fe43c	-0.07025954
84	0x3d691e40	0.056913614
85	0x3dfed4a4	0.12442902
86	0xbc43b050	-0.011943892
87	0xbd9ebc04	-0.07750705
88	0xbd50a424	-0.050937787
89	0x3dbf55ec	0.0934256
90	0x3d482fe4	0.048873797
91	0x3c5be720	0.013421804
92	0xbde88e4a	-0.113552645
93	0xbd0cd6fc	-0.034384713
94	0xbdcf9b98	-0.10137099
95	0xbdbf4bda	-0.093406394
96	0xbd94b6f2	-0.072614565
97	0xbd5eb2ec	-0.054369852
98	0x3c7264d0	0.014794543
99	0xbca8b5c8	-0.020594493
100	0xbd88281e	-0.06648277
101	0xbdc0e5b6	-0.09418814
102	0x3ddf9a0a	0.109180525
103	0xbd35a1dc	-0.044343814
104	0xbd114084	-0.035461918
105	0x3ca8d118	0.020607516
106	0xbd087b9c	-0.033321008
107	0x3d13e2f0	0.036105096
108	0x3d9319aa	0.071826294
109	0xbd6adf6c	-0.057341978
110	0x3cf3e880	0.02977395
111	0xbddfc19e	-0.109256014
112	0x3db8156e	0.089884624
113	0x3d95b228	0.07309371
114	0xbd6972a0	-0.05699408
115	0xbc2c97a0	-0.010534197
116	0xbda2620e	-0.07928859
117	0x3d1de12c	0.03854482
118	0xbdd66ff4	-0.10470572
119	0xbc47a7d0	-0.012186006
120	0x3da533dc	0.08066532
121	0x3d39a76c	0.04532568
122	0xbc85a3c8	-0.016313449
123	0x3cfb4570	0.030672759
124	0xbbc53f80	-0.0060195327
125	0xbdb72532	-0.08942641
126	0xbda127e4	-0.07868937
127	0x3d06fb04	0.03295423
128	0x3dab7338	0.083715856
129	0xbdeb0e3a	-0.11477323
130	0xbdd9aa0d	-0.10628138
131	0xbb9113ba	-0.0044274004
132	0x3db160f6	0.08661072
133	0xbdc7dc77	-0.09758847
134	0x3daef674	0.08543101
135	0x3d6516d8	0.05592999
136	0x3d4c76ed	0.049918104
137	0xbd830814	-0.06398025
138	0xbd3f88a8	-0.046761185
139	0xbd414d41	-0.047192816
140	0xbe112345	-0.1417361
141	0xbdd39996	-0.103320286
142	0xbdeb2997	-0.11482542
143	0x3db39a86	0.087697074
144	0x3caa7eeb	0.020812472
145	0xbe06b0bd	-0.13153358
146	0x3dd451c6	0.103671595
147	0x3dc1082c	0.09425387
148	0x3bb4e901	0.0055209403
149	0x3d734132	0.059388347
150	0x3ccd8298	0.025086686
151	0xbd3e8516	-0.04651364
152	0xbe0b28aa	-0.13589731
153	0x3da04334	0.07825318
154	0x3dcb7e9f	0.099362604
155	0x3dc10446	0.09424643
156	0xbcaf1e22	-0.021376673
157	0xbdce97bc	-0.10087535
158	0xbd1dc682	-0.03851939
159	0x3d692a2f	0.056924995
160	0xbe04ec59	-0.12980784
161	0x3df7592c	0.12077555
162	0x3de9ebd4	0.11421934
163	0x3df83d08	0.12121016
164	0xbd63b0ec	-0.055588648
165	0xbdc48212	-0.095951214
166	0x3d87dbfa	0.06633754
167	0xbdd3799c	-0.103259295
168	0x3dc8bbe4	0.09801462
169	0x3d2f37ae	0.04277771
170	0xbe08f9dc	-0.13376564
171	0x3df74f16	0.12075631
172	0xbe04bb89	-0.12962164
173	0x3d9ed072	0.077546015
174	0xbc307a1d	-0.010771302
175	0xbdc6b7a4	-0.097029954
176	0xbde2b755	-0.11070124
177	0xbdeca856	-0.11555545
178	0x3d8aaa70	0.067707896
179	0xbd5c95ac	-0.053853676
180	0xbd3c6f8d	-0.04600482
181	0x3d878a02	0.0661812
182	0x3cb40352	0.02197424
183	0x3dd65ffc	0.10467526
184	0xbd41b5e8	-0.04729262
185	0x3cb5317e	0.022118326
186	0xbcdfb5f0	-0.027308434
187	0xbda9fe70	-0.08300483
188	0xbe133cf6	-0.14378724
189	0x3dcb6288	0.09930903
190	0xbdce407a	-0.10070892
191	0x398b2800	0.00026541948
192	0x3dc0604a	0.09393366
193	0x3cf21e60	0.0295555
194	0xbdd5ac10	-0.10433209
195	0x3dbc602e	0.09198032
196	0xbd6cabec	-0.057781145
197	0xbc858e78	-0.016303286
198	0xbda40a7e	-0.08009814
199	0x3ccc2a88	0.024922624
200	0xbd5ea9c8	-0.054361135
201	0x3aecd280	0.0018068105
202	0xbd876322	-0.06610705
203	0x3dfcae0c	0.12337884
204	0x3bc29460	0.005938098
205	0x3df34b40	0.11879587
206	0x3da15bc4	0.07878831
207	0xbca8f2e8	-0.02062364
208	0x3d44c274	0.048037007
209	0x3df7206e	0.12066732
210	0x3c336a10	0.01095058
211	0x3cb32810	0.02186969
212	0x3d9ae966	0.075640485
213	0xbdd8137e	-0.10550593
214	0x3d0e05c8	0.034673482
215	0xb9b25200	-0.000340119
216	0xbd60e670	-0.054907262
217	0xbd88f618	-0.06687564
218	0x3de2cd3e	0.11074303
219	0xbd950acc	-0.0727745
220	0xbdf53666	-0.11973266
221	0x3d8e1908	0.06938368
222	0xbcfeab70	-0.031087607
223	0xbcd79e28	-0.026320532
224	0xbdb23d80	-0.087031364
225	0x3cc9ae60	0.024619281
226	0xbdb4a31a	-0.08820172
227	0xbd4ba7a0	-0.049720407
228	0x3df5f258	0.12009114
229	0xbdfdd630	-0.12394369
230	0xbca66098	-0.020309731
231	0xbdb76072	-0.08953942
232	0xbdfc562e	-0.12321125
233	0xbd8e47d6	-0.06947295
234	0x3cc5e608	0.024157539
235	0x3d732bf4	0.05936809
236	0x3d5eeda4	0.05442585
237	0x3d32a6a4	0.043615952
238	0xbc2f8e00	-0.010715008
239	0x3df94aaa	0.12172444
240	0xbde36f64	-0.111052305
241	0xbd6911c0	-0.056901693
242	0x3c5c2f30	0.013438985
243	0x3d47e7f0	0.048805177
244	0x3dc8c086	0.09802346
245	0xbddb19e8	-0.106983006
246	0xbd8dadd2	-0.06917919
247	0x3d1cefcc	0.038314626
248	0xbdf3a346	-0.11896376
249	0xbd942d94	-0.07235256
250	0xba17c500	-0.0005789548
251	0xbd92b866	-0.071640775
252	0xbd998afe	-0.07497214
253	0xbd927fec	-0.071533054
254	0xbdd70428	-0.104988396
255	0x3da60e06	0.081081435

fc2.bias f4 [9]
0	0xbd3fad77	-0.04679629
1	0xbdb26f7a	-0.08712669
2	0xbda76878	-0.08174223
3	0xbdff00a2	-0.124512926
4	0xbc0ab85c	-0.008466806
5	0x3d8fb93c	0.070177525
6	0xbe7e3b85	-0.24827392
7	0x3d92f7f8	0.071762025
8	0x3d4fc998	0.050729364

fc3.weight f4 [1, 9]
0	0x3e64fe27	0.22362576
1	0x3dc55854	0.09635988
2	0xbbacdb80	-0.00527519
3	0xbc4e7fe0	-0.01260373
4	0xbb39ae5b	-0.0028332684
5	0x3e83b0a9	0.25720719
6	0x3e019bf4	0.12657148
7	0xbe2dca7b	-0.16971771
8	0xbe84c326	-0.25930136
