res/european/regular/models/regular_4.pt (torch, 11295 bytes, 5 tensors)

fc1.weight f4 [64, 30]
0	0xbe271a3d	-0.16318603
1	0x3ddea5d4	0.10871473
2	0x3dbeb25c	0.09311363
3	0xbe06a8fd	-0.13150401
4	0x3c00fed0	0.007873252
5	0xbcbb3f20	-0.022857249
6	0x3cae5c18	0.021284148
7	0x3e1f1e74	0.1553896
8	0xbe27eddc	-0.1639933
9	0x3da440e4	0.080201894
10	0x3e0f7692	0.14010075
11	0xbe18d180	-0.14923668
12	0x3e04d8a8	0.12973273
13	0xbdd43c40	-0.10363054
14	0xbd28bd3c	-0.041196093
15	0xbda33a64	-0.079701215
16	0xbd5a73bc	-0.05333303
17	0xbc184de0	-0.009295911
18	0xbda439dc	-0.08018848
19	0x3e17cbf4	0.14823896
20	0xbd7ff75c	-0.06249176
21	0xbdb056c2	-0.08610298
22	0x3d02e434	0.031955913
23	0x3d898bbc	0.06716105
24	0xbdb82340	-0.089910984
25	0x3b9324e0	0.00449048
26	0x3d5bc074	0.053650334
27	0x3d96cdcc	0.073634714
28	0xbe356bde	-0.1771693
29	0xbbe6dc00	-0.007045269
30	0x3c140728	0.009034909
31	0x3d67cb3a	0.056590296
32	0x3df24ab2	0.11830653
33	0x3cf659fc	0.030072205
34	0x3d947a9d	0.07249949
35	0xbc311515	-0.010808249
36	0x3dc089e1	0.09401298
37	0x3dc9e8c5	0.098588504
38	0xbd63bb2f	-0.055598434
39	0xbc9ce3d6	-0.01915161
40	0xbe067c3e	-0.13133332
41	0xbe2067d4	-0.15664607
42	0xbd11c321	-0.03558648
43	0xbe1c8894	-0.15286475
44	0xbca0e038	-0.019638166
45	0xbdd1d5eb	-0.1024588
46	0xbd39b3f9	-0.04533765
47	0x3e1f56b9	0.15560426
48	0x3d3b10b3	0.045670222
49	0x3d86f83a	0.06590314
50	0xbc1cdcd0	-0.00957413
51	0xbd85c600	-0.06531906
52	0xbe2dd28f	-0.16974853
53	0x3d37d375	0.044879396
54	0xbe38c23e	-0.18042848
55	0x3c8942dc	0.016755514
56	0x3df73bf0	0.12071979
57	0x3cc9ffce	0.02465811
58	0x3e190bfb	0.14945976
59	0xbd0755ac	-0.033040687
60	0x3d210f35	0.039321143
61	0xbdfa0bb1	-0.12209261
62	0x3d39ab08	0.045329124
63	0x3e08fb03	0.13377003
64	0xbdf03d55	-0.11730448
65	0x3db08481	0.08619023
66	0xbd88d7eb	-0.06681808
67	0x3d99fce4	0.07518938
68	0x3e2219ed	0.15830202
69	0xbdebeeb3	-0.11520138
70	0xbbc43033	-0.005987191
71	0x3e42db6d	0.19029017
72	0x3db101ff	0.08642959
73	0xbe104c15	-0.14091523
74	0xbe24da19	-0.16098823
75	0xbbd4c790	-0.0064935163
76	0x3e233199	0.15936889
77	0xbd33e243	-0.043916952
78	0xbde3cd9b	-0.111232005
79	0x3d8975af	0.067118995
80	0xbde06277	-0.10956281
81	0x3d50d370	0.050982893
82	0x3d471791	0.04860646
83	0xbdf585e0	-0.11988425
84	0x3d7fec1e	0.06248104
85	0x3e01f051	0.1268933
86	0x3df5a494	0.119942814
87	0xbdf9df52	-0.12200798
88	0xbd433e32	-0.047666736
89	0x3dcb0901	0.09913827
90	0xbe32432e	-0.1740844
91	0xbe32eca6	-0.17473087
92	0x3de7968c	0.113080114
93	0x3dbfd214	0.09366241
94	0x3d63839c	0.055545434
95	0xbe386522	-0.18007329
96	0xbcf8ef18	-0.030387446
97	0xbcf0eae0	-0.029408872
98	0x3e0257e2	0.12728837
99	0xbd9cba3d	-0.0765271
100	0xbd709552	-0.058736153
101	0xbdea5e6e	-0.11443792
102	0x3d38657c	0.045018658
103	0xbd77ec5a	-0.060528137
104	0xbe29b4d4	-0.16572887
105	0x3c2e6230	0.010643527
106	0xbdc00f55	-0.09377924
107	0x3d291268	0.04127732
108	0xbe10c0cc	-0.14136046
109	0xbe01f474	-0.12690908
110	0xbca8e2d8	-0.02061598
111	0xbe124816	-0.14285311
112	0x3d9cfd6c	0.07665524
113	0x3baa8fe0	0.0052051395
114	0x3d06979c	0.03285943
115	0xbd16e3cc	-0.036838338
116	0x3d34139c	0.043964013
117	0x3e30631e	0.1722531
118	0xbd408258	-0.046999305
119	0x3d67cd2c	0.05659215
120	0x3d8682cf	0.065679185
121	0x3d89b5de	0.067241415
122	0x3d4e2d4c	0.050336167
123	0x3d0c676e	0.034278326
124	0xbe009b3e	-0.1255922
125	0xbc17b8b8	-0.009260349
126	0xbd8d5687	-0.069012694
127	0x3db959b5	0.090503134
128	0x3d312d29	0.04325596
129	0xbdc64dbf	-0.09682798
130	0xbdb8597e	-0.09001444
131	0x3e0479fd	0.1293716
132	0x3e137e84	0.1440373
133	0x3ac650ad	0.0015130244
134	0x3d937764	0.07200506
135	0xbd6e9fa5	-0.058257718
136	0x3d431bb4	0.04763384
137	0xbd986ec9	-0.074430056
138	0x3d23716b	0.039903086
139	0xbdbd15b6	-0.09232657
140	0x3cd6600a	0.026168842
141	0xbda93f10	-0.08263981
142	0xbe04e5a6	-0.12978229
143	0x3dfc1b88	0.12309939
144	0xbd9927d4	-0.074783
145	0xbddfe920	-0.10933137
146	0x3e30b049	0.17254747
147	0x3de4d6eb	0.11173805
148	0x3d9508ce	0.0727707
149	0xbe20f417	-0.15718113
150	0x3dc2c82e	0.095108375
151	0xbdecf7bc	-0.11570689
152	0x3def650e	0.116891965
153	0x3d678da5	0.056531567
154	0xbe1ddd85	-0.15416534
155	0xbc87bb96	-0.01656894
156	0xbe26f83a	-0.16305628
157	0x3e05e9df	0.13077496
158	0x3e3af4d9	0.18257464
159	0x3d713af7	0.058894124
160	0xbdc33cb6	-0.09533064
161	0xbdbff9ae	-0.093737945
162	0xbde50201	-0.11182023
163	0x3caaebbb	0.020864358
164	0xbe229012	-0.15875271
165	0xbe1cdcb9	-0.15318574
166	0xbe01f8ee	-0.12692615
167	0xbda452ea	-0.08023627
168	0xbe1ecfde	-0.15508983
169	0x3d9b813c	0.07593009
170	0x3d257b60	0.040400863
171	0xbd1c6f4c	-0.03819208
172	0xbe36af24	-0.17840248
173	0x3e35bdab	0.17748134
174	0x3d744c9f	0.059643384
175	0xbdeb5eb5	-0.11492673
176	0xbdbf2616	-0.09333436
177	0x3dcf08ca	0.10109098
178	0xbd96c955	-0.0736262
179	0x3ddcaeda	0.10775538
180	0xbc1cdf1f	-0.009574681
181	0xbe8a7090	-0.27039003
182	0xbec6a599	-0.38798216
183	0xbe9f96c3	-0.3116971
184	0x3c0941a8	0.00837747
185	0xbe0b0267	-0.13575135
186	0x3e97c782	0.296444
187	0xbe93bac1	-0.2885342
188	0x3e66c302	0.22535327
189	0x3ecac241	0.3960133
190	0xbf40fb90	-0.75383854
191	0x3e6bde3f	0.23033999
192	0xbee1356b	-0.43986067
193	0x3ec067ef	0.37579295
194	0xbf107b8a	-0.56438506
195	0x3abc821d	0.0014382038
196	0x3ef5d8f1	0.48017076
197	0xbe7384f1	-0.23781182
198	0x3f640ea3	0.89084834
199	0xbec3e72b	-0.38262305
200	0xbe1c577f	-0.15267752
201	0x3ecc4a4e	0.3990044
202	0x3f49b015	0.78784305
203	0xbb0f5662	-0.0021871557
204	0x3e999301	0.29994968
205	0x3f686749	0.907826
206	0x3f541b57	0.8285422
207	0xbe82d7cb	-0.25555262
208	0xbe8aa5b0	-0.27079535
209	0x3e8b133c	0.27163112
210	0x3d96b30c	0.07358369
211	0xbda87760	-0.08225894
212	0x3e12c77a	0.14333907
213	0xbda5a7a0	-0.080886126
214	0xbdd0986b	-0.101853214
215	0x3dfe4d42	0.124170795
216	0x3b565484	0.0032704184
217	0xbe24ddc8	-0.16100228
218	0x3d40129d	0.04689275
219	0xbc310a8c	-0.010805737
220	0x3e01f12f	0.1268966
221	0xbcacbfda	-0.021087576
222	0x3e378d41	0.17924978
223	0x3c66132e	0.014042659
224	0xbc27df2c	-0.010246079
225	0xbc06ce82	-0.008227946
226	0xbdac6e88	-0.0841952
227	0xbdc71cb3	-0.09722271
228	0x3d9c5cea	0.076349095
229	0xbe04dfd8	-0.12976015
230	0xbe10ce95	-0.14141305
231	0x3dde6017	0.108581714
232	0xbd80ab6b	-0.062826954
233	0x3dbd7a91	0.09251893
234	0x3c4f6bb2	0.012659954
235	0xbe09d9c7	-0.13461982
236	0xbcfac4e2	-0.03061146
237	0x3e0607fc	0.13088983
238	0x3d71d7ed	0.059043813
239	0xbdd76e94	-0.10519138
240	0xbc31453e	-0.010819731
241	0xbe89c31d	-0.26906672
242	0xbe9425f8	-0.28935218
243	0xbe81670e	-0.25273937
244	0x3e48ba04	0.1960221
245	0xbe8149bc	-0.25251567
246	0xbd4a9be4	-0.049465075
247	0xbe79a908	-0.24380887
248	0x3e5205ae	0.20509979
249	0x3f0b2c16	0.54364145
250	0xbf4f29a0	-0.8092289
251	0x3e5f805b	0.21826307
252	0xbe722150	-0.2364552
253	0x3e39b997	0.18137203
254	0xbf60a396	-0.8774961
255	0xbe135d5b	-0.14391081

fc1.bias f4 [64]
0	0x3d9137a4	0.07090691
1	0x3d929009	0.07156379
2	0xbe4585d2	-0.1928933
3	0xbba3f680	-0.0050037503
4	0xbe07da14	-0.13266784
5	0x3e45cda9	0.19316734
6	0xbeb98fbc	-0.36242473
7	0x3d44a6ff	0.048010822
8	0xbebd05b5	-0.36918417
9	0x3d79464b	0.060858052
10	0xbdfbaa18	-0.12288302
11	0x3e223fdc	0.15844673
12	0xbe6660ac	-0.22497815
13	0x3e39c35a	0.18140927
14	0xbe112497	-0.14174114
15	0xbe11640d	-0.14198323
16	0xbe66d31b	-0.22541468
17	0x3cf87720	0.03033024
18	0x3db9fddb	0.09081622
19	0xbdde9475	-0.1086816
20	0x3e0cf9dc	0.13767189
21	0xbe0c0229	-0.13672699
22	0x3cf6f674	0.030146815
23	0xbde0d067	-0.109772496
24	0xbb959640	-0.0045650303
25	0xbe433d5a	-0.19066373
26	0xbda9451b	-0.08265134
27	0xbd39594c	-0.045251176
28	0x3d0167ae	0.031593017
29	0x3e4b563c	0.19857115
30	0x3e21fdc9	0.15819468
31	0xbd7ba4cf	-0.06143647
32	0xbe105360	-0.14094305
33	0x3e0f88a6	0.14016971
34	0xbddb4d21	-0.107080705
35	0xbd53d184	-0.05171348
36	0xbe3cd0a2	-0.18438962
37	0x3d45df17	0.04830846
38	0x3e8d8242	0.2763844
39	0x3c9e8f70	0.019355506
40	0xbd59e400	-0.053195953
41	0xbe15290b	-0.14566438
42	0x3e07f978	0.13278759
43	0x3d6aa957	0.0572904
44	0xbe06119a	-0.13092652
45	0xbdb55dbc	-0.08855769
46	0x3e16f21c	0.14740795
47	0xbe0969fd	-0.13419338
48	0xbc4e4e46	-0.012591904
49	0x3d9ca82c	0.07649264
50	0x3e8a2f89	0.2698939
51	0x3ce744c4	0.028231032
52	0xbece6519	-0.40311506
53	0xbd1025d8	-0.03519234
54	0xbe139a07	-0.14414226
55	0x3e0f1fe3	0.13977008
56	0xbe517ba0	-0.20457315
57	0xbc6af895	-0.014341493
58	0x3e7849a9	0.24246849
59	0x3d9798c0	0.074021816
60	0xbd281fac	-0.04104583
61	0xbe1fcbca	-0.15605083
62	0xbd41ae11	-0.047285143
63	0x3d4a0c24	0.049327984

fc2.weight f4 [4, 64]
0	0xbdcfbff6	-0.101440355
1	0x3d9ab7a1	0.07554556
2	0xbdec7197	-0.11545103
3	0x3db67cbc	0.0891051
4	0x3dbfe8e2	0.09370591
5	0xbd9eadb3	-0.07747974
6	0xbd33cb00	-0.043894768
7	0xbd96d77e	-0.073653206
8	0x3d779fe0	0.060455203
9	0x3d79406e	0.06085246
10	0xbd94f7f4	-0.07273856
11	0x3c8481be	0.016175147
12	0x3d9df411	0.077125676
13	0xbcab8a58	-0.02093999
14	0x3dcdfc70	0.10057914
15	0x3d65d774	0.056113675
16	0xbdc8ee0b	-0.09811028
17	0xbd8ba91a	-0.06819363
18	0xbdb3c7f3	-0.08778372
19	0x3d130dc8	0.035901815
20	0x3d589420	0.052875638
21	0xbd23393c	-0.039849505
22	0x3d9f0f14	0.07766548
23	0xbd592227	-0.053011086
24	0xbd46176c	-0.04836218
25	0xbc394a80	-0.011309266
26	0xbcd8bf90	-0.026458532
27	0xbd737aec	-0.0594434
28	0xbd58a809	-0.052894626
29	0xbc3ee03c	-0.011650141
30	0xbd262f55	-0.040572483
31	0xbe03842a	-0.12843385
32	0xbd2c6f21	-0.04209817
33	0x3da717ab	0.08158811
34	0xbda24910	-0.07924092
35	0xbd47f070	-0.048813283
36	0xbe038933	-0.12845306
37	0xbdcc9db2	-0.099910155
38	0x3cf92d22	0.030417029
39	0x3def00d2	0.11670078
40	0xbc8f31a0	-0.017479718
41	0xbd0b14f1	-0.03395552
42	0xbd96d7bc	-0.07365367
43	0x3d9ced3e	0.07662438
44	0x3b72b49f	0.0037033928
45	0xbd9b485c	-0.07582161
46	0xbd7bba3c	-0.061456904
47	0x3b958740	0.004563242
48	0x3db39130	0.08767927
49	0xbda1c080	-0.078980446
50	0xba3fba11	-0.0007313798
51	0xbde814f4	-0.113321215
52	0x3d42ed1c	0.047589406
53	0xbd985f9e	-0.074401125
54	0x3d77c904	0.060494438
55	0x3da6f20c	0.081516355
56	0xbdb44813	-0.088028096
57	0x3d3605f3	0.044439267
58	0xbcca4409	-0.024690645
59	0x3d949872	0.07255639
60	0x3d80f9dc	0.06297657
61	0xbde67384	-0.112525016
62	0x3dec3f68	0.11535531
63	0xbde2a0d4	-0.11065832
64	0x3cca42e8	0.024690107
65	0xbdbfad1c	-0.0935919
66	0xbda5649a	-0.08075829
67	0xbd731208	-0.059343368
68	0xbcffcc50	-0.031225353
69	0x3dd0aa62	0.10188748
70	0xbd98b162	-0.07455708
71	0xbca07a10	-0.019589454
72	0xbd2751b0	-0.040849388
73	0x3db34910	0.0875417
74	0xbdfdb530	-0.123880744
75	0x3d8ecfa0	0.06973195
76	0xbd063b1c	-0.032771215
77	0x3dde5734	0.108564764
78	0x3caa8af0	0.020818204
79	0xbd6585e0	-0.056035876
80	0xbdbe4948	-0.09291321
81	0x3bd36220	0.0064509064
82	0xbb3ba440	-0.0028631836
83	0xbc358fd0	-0.011081651
84	0xbdb5ba40	-0.08873415
85	0xbc22f720	-0.0099466145
86	0xbdb6a7ca	-0.08918722
87	0xbd1c8724	-0.038214818
88	0xbd9f086e	-0.0776528
89	0xbdbed106	-0.09317212
90	0x3deb4c54	0.11489168
91	0xbd4ebb3c	-0.05047153
92	0x3b8ea800	0.0043535233
93	0x3c20fa50	0.009825304
94	0xbdc53f02	-0.096311584
95	0xbd91860e	-0.07105647
96	0xbd1462c4	-0.036227003
97	0xbd0b7210	-0.034044325
98	0xbb2619c0	-0.0025344938
99	0xbde6d3e6	-0.11270885
100	0xbc5a6250	-0.013329104
101	0x3d8916b8	0.066937864
102	0x3d856a40	0.06514406
103	0xbdeef4f0	-0.11667812
104	0xbbd2e3a0	-0.0064358264
105	0xbd4ba138	-0.049714297
106	0xbdb4bdfa	-0.08825298
107	0x3d500c2c	0.050792858
108	0x3c8abf10	0.016936809
109	0xbd22e650	-0.039770424
110	0x3df7e278	0.12103742
111	0x3de83e1e	0.11339973
112	0xbdad8d3c	-0.08474204
113	0x3d565348	0.052325517
114	0x3dcfa804	0.10139468
115	0x3d4ca720	0.04996407
116	0xbd89899e	-0.067157015
117	0x3dbe0dee	0.092800006
118	0x3df4f8dc	0.11961529
119	0x3dc1c628	0.094616234
120	0x39f6ec00	0.0004709661
121	0x3c23daf0	0.010000929
122	0x3db2ada6	0.08724527
123	0x3db55608	0.088543
124	0xbbdaed40	-0.0066811144
125	0x3d9e3b96	0.07726209
126	0xbddf6b8c	-0.10909185
127	0xbd107050	-0.03526336
128	0xbdc3fb1e	-0.09569381
129	0x3dac83a3	0.08423545
130	0x3c97db7c	0.018537275
131	0x3caee020	0.021347106
132	0x3dcd209c	0.10015985
133	0xbd905437	-0.07047313
134	0xbbc72900	-0.0060778856
135	0x3dbf8a59	0.093525596
136	0xbd4d2ff8	-0.050094575
137	0xbd16d32e	-0.03682249
138	0xbdedbd98	-0.11608428
139	0xbe07c215	-0.1325763
140	0x3ccff966	0.025387477
141	0xb947f800	-0.00019070506
142	0xbddd4856	-0.108048126
143	0xbdbc5111	-0.0919515
144	0x3ca91670	0.020640582
145	0x3dc1565c	0.094403
146	0x3d942a08	0.07234579
147	0x3dcbef90	0.09957802
148	0x3dd9bf34	0.10632172
149	0xbdd47aa4	-0.10374954
150	0x3d202303	0.03909589
151	0xbdeecd0d	-0.11660204
152	0xbde79c92	-0.1130916
153	0x3c81e1b0	0.015854686
154	0x3daa1f04	0.08306697
155	0x3dad778e	0.08470069
156	0x3d84b448	0.064796984
157	0xbd3236ae	-0.043509178
158	0x3dc876ce	0.09788285
159	0xbd8b5940	-0.068041325
160	0x3d9c672e	0.076368675
161	0x3cb004f8	0.021486744
162	0x3dae13fc	0.084999055
163	0xbceaa9b8	-0.028645381
164	0xbdd7ed66	-0.10543327
165	0x3dd8d2a2	0.1058705
166	0x3b6d1644	0.0036176601
167	0xbdda1cb6	-0.106500074
168	0x3c6a38a0	0.014295727
169	0x3dd6334c	0.10459003
170	0x3b91d0c0	0.004449934
171	0x3d7fd693	0.062460493
172	0xbd6eceec	-0.058302805
173	0x3cf60280	0.030030489
174	0x3dcc96c4	0.09989694
175	0xbc86bd80	-0.016447783
176	0x3da109c5	0.078631915
177	0x3c9ae218	0.018906638
178	0x3c81d0ac	0.015846573
179	0xbe06066d	-0.13088389
180	0xbd914ddc	-0.070949286
181	0xbda5b754	-0.08091608
182	0xbd1c9c6c	-0.038235113
183	0xbd953c1b	-0.07286855
184	0x3cc3d658	0.023905918
185	0x3d145658	0.036215156
186	0xbda3de9a	-0.08001442
187	0xbd1db134	-0.038499072
188	0xbd16dcc0	-0.036831617
189	0xbcd678a8	-0.02618058
190	0xbde2c034	-0.11071816
191	0xbd108a50	-0.035288155
192	0x3d6672b0	0.05626172
193	0xbdb55d17	-0.08855646
194	0x3d7ded59	0.06199393
195	0x3d92aa72	0.07161416
196	0x3d93d1b6	0.072177336
197	0xbd1e2344	-0.03860785
198	0x3e4d96af	0.20077012
199	0xbe243733	-0.16036682
200	0x3e4b7c4f	0.19871639
201	0xbd99aa39	-0.075031705
202	0xbd5bd533	-0.05367012
203	0xbde13b17	-0.109975986
204	0x3d8dd48a	0.06925304
205	0x3d0c5410	0.034259856
206	0x3dfd8b30	0.123800635
207	0x3d358a26	0.0443212
208	0x3d2478d4	0.040154293
209	0xbde05ee0	-0.10955596
210	0xbdd5ffc5	-0.10449175
211	0x3dc822e6	0.09772281
212	0xbdc078fa	-0.093980744
213	0x3c32c6d0	0.010911658
214	0xbe04e810	-0.1297915
215	0xbd4267d8	-0.047462314
216	0xbd4a1e80	-0.049345493
217	0x3e1c1afa	0.15244666
218	0xbc2e5010	-0.010639206
219	0x3df0cb20	0.11757493
220	0xbc71f3a3	-0.01476756
221	0xbe17018d	-0.14746685
222	0xbd2fa8e3	-0.042885672
223	0xbdeb85d7	-0.11500137
224	0xbd7521e1	-0.059846763
225	0x3c0568e6	0.0081426855
226	0x3e884136	0.26612252
227	0x3d1f4e24	0.03889288
228	0x3d32d09a	0.04365597
229	0x3b2676a5	0.0025400307
230	0xbe1fc79b	-0.15603487
231	0x3d4feef0	0.050764978
232	0xbd33c69c	-0.04389058
233	0xbce7e925	-0.028309414
234	0x3dcba7d6	0.099441215
235	0xbdcda3ba	-0.10040994
236	0x3d5823d5	0.052768547
237	0xbd54f6bc	-0.051993117
238	0xbdce85cc	-0.100841135
239	0xbcadf488	-0.021234766
240	0xbd81812d	-0.063234664
241	0xbd716afc	-0.05893992
242	0xbd93f31b	-0.07224103
243	0xbe000f42	-0.1250582
244	0x3e0dbbba	0.13841143
245	0xbd3c63ec	-0.04599373
246	0xbd623a1c	-0.0552312
247	0xbd402e9a	-0.046919443
248	0x3d4f83e6	0.050662898
249	0xbe15381c	-0.14572185
250	0xbd846f70	-0.064665675
251	0xbd061140	-0.032731295
252	0x3d2d5b6c	0.042323515
253	0xbad2f377	-0.0016094287
254	0xbcd2706c	-0.025688373
255	0x3c814cc8	0.015783682

fc2.bias f4 [4]
0	0x3d0a239c	0.033725366
1	0xbdd5957e	-0.10428904
2	0xbdf633cc	-0.12021598
3	0xbe48d079	-0.19610776

fc3.weight f4 [1, 4]
0	0xbe8a9f0d	-0.2707447
1	0xbea98082	-0.33105856
2	0xbe95bfeb	-0.29247984
3	0x3c8dc294	0.017304696
