res/european/regular/models/regular_11.pt (torch, 13087 bytes, 5 tensors)

fc1.weight f4 [64, 30]
00000000: 2742 bcbd 498c bbbd b7ab c0bd 98a6 113d
00000010: 346f e13d 7c90 cd3d ae84 2f3e 2053 1b3e
00000020: 6abe 0c3e 80e9 293b 98e1 053e fa02 113e
00000030: 178d 30be 5d14 dcbd b43b fc3d 904d 4abd
00000040: 1e85 09be 1659 1f3e 0462 a03d e42d 043d
00000050: bb78 cdbd daaa 0c3e 8513 eebd 4c8b a03d
00000060: ee17 133e c7c1 12be d02e 153e 7c2f 023d
00000070: e454 a23d ea4f 0abe 6324 84bc 815e d0bd
00000080: 81b7 cc3e 733a e03e d3fd 573e c021 2b3e
00000090: 1586 b53d 4c03 083f 217e cabe 8dce c4be
000000a0: 988b 443f 3201 8ebe f4d5 623e 2a33 3f3e
000000b0: 8388 223f a295 a53e 1d59 f5be e40a 8ebe
000000c0: 0201 5fbf d02a 093f 62a0 3f3e 6c14 6bbf
000000d0: 79c2 20bf 086c cf3d b573 f0be bb83 0abf
000000e0: 5dab 2ebf b8a4 1d3f 265b e53d 2522 743d
000000f0: ab61 2e3c 2e0f 0b3f 4228 0cbf 9879 f93e
00000100: 545a 27bf fc42 d03e 674f 0e3f c3a2 103f
00000110: d098 193e 6c7a ff3e 6cad 3c3f b74b 5cbf
00000120: 4d1f 3e3f e7d4 123d c407 233f befe a1bd
00000130: 0ba8 053f effc 143f ac69 af3e 6222 5fbe
00000140: c86a 0cbd 551f 02be 479c 0cbe 911b b83c
00000150: d1ab 02bd 7554 03be 513c 48be 007b 0ebe
00000160: 4288 92be 0c2b 11be 2527 113e 58e2 cb3e
00000170: d4b6 19bf 6438 483f f11f 2cbf 44dd d23e
00000180: d851 193f d9e4 1e3f 09d9 2bbe 7632 1a3f
00000190: 8d2a 1a3f cab2 20bf 5c80 5e3f 989b ad3e
000001a0: 8b2d 633f 1db9 6a3e 395c 203f 591a f63e
000001b0: 8c67 043f 9629 aebe 896a 2dbd 7154 87be
000001c0: e44c c1be d68c 033d a7a8 843d 7f58 44bd
000001d0: 7218 82be 9594 d8bd 0438 1ebe c05e 3f3e
000001e0: 7fc7 89bd fca4 8d3d 001f b73b 4b8c 01be
000001f0: 24f9 e63d 3837 22be f6c7 10be 204d a4bc
00000200: 0025 abbd b465 97bd d843 b23d c035 3ebc
00000210: c09b c93b 7094 1b3c ae18 823d d0b7 05bc
00000220: c4f1 48bd 072e a8bd 68b8 8b3d d40e afbd
00000230: 5467 c83d bcdd 27bd aced e23d ac64 81bd
00000240: 6c45 323e 98a9 a73c 62af ccbd 18d9 13be
00000250: 2889 ddbc e118 83bd 3826 683d 4924 1e3a
00000260: cf9b 6f3e 87e8 8b3e 5118 a9bd 7cfa d13d
00000270: 01d9 5bbe f165 5c3e c5e0 22be 09ab a53c
00000280: 47a0 c63d 231d 6cbe d196 68bc 40e0 7d3d
00000290: 760d 9b3e 9b57 9a3e 835d 80be 0f03 1dbe
000002a0: 1bab c6be f123 a03e 78c7 2abc ddfd 06be
000002b0: e5a9 54be 5ed0 df3d 084e 71be 7ae7 44be
000002c0: c855 95be 4c8b 063e 1b8c b8bd b22b b7bc
000002d0: 377c 9dbd 3c78 4dbd 7022 10be 900b 68bd
000002e0: b041 1b3e 1879 123e 7dd2 b1bd e092 a7bb
000002f0: 6491 f63d dccf 003e 00c9 ccbc 6255 12be
00000300: acca 7c3d 161e 243e 8b6f 32be 491f 38be
00000310: f497 56bd 28f9 ca3d 30ca 9f3c 0727 d8bd
00000320: 78ef e53d f40f 02be fc31 65bd 1081 1a3e
00000330: 2c60 a83d 784b d23d 2cae 793d e062 333e
00000340: 200b fcbb 7043 e13c bcaf 65bd e02b d43d
00000350: e426 34be 00c0 d539 7e2f 123e 18fd 6d3d
00000360: acdf 2c3e d881 a13d f4d4 5abd 0430 243d
00000370: 40de b43b 80a2 813d 67a1 d9bd 421f 11be
00000380: 5817 7e3d 8066 e93d 1c57 1c3d 5090 243d
00000390: 58f7 a6bc b4ce f73d 78d8 65bd 7ae9 33be
000003a0: 095f 12be d218 093e 00ba a0bd 269a 29be
000003b0: 703b 07bd 7aa4 16be 2c16 273e 00c8 cdbd
000003c0: f8ca a3bd bd07 c6bd 3300 c4bd 184a cb3c
000003d0: 138f a3bd f0ae 063c b852 ad3d 98b7 cb3d
000003e0: 3865 f4bc 7092 42bd 89d1 85bd 415b 2fbe
000003f0: ae51 2e3e b15c debd 40db 6abb f00f 1b3d
-0.09192305 -0.09157617 -0.09407752 0.035559267 0.110075384 0.10037324 0.17140457 0.15168428
0.13744512 0.002592653 0.13074338 0.14161292 -0.17241322 -0.107460715 0.12316075 -0.049390376
-0.13429686 0.15561327 0.07831195 0.032270327 -0.10032793 0.1373705 -0.11624817 0.07839069
0.14364597 -0.14331733 0.14568639 0.031783566 0.07926348 -0.13507047 -0.016130632 -0.10174275
0.39983752 0.43794593 0.2109292 0.16712093 0.08863465 0.5313003 -0.39549354 -0.38438836
0.76775503 -0.27735287 0.22151929 0.18671861 0.6348955 0.32340723 -0.4791955 -0.27742684
-0.8711091 0.5358095 0.18713525 -0.91828036 -0.6279674 0.10128027 -0.46963277 -0.54107255
-0.6823023 0.61579466 0.11199026 0.059602875 0.010643403 0.5432004 -0.5474893 0.4872558
-0.65372205 0.40676105 0.5558991 0.56498355 0.149997 0.49898088 0.7370212 -0.8605303
0.7426651 0.03584757 0.63683724 -0.07909916 0.5220954 0.58198446 0.3426031 -0.2179046
-0.034281522 -0.12707265 -0.1373149 0.022474082 -0.03190214 -0.12825187 -0.19554259 -0.13914108
-0.2861958 -0.14176577 0.14175089 0.39821124 -0.600446 0.78211045 -0.6723624 0.41184437
0.5989051 0.62067944 -0.16782011 0.6023325 0.6022118 -0.6277281 0.8691461 0.3390777
0.8874137 0.22922178 0.6264072 0.48066977 0.517205 -0.34016103 -0.042337928 -0.2643161
-0.37753975 0.032116733 0.064774804 -0.04793596 -0.25409275 -0.10575215 -0.15451056 0.18688488
-0.06727504 0.06916234 0.0055884123 -0.12651174 0.112779886 -0.15841377 -0.14138779 -0.020056307
-0.083566666 -0.07392445 0.087043464 -0.011609495 0.0061526 0.0094958395 0.063523635 -0.0081615
-0.04905869 -0.08211904 0.06822282 -0.0854775 0.09785333 -0.040982947 0.110804886 -0.0631803
0.17409295 0.02046661 -0.09994389 -0.14438283 -0.02704294 -0.0640123 0.056677073 0.00060326286
0.2339928 0.27325842 -0.08256591 0.10252854 -0.21469499 0.21523263 -0.15906055 0.020223157
0.09698539 -0.2305799 -0.014196114 0.06198144 0.30283707 0.30144963 -0.25071344 -0.15333198
-0.38802418 0.3127742 -0.010423534 -0.13182779 -0.20767935 0.10928415 -0.23564923 -0.19228926
-0.29167008 0.13139075 -0.09011098 -0.022359703 -0.07689708 -0.050163493 -0.14075637 -0.05665165
0.15161777 0.14304006 -0.086827256 -0.0051139444 0.1203945 0.12579292 -0.024998188 -0.14290383
0.06171672 0.16027102 -0.17425363 -0.17980684 -0.052391008 0.09910804 0.01950559 -0.10554319
0.11227316 -0.12701398 -0.055955872 0.15088296 0.08221468 0.10268301 0.06095712 0.17518187
-0.007691756 0.027497977 -0.056075796 0.10359931 -0.1759296 0.00040769577 0.1427593 0.058102697
0.16882199 0.07886094 -0.053425744 0.040084854 0.0055196583 0.063298225 -0.10626488 -0.1417208
0.06203398 0.113965034 0.03816901 0.04017669 -0.020381615 0.12099972 -0.056114644 -0.17569533
-0.14294066 0.13388374 -0.07847977 -0.16562709 -0.03301567 -0.1471118 0.16317052 -0.100479126
-0.079976976 -0.09669445 -0.095703505 0.024815604 -0.079862736 0.008220419 0.08463043 0.09947127
-0.029833421 -0.047502935 -0.06534106 -0.17124654 0.17023346 -0.10857523 -0.003583625 0.037856996

fc1.bias f4 [64]
00000000: e66b 343e 97a8 363e d53e e6bd 31b1 fb3d
00000010: 6852 03bd 1633 913e a46d f53d 40c6 a03c
00000020: 01bd 39be 924c 72be 9db8 24be adf5 9d3d
00000030: 0826 96be 7d1c 2fbe d87c af3c 6003 d1bb
00000040: 40f7 5b3c 14ca b03d 99fd 8cbe 026b 263e
00000050: 31bc 0abe 434e e8be 8017 c73a bcbc 1bbe
00000060: 68d8 973d 0187 183e e44b cb3d 42d0 d1be
00000070: d19a abbd 4130 2cbe c2f7 cdbe 7010 a33c
00000080: bcf3 2fbe fe6a 30be 080b dcbd 929a ebbd
00000090: d60c 26be 5abc 0abd 5940 ac3b 9aac 1d3e
000000a0: d636 2ebd f877 d1bd 556a f2bd b68a 88be
000000b0: c8da 60be 2a23 db3d a014 81be 9efa 59be
000000c0: 8c93 f7bd b52d c8bd 880e 6ebd 1872 21be
000000d0: 98c5 8abd 1622 13be 4159 d7bd 1098 08be
000000e0: fc25 55bd 3459 ed3d 5b97 8d3e 20aa 19bd
000000f0: be12 803e 0860 633e 08fc 723d c69e 8cbc
0.17619285 0.1783775 -0.11242453 0.12289656 -0.03206101 0.28359288 0.11983803 0.019625783
-0.18138506 -0.23662022 -0.1608605 0.077128746 -0.2932589 -0.17100711 0.021421835 -0.006378576
0.013425648 0.08632293 -0.2753723 0.16251758 -0.13548352 -0.4537221 0.0015189499 -0.15208715
0.07414323 0.1489525 0.09926584 -0.409792 -0.08379138 -0.16815282 -0.40228087 0.019905299
-0.17182821 -0.17228314 -0.107442915 -0.11504091 -0.16215834 -0.033871032 0.0052566943 0.15397874
-0.042532764 -0.1022796 -0.118366875 -0.26668328 -0.21958458 0.107000664 -0.25211048 -0.21287009
-0.12088689 -0.09774343 -0.058119327 -0.1576618 -0.06775969 -0.14368472 -0.10515071 -0.13339257
-0.052038178 0.1158928 0.27654538 -0.03751576 0.250143 0.22204602 0.059322387 -0.017165553

fc2.weight f4 [11, 64]
00000000: b270 c73d 42b2 893d bcb9 c93d 5ee0 94bd
00000010: 8a3c fd3d 806a 9abc 08c5 d73d 9209 b83d
00000020: 12c6 febd 3871 5b3d b40d 23bd 20cf cdbc
00000030: 50c1 e73d 8030 a3bc ea71 bd3d e05b c5bb
00000040: 908c a0bc c0dc 40bb 84a3 76bd c021 df3c
00000050: c44a 863d 82d3 b73d f026 4e3d 98c5 c5bd
00000060: 3c64 aabd 00d8 b6bd 1aff f3bd 10c2 89bc
00000070: a60f f63d 40aa a83c 8ea7 f83d e8c8 5ebd
00000080: 4041 3ebc 38ac 353d e29d c7bd e413 95bd
00000090: 8404 e8bd 0458 5abd 8214 fabd 607c a43c
000000a0: 80c3 80bc c205 f2bd 7040 61bd c8be bebc
000000b0: 7262 b5bd ae74 b9bd 0048 4a3d 2825 8abd
000000c0: 76d6 df3d 504a f6bd 7ada fabd 4020 debb
000000d0: 6c39 af3d 4cf2 36bd 9074 99bc 446e 9dbd
000000e0: 4091 a63b 3631 df3d c82f c73c 1816 9fbc
000000f0: d84c 813d 9842 87bc aa5e 98bd 30d3 6dbd
00000100: c2d1 b0bd 05b8 e13d c04f 743d bde5 ad3d
00000110: 0842 973d 088d 06be 3007 2a3d 6466 bcbd
00000120: 0c14 2a3d 2e45 19be 5174 3e3c be36 8a3d
00000130: 2478 db3d 408d 88bc 1068 083d 70b1 be3d
00000140: 9c01 b1bd 50cb 713c 956a 96bd 001a ba3c
00000150: fc65 613c 4efa 86bc 447d c9bd b8a3 2b3d
00000160: aa5a e13d 067f acbd a1b9 e63b c808 4bbc
00000170: a690 6b3d 80c2 c03b 0bf9 f0bd 3246 853d
00000180: d033 da3c ef07 4abd b759 7a3d 0c72 c93d
00000190: 9971 10bd 0af8 453d 062f a2bd 300b dcbc
000001a0: e291 9b3d 504f b93d c98f e3bd 8713 19be
000001b0: cd95 9d3c 6fdc b1bd fdeb 04be 527a 303e
000001c0: bf36 c33c 8e07 a8bd 805a b8bc 007c fc3d
000001d0: c01e e33d e436 73bd a44b 52bd c06e 98bd
000001e0: 503e 313c 15c6 d9bc a3ae fa3d 8c5d 9fbd
000001f0: a9fb 743d 5f0d b33c f44a 6c3d 72ce 603d
00000200: a041 a6bd 773a 49bd 6f8b 3bbd 010c 153c
00000210: 80b2 c63b 2ddc 8c3c fcc8 e2bd d0e7 333c
00000220: 3c24 c2bd 812a 483d 0ca8 94bc bfa5 33bc
00000230: 8820 fbbd 10f9 e33d ec12 b13d 9842 f1bd
00000240: 58f5 b13c 2039 8abc 3fcc 09bd 6c5b 6dbd
00000250: 981d efbd cf44 d4bd c07c c8bc e0d9 a83c
00000260: e408 19bd 160f da3c 154b 5bbb 30f4 a23d
00000270: 3086 583d 8a02 a33d d061 8dbd 0235 a83d
00000280: 7ea4 383c 849f c0bc 07df 853d a5b0 dfbc
00000290: a40e fbbd 0bfc 3ebc e829 d53d 047b 633d
000002a0: d215 d73d 17fa d23d ba8e 283c 76be edbd
000002b0: 928f 863d 96d9 62bd b5a2 023d d507 6d3c
000002c0: 2553 723d 0838 3e3d 0074 a5bd b64e c33d
000002d0: 88cc 9ebc 98c8 e0bd d6ef b93c 8c25 adbd
000002e0: 9cd3 143d 1acc b0bd a034 60bd 705f 3abc
000002f0: 5c9e b1bd fcf3 d0bd 9a27 9bbd 979b e1bd
00000300: 0855 98bc c891 a03d 8474 c23d 8de6 cdbd
00000310: 0014 74bd 2668 55bc 18a3 f43c d470 443d
00000320: 5ce8 e93d 2b37 e9bd b579 01be 514d 54bd
00000330: 783d 97bd dcd9 c83d 1cfb 5fbd b872 cdbc
00000340: 68a6 ffbd e029 d03c a5f2 febd 42e4 f13d
00000350: 5fcf 333d 48b4 bebd 4239 ca3d c222 ebbd
00000360: 6cfc 16be e431 adbd 2f46 aa3c 5560 cabd
00000370: a821 4bbd 0085 293c 1665 853d c893 babd
00000380: 08da 473d 4ab3 9f3d 85bb afbd 8956 503d
00000390: c0c8 75bd ebce 1dbd 5980 bc3d 6051 bfbc
000003a0: 5797 5b3d d660 093d e195 00be 38b0 82bc
000003b0: 852a 89bd 66ab cdbd de25 fc3c 00b3 fb3c
000003c0: d3d9 80bd 0405 573d c62c a43d f0fb 223c
000003d0: b869 91bd 6067 1b3d 48e9 043c 1878 c9bd
000003e0: 7ed3 ac3d 1dd0 6cbc ba1e d83d 46b6 c2bd
000003f0: dce7 d7bd 19a6 b13d a81d 93bc 6739 883d
0.09738292 0.06723453 0.09849879 -0.07269357 0.123650625 -0.018849611 0.105356276 0.089862004
-0.12440123 0.05357477 -0.03980799 -0.025123179 0.11316168 -0.019920588 0.09250243 -0.0060229152
-0.019598275 -0.0029428452 -0.060214534 0.027237773 0.06557229 0.08975889 0.050330102 -0.09656829
-0.083198994 -0.089279175 -0.11913891 -0.016816169 0.120147035 0.020588994 0.121413335 -0.054390818
-0.0116122365 0.044353694 -0.09746911 -0.072791845 -0.11328986 -0.053306594 -0.12210943 0.020078838
-0.015718222 -0.118175045 -0.054993093 -0.023284331 -0.088566676 -0.09055458 0.04938507 -0.06745368
0.10929577 -0.12025893 -0.12248702 -0.006778747 0.08555874 -0.044664666 -0.01873234 -0.07687047
0.005083233 0.10898058 0.024314776 -0.019419715 0.06313485 -0.016511247 -0.07439931 -0.058062732
-0.08633758 0.11021427 0.059646368 0.08491085 0.07385641 -0.13139737 0.04151076 -0.09199217
0.041523024 -0.14967796 0.011624412 0.067487225 0.107162744 -0.016668916 0.033302367 0.09311187
-0.08642885 0.014757946 -0.07344548 0.022717476 0.013757225 -0.016476776 -0.09838346 0.04190418
0.11003621 -0.08422665 0.0070411717 -0.01239223 0.057510994 0.005882561 -0.11766251 0.06507529
0.026636034 -0.049323972 0.061120715 0.09836206 -0.035264585 0.04833225 -0.07919125 -0.026860803
0.07596184 0.09048331 -0.11111409 -0.14948855 0.01923647 -0.086846225 -0.12980647 0.17234161
0.023829816 -0.08204566 -0.022504091 0.123283386 0.110898495 -0.05937852 -0.051341668 -0.07442999
0.010818079 -0.02658371 0.122403406 -0.077815145 0.059810314 0.021856962 0.05768867 0.05488438
-0.08117986 -0.049128022 -0.04578727 0.0090971 0.0060637593 0.017194832 -0.11073491 0.010980561
-0.094795674 0.04886866 -0.018146537 -0.01096481 -0.12262064 0.11131489 0.08646187 -0.1178028
0.021723434 -0.016872942 -0.03364205 -0.057948515 -0.116755664 -0.10364687 -0.024473548 0.020611703
-0.037361994 0.026618522 -0.00334615 0.07956731 0.052862346 0.07959469 -0.06903422 0.082132354
0.011269687 -0.023513563 0.0653668 -0.02730591 -0.12258652 -0.011656771 0.104083836 0.05553724
0.10502209 0.10301607 0.010287935 -0.11608593 0.065703526 -0.055383287 0.03189345 0.014467199
0.059161324 0.046440154 -0.08078766 0.09536497 -0.019384637 -0.1097576 0.02269737 -0.08454427
0.03633462 -0.08632679 -0.054737687 -0.011375293 -0.08672783 -0.10202786 -0.07575913 -0.110160045
-0.018595234 0.078403056 0.0949488 -0.1005374 -0.059589386 -0.013025319 0.029862925 0.047959164
0.11421272 -0.113874756 -0.12644084 -0.051831547 -0.07384771 0.098071784 -0.054682836 -0.025079116
-0.12482911 0.025410593 -0.124486245 0.11811115 0.043898936 -0.0931173 0.09874202 -0.11481239
-0.14744729 -0.084567815 0.02078542 -0.09881655 -0.049592644 0.010346651 0.06513421 -0.09110218
0.048791915 0.077978685 -0.085806884 0.050863776 -0.060005903 -0.03852741 0.09204168 -0.023354232
0.053611126 0.033539616 -0.12557174 -0.015953168 -0.06697563 -0.10042457 0.030779775 0.030725002
-0.06291547 0.052495018 0.08016352 0.009947762 -0.071002424 0.037940383 0.008112259 -0.09837359
0.084387764 -0.014453915 0.105527356 -0.09507422 -0.105422705 0.08674259 -0.017958477 0.06651574

fc2.bias f4 [11]
00000000: 1002 7f3c b2f5 42bd c9c6 fa3d 29bb b73d
00000010: 0a11 e93d 3f90 91be cd61 06bd bc7d ec3d
00000020: 9804 0abe 8026 d0ba 5880 12be
0.015564457 -0.047597595 0.122449465 0.08971245 0.11380203 -0.28430364 -0.032808114 0.115474194
-0.13478315 -0.0015880615 -0.14306772

fc3.weight f4 [1, 11]
00000000: ee58 c0bd 0a0a 4abc e79d 263b 41d7 e0bc
00000010: 8d70 66be e2b8 093e 1ba9 353d 2dd3 453b
00000020: b327 b53d 40fd a9bb bbcd 413e
-0.09391962 -0.012331495 0.0025423707 -0.027446391 -0.22503872 0.13449433 0.044350725 0.0030185685
0.08845463 -0.0051876605 0.18926136
