res/european/regular/models/regular_15.pt (torch, 14175 bytes, 5 tensors)

fc1.weight f4 [64, 30]
0	0xbe1613a2	-0.14655927
1	0xbbb7bf4c	-0.005607521
2	0x3d8f11aa	0.06985791
3	0xbd4d5c61	-0.050136928
4	0x3d907055	0.07052676
5	0x3e55bcab	0.20872752
6	0xbd818ebd	-0.06326053
7	0x3d93a465	0.0720909
8	0xbe1297f6	-0.14315781
9	0xbe43a619	-0.1910633
10	0x3e3b75df	0.18306683
11	0x3cf75028	0.030189589
12	0x3db15fce	0.086608514
13	0xbc22581b	-0.009908701
14	0x3deb00e8	0.11474782
15	0xbd90ae19	-0.070644565
16	0xbe07bf11	-0.1325648
17	0xbc5575ad	-0.013028544
18	0xbe29b37a	-0.16572371
19	0xbc6d0437	-0.014466337
20	0xbdfe0611	-0.12403501
21	0xbe84a869	-0.25909737
22	0xbebd2993	-0.3694578
23	0xbe2fea82	-0.17179301
24	0xbe4dbd38	-0.20091712
25	0xbe200fd9	-0.15631045
26	0xbe332d29	-0.17497696
27	0x3ea2f444	0.31826985
28	0xbd98be4d	-0.07458172
29	0x3e03a363	0.12855296
30	0xbe0a6e57	-0.13518654
31	0xbd055a40	-0.032556772
32	0xbe35e492	-0.17762974
33	0xbcb3b340	-0.021936059
34	0x3bef37c0	0.007300347
35	0x3da99508	0.082803786
36	0x3da8519c	0.08218691
37	0xbd7ffeaa	-0.062498726
38	0xbba99ba0	-0.0051760226
39	0x3c23b1a0	0.00999108
40	0xbc864238	-0.016388997
41	0xbd71c36a	-0.059024252
42	0x3e088f54	0.13335925
43	0x3dd89bb8	0.10576576
44	0x3d7f2f40	0.06230092
45	0xbd109a9c	-0.035303697
46	0xbda0827d	-0.07837389
47	0x3e2c3674	0.16817647
48	0xbd9430ae	-0.072358474
49	0xbc9954b0	-0.01871714
50	0x3e04e3cc	0.12977523
51	0x3e17ca94	0.14823371
52	0x3d25992c	0.04042928
53	0xbe0f2741	-0.13979818
54	0x3d971350	0.073767304
55	0xbc875a50	-0.016522557
56	0x3d9c9688	0.07645899
57	0xbe0d2af0	-0.1378591
58	0xbd882624	-0.066479
59	0xbd8fb4b8	-0.07016891
60	0xbe2b141a	-0.16706887
61	0xbdd600bd	-0.104493596
62	0xbe293e82	-0.16527751
63	0x3e38d538	0.18050086
64	0x3cf45958	0.029827759
65	0x3dba0970	0.09083831
66	0xbd774f34	-0.06037827
67	0xbd62ffdc	-0.055419788
68	0x3dcffef0	0.10156047
69	0xbd5f7a6c	-0.05456011
70	0x3d893764	0.06700018
71	0x3e1e94fc	0.1548652
72	0xbe1f2187	-0.15540133
73	0xbd585db4	-0.052823737
74	0xbddeed38	-0.1088509
75	0xbe233dd5	-0.15941556
76	0xbc02c7d0	-0.007982209
77	0xbe1fe343	-0.15614037
78	0x3c4741c0	0.012161672
79	0xbcb8e090	-0.022568017
80	0xbbfe25c0	-0.007755965
81	0xbe0ef7b4	-0.13961679
82	0xbd78ce10	-0.06074339
83	0x3e386f9c	0.18011326
84	0xbe289784	-0.16464049
85	0xbdde1e20	-0.1084559
86	0xbd1cd4b4	-0.038288787
87	0x3d6ee778	0.058326215
88	0x3c4e6140	0.012596428
89	0xbdeac32d	-0.11463008
90	0x3d03aee5	0.032149214
91	0x3fafa4a7	1.3722123
92	0xbfadf895	-1.3591486
93	0x3fed1d27	1.8524522
94	0xc010cd34	-2.2625246
95	0x3e9c8624	0.3057109
96	0x3fd22800	1.6418457
97	0x3fa00308	1.2500925
98	0xbd69735c	-0.05699478
99	0x3fc71fca	1.5556576
100	0x3fe47bfa	1.7850335
101	0xbffb2499	-1.9620544
102	0x3fe84a96	1.8147762
103	0x3f69f42e	0.91388214
104	0x400f4062	2.2383046
105	0x3e322792	0.17397907
106	0x3fd73b06	1.6814888
107	0x3fcd58d6	1.6042736
108	0x3f605f6a	0.8764559
109	0xbf31fe58	-0.6952872
110	0xbf227a4d	-0.63467866
111	0xbf47809c	-0.7793062
112	0xbe9cdf0f	-0.3063893
113	0x3d5320af	0.05154484
114	0x3e7171e4	0.23578602
115	0xbdb0bb90	-0.08629525
116	0xbdc3dfdc	-0.09564182
117	0xbf1654f5	-0.58723384
118	0xbf5f4bec	-0.8722522
119	0xbd1db867	-0.038505938
120	0x3d45fea6	0.048338555
121	0xbf12bf4a	-0.57323134
122	0x3f0fade7	0.5612473
123	0xbf665e85	-0.89987975
124	0x3f56783d	0.8377722
125	0xbe52538d	-0.20539685
126	0xbf277c91	-0.6542445
127	0xbf0e44b9	-0.5557361
128	0xbe062426	-0.13099727
129	0xbf330dc9	-0.6994291
130	0xbfa0a589	-1.2550517
131	0x3f9f72f8	1.2456961
132	0xbf9f2733	-1.2433838
133	0xbf095b2d	-0.5365475
134	0xbfaaf260	-1.3355217
135	0xbe3dc0d6	-0.18530592
136	0xbf06dbc0	-0.5267906
137	0xbf335835	-0.7005647
138	0xbdd13e25	-0.10216931
139	0xbe055916	-0.13022265
140	0x3e94b355	0.2904307
141	0x3ea6fe13	0.32615718
142	0x3f014b09	0.5050512
143	0x3dad564a	0.08463724
144	0x3cead6ab	0.028666815
145	0x3ec5c52f	0.38627002
146	0x3ea1325f	0.31483743
147	0xbd98d141	-0.07461787
148	0x3f1c5908	0.6107335
149	0x3df235ef	0.11826693
150	0xbddb0743	-0.106947444
151	0xbc1e4d16	-0.009661933
152	0x3d05ac83	0.032635223
153	0x3ddbb3a4	0.10727623
154	0xbdb7c248	-0.08972603
155	0x3db56108	0.08856398
156	0x3e15875a	0.14602414
157	0x3e90ac58	0.28256488
158	0xbdb05470	-0.08609855
159	0xbdbea935	-0.093096174
160	0x3e96d6a6	0.2946064
161	0x3d8dfb9f	0.069327585
162	0xbd525ff3	-0.051361036
163	0x3dcff4ad	0.1015409
164	0x3e3773a0	0.17915201
165	0xbdceb01d	-0.10092185
166	0xbe8545f9	-0.26029947
167	0xbe35b472	-0.17744616
168	0xbeed79ae	-0.46381897
169	0x3ebdfa9f	0.3710527
170	0xbda4d76d	-0.08048902
171	0xbdd97ef0	-0.106199145
172	0xbec8fdde	-0.39256185
173	0x3db52b93	0.08846202
174	0x3d11e467	0.035618212
175	0xbed6b0e8	-0.41931844
176	0xbe743c10	-0.23851037
177	0x3e164bcc	0.14677352
178	0x3ddedd4a	0.10882051
179	0x3d9c42c4	0.07629922
180	0xbc36989c	-0.011144783
181	0xbfbdeba5	-1.4837538
182	0x3fade804	1.358643
183	0xc0005cef	-2.0056722
184	0x4000a704	2.0101938
185	0xbf718af4	-0.9435265
186	0xbfb1dd24	-1.3895612
187	0xbfba9c7c	-1.4579005
188	0xbd454e0f	-0.048170146
189	0xbfd7ecd3	-1.6869148
190	0xc0067195	-2.1006825
191	0x4011727e	2.272613
192	0xc0065aee	-2.0993
193	0xbf29dd62	-0.6635343
194	0xc0150fcb	-2.329089
195	0x3d43bf1f	0.04778969
196	0xbfd98c8b	-1.6996015
197	0xbfd37f2f	-1.6523188
198	0xbf8f0995	-1.1174799
199	0x3f05649e	0.52106655
200	0x3ed20400	0.41018677
201	0x3f6062c0	0.8765068
202	0x3de3488b	0.11097821
203	0xbe19dbd2	-0.15025261
204	0xbe0bad4f	-0.1364033
205	0x3d120a28	0.035654217
206	0x3e534c43	0.2063456
207	0x3f2ee79a	0.68322146
208	0x3f34cf7f	0.70629114
209	0xbd91569c	-0.070965976
210	0xbd0be25e	-0.034151427
211	0x3d9cecd3	0.07662358
212	0x3e3b00db	0.18262045
213	0xbe1ef625	-0.15523584
214	0x3e0ab0f5	0.13544066
215	0x3ddf2630	0.108959556
216	0xb9ce5a1f	-0.00039358527
217	0xbe10bd5b	-0.14134733
218	0x3c828ada	0.01593535
219	0xbe04ec44	-0.12980753
220	0x3d81f019	0.06344623
221	0x3db78768	0.089613736
222	0xbe12edcf	-0.1434853
223	0x3d3e41cd	0.04644947
224	0xbdb0b28f	-0.08627807
225	0x3de83a19	0.11339206
226	0x3dfad066	0.1224678
227	0xbdbe7b74	-0.093008906
228	0xbd716132	-0.058930583
229	0x3de245b7	0.11048453
230	0xbdf581bf	-0.11987638
231	0xbe1677b3	-0.14694099
232	0x3d041937	0.03225061
233	0xbd80a89e	-0.06282161
234	0x3db24f47	0.08706527
235	0x3e20fb57	0.15720879
236	0x3e2ce12e	0.16882774
237	0x3cd32759	0.025775598
238	0xbdce66ed	-0.10078225
239	0x3cd65e83	0.026168114
240	0xbe0df47a	-0.13862792
241	0x3dc7281c	0.09724447
242	0x3ca7a818	0.020465896
243	0x3dc59814	0.09648147
244	0x3e273182	0.1632748
245	0x3d082794	0.03324087
246	0xbe3281b1	-0.17432286
247	0xbd5af724	-0.053458348
248	0xbe1a0647	-0.15041457
249	0x3be21440	0.0068993866
250	0x3dc5ab60	0.09651828
251	0xbc76e230	-0.015068576
252	0x3da69eb8	0.08135742
253	0xbbf65440	-0.0075173676
254	0xbd7506f8	-0.0598211
255	0xbe1beac9	-0.15226282

fc1.bias f4 [64]
0	0xbdafc6cd	-0.0858284
1	0x3e1c986c	0.1529252
2	0x3e174d2c	0.14775532
3	0x3d368dd5	0.044568855
4	0xbee6bee6	-0.4506752
5	0x3e8633c9	0.26211384
6	0x3d80db1c	0.06291792
7	0x3cb377f3	0.021907782
8	0xbe0a44ec	-0.13502854
9	0x3d134f80	0.03596449
10	0x3e3644ec	0.17799729
11	0x3e3c1580	0.18367577
12	0xbe256df2	-0.16155222
13	0xbea86e86	-0.32896823
14	0xbe64facc	-0.22361296
15	0xbe0813d2	-0.13288811
16	0x3e2b0396	0.16700587
17	0xbeb7f153	-0.35926303
18	0xbeca39d0	-0.39497232
19	0x3e4a5f8b	0.19763009
20	0xbd385333	-0.04500122
21	0xbcb77920	-0.022396624
22	0x3ea409cd	0.32038727
23	0xbedd24fd	-0.43192282
24	0xbd3501d0	-0.04419118
25	0xbe53ad95	-0.20671685
26	0x3e85e778	0.2615316
27	0xbe286277	-0.16443811
28	0xbebe4509	-0.37162045
29	0xbd02a5f9	-0.031896565
30	0xbe86bf4c	-0.26317823
31	0x3da7dc3c	0.08196303
32	0x3dd8ae5f	0.10580134
33	0xbd890e57	-0.06692188
34	0x3d726700	0.05918026
35	0x3dffdbcc	0.12493095
36	0x3e88bbb8	0.26705718
37	0xbe024c00	-0.12724304
38	0x3e50609e	0.20349357
39	0xbd7cf424	-0.06175627
40	0xbe30b0e7	-0.17254983
41	0xbe000bfb	-0.1250457
42	0xbe00f467	-0.12593232
43	0xbecd50dd	-0.40100756
44	0x3c87606c	0.01652547
45	0xbeb128e5	-0.34601513
46	0xbe855e42	-0.26048476
47	0xbe39d85f	-0.18148945
48	0x3e209db5	0.1568516
49	0xbbf35607	-0.0074260267
50	0xbe34c941	-0.17654897
51	0x3e375c6e	0.17906353
52	0xbe300890	-0.17190766
53	0xbe1e2712	-0.15444592
54	0xbbf1d288	-0.0073798336
55	0xbe1ac399	-0.15113677
56	0xbcba5a29	-0.02274807
57	0x3e9d0e8a	0.30675155
58	0x3c9f733e	0.019464131
59	0x3ca398fe	0.019970413
60	0xbdd61550	-0.10453284
61	0x3d518397	0.051150884
62	0xbd96f2e0	-0.073705435
63	0xbee123f9	-0.43972757

fc2.weight f4 [15, 64]
0	0x3d1c6d6c	0.03819029
1	0xbddbf25c	-0.10739586
2	0x3d112094	0.03543146
3	0x3bda9000	0.006669998
4	0xbd7023c0	-0.058627844
5	0x3d1f13c8	0.038837224
6	0xbddcfbdc	-0.10790226
7	0x3d234bec	0.039867327
8	0x3d6840b4	0.05670233
9	0x3df77982	0.12083723
10	0x3b08b400	0.0020859241
11	0x3d7c2220	0.06155598
12	0xbcb4ec08	-0.022085205
13	0x3d2b8910	0.04187876
14	0xbdd540c6	-0.10412745
15	0xbc9992b0	-0.018746704
16	0x3d7660b8	0.060150832
17	0xbcd6e628	-0.026232794
18	0xbd31bb94	-0.04339178
19	0xbdacedf4	-0.084438235
20	0x3c730810	0.014833465
21	0xbddc92ae	-0.107701644
22	0xbdb56cf8	-0.08858675
23	0x3c90a9c0	0.017659068
24	0x3d0fd104	0.035111442
25	0xbc8ab7d8	-0.016933367
26	0xbcfce578	-0.030871138
27	0xbdb7ec12	-0.08980574
28	0x3d9431ac	0.07236037
29	0xbd7ba15c	-0.06143318
30	0xbdcab990	-0.098986745
31	0x3c25ebc0	0.010127008
32	0x3d044830	0.032295406
33	0xbdaa2ac0	-0.08308935
34	0xbddde1fa	-0.10834117
35	0xbd104cd0	-0.035229504
36	0x3b7bdf80	0.0038432777
37	0xbdc48450	-0.09595549
38	0x3de1a926	0.11018591
39	0x3d860380	0.06543636
40	0x3d88147e	0.066445336
41	0xbdd402ae	-0.103520736
42	0xbd597378	-0.053088635
43	0x3dc1bc0c	0.09459695
44	0x3d241428	0.040058285
45	0x3c4fe860	0.01268968
46	0x3d18a740	0.037268877
47	0x3dfdd1bc	0.12393519
48	0x3dfff840	0.12498522
49	0x3dba5bc4	0.09099534
50	0x3d6860ac	0.05673282
51	0x3ca71bb8	0.02039896
52	0x3dbaffa0	0.09130788
53	0xbd2667cc	-0.040626332
54	0xbdc42222	-0.09576823
55	0xbc86e698	-0.016467378
56	0xbdd4515c	-0.103670806
57	0xbdc1dd82	-0.094660774
58	0xbdc40328	-0.095709145
59	0xbc0e45b0	-0.008683607
60	0x3dfe22e2	0.12408997
61	0x3d20e8b0	0.039284408
62	0xbd7ee618	-0.062231153
63	0xbde5dd16	-0.112238094
64	0x3d8af4b7	0.06784957
65	0xbd31fc98	-0.043453783
66	0x3da6f94e	0.0815302
67	0xbd17b5b3	-0.037038516
68	0xbcb93e68	-0.022612765
69	0xbd8b4a27	-0.06801253
70	0x3d189a62	0.037256606
71	0xbdc37d40	-0.09545374
72	0x3df71aee	0.12065683
73	0x3c2b3ea0	0.010451943
74	0x3d9b6f3c	0.07589576
75	0xbdc780c2	-0.097413555
76	0x3d9cf6f2	0.076642886
77	0x3c852b00	0.016255856
78	0x3d088b72	0.03333611
79	0x3d502ae4	0.050822154
80	0x3dd0d074	0.10196009
81	0x3cfe763e	0.031062242
82	0x3da21b53	0.07915368
83	0xba45fdcd	-0.0007552773
84	0x3dcccc6d	0.099999286
85	0xbd989e0e	-0.074520215
86	0xbdcd7848	-0.100327075
87	0x3d1b23e6	0.037876032
88	0xbdac1cce	-0.084039316
89	0x3dbfacfd	0.09359167
90	0xbd15ab9f	-0.036540624
91	0xbb8fa400	-0.004383564
92	0x3d50bad5	0.050959427
93	0xbd7810b4	-0.060562804
94	0x3c8f0e65	0.017462919
95	0xbd5ccb2c	-0.053904697
96	0xbdbcfc21	-0.09227777
97	0x3d95a2f2	0.0730647
98	0xbdcb8261	-0.09936977
99	0xbda80ea6	-0.08205919
100	0xbdf99283	-0.12186148
101	0xbda7cb39	-0.081930585
102	0xbdfa4062	-0.12219311
103	0xbcbd9628	-0.02314289
104	0xbda8a7b0	-0.08235109
105	0xbab884c5	-0.0014077654
106	0x3cae17c8	0.021251574
107	0xbbe9bbce	-0.0071329838
108	0x3d213320	0.039355397
109	0x3ddfa3ff	0.10919952
110	0x3d023886	0.031792186
111	0x3d704ba4	0.058665887
112	0xbc42829d	-0.011871961
113	0x3d6cbd19	0.057797525
114	0x3c2a2686	0.010385161
115	0xbdfb6b38	-0.1227631
116	0xbde24c4e	-0.1104971
117	0x3ddbfad0	0.10741198
118	0x3dda6705	0.10664181
119	0x3dcb450a	0.099252775
120	0xbc92a698	-0.017901704
121	0xbdf9882a	-0.12184174
122	0xbdbee7f1	-0.09321583
123	0xbdce1a5b	-0.10063621
124	0xbd15651c	-0.03647338
125	0x3dac6b8c	0.084189504
126	0x3d733cda	0.059384204
127	0x3e52f6ce	0.20601961
128	0xbdeec0e8	-0.11657888
129	0x3dc05282	0.09390737
130	0xbdf44dfa	-0.11928935
131	0x3d1924ac	0.03738849
132	0xbdfeab08	-0.12434965
133	0xbd213b58	-0.039363235
134	0xbcec7478	-0.02886413
135	0x3b6da700	0.003626287
136	0xbd78b8a0	-0.060722947
137	0xbd7fbed4	-0.062437847
138	0xbdc1fcde	-0.09472059
139	0xbd834ebe	-0.06411503
140	0x3ce70118	0.028198764
141	0xbc5141c0	-0.012772024
142	0xbdd95632	-0.106121436
143	0xbdb5358a	-0.088481024
144	0xbdbb7b5c	-0.09154388
145	0x3d949c20	0.07256341
146	0xbd83ca6a	-0.06435092
147	0xbdfebbee	-0.124381885
148	0xbd7bc5e8	-0.061468035
149	0x3c397050	0.011318281
150	0x3bd00ae0	0.0063489527
151	0x3d92a4c2	0.07160331
152	0xbde88aa8	-0.113545716
153	0xbb28a5c0	-0.002573356
154	0x3d529054	0.051407173
155	0xbc108c80	-0.00882256
156	0x3d09a284	0.033602253
157	0xbda5579a	-0.08073349
158	0xbcaf67e0	-0.021411836
159	0x3df7eefc	0.121061295
160	0x3d42dd38	0.047574252
161	0xbd9d3956	-0.076769516
162	0xbda32b28	-0.07967216
163	0xbdcb6e7c	-0.099331826
164	0xbdace2ce	-0.08441697
165	0x3d13de10	0.036100447
166	0xbdb1ee86	-0.08688073
167	0xbd2d3de8	-0.042295367
168	0xbcb6d558	-0.022318527
169	0xbd936224	-0.07196453
170	0x3d2a3918	0.041558355
171	0x3d30ae90	0.043135226
172	0x3d2e21a4	0.04251255
173	0xbd3cc154	-0.04608281
174	0xbdeb4c0e	-0.11489116
175	0x3d1ec368	0.038760573
176	0xbd9a24fc	-0.075265855
177	0x3d459360	0.04823625
178	0x3d2402ac	0.04004161
179	0xbd263114	-0.04057415
180	0xbd9142ac	-0.07092795
181	0x3d47bc70	0.048763692
182	0x3c0c55a0	0.0085653365
183	0x3c447a60	0.011992067
184	0x3dcca01c	0.09991476
185	0x38fa9000	0.00011947751
186	0xbd117228	-0.03550926
187	0x3dd2cbdc	0.10292789
188	0xbbe46000	-0.006969452
189	0x3cbfefb8	0.023429736
190	0x3db3d9a2	0.087817445
191	0x3c81bc88	0.015836969
192	0x3da69230	0.08133352
193	0x3d9a28f4	0.075273424
194	0x3c6eeb70	0.0145825
195	0xbdcdc4d4	-0.100473076
196	0x3dc9065c	0.09815666
197	0x3c2b2fe0	0.010448426
198	0x3cd464b0	0.025926918
199	0x3dcdd82c	0.10050997
200	0x3dd8d59c	0.10587618
201	0x3d99091a	0.07472439
202	0x3ca688c8	0.020328894
203	0x3d315708	0.04329589
204	0x3c812220	0.015763342
205	0xbd43fe0c	-0.0478497
206	0x3da9a706	0.0828381
207	0x3dfea144	0.12433103
208	0xbdacc97c	-0.084368676
209	0x3da33614	0.07969299
210	0x3d3d8350	0.046267807
211	0xbcf21fa0	-0.029556096
212	0xbde5dc40	-0.1122365
213	0xbd87893e	-0.06617974
214	0xbd63ed50	-0.05564624
215	0x3cd7dc68	0.026350215
216	0x3d75de70	0.060026586
217	0x3c194050	0.009353712
218	0xbd785b64	-0.060634032
219	0x3dab85e8	0.0837515
220	0xbdf48f9a	-0.11941452
221	0xbdd1e100	-0.102479935
222	0xbd191604	-0.03737451
223	0x3d01e608	0.031713516
224	0xba684d00	-0.00088615716
225	0x3d740874	0.059578374
226	0x3d967218	0.073459804
227	0xbdfb49ec	-0.12269959
228	0xbb111980	-0.0022140443
229	0x3d162a98	0.036661714
230	0x3df0a5f8	0.11750406
231	0x3dd3fbd2	0.10350765
232	0x3d84cbf2	0.06484212
233	0xbd04b1d4	-0.032396153
234	0x3dbcf2a2	0.09225966
235	0xbd9d2a6c	-0.07674107
236	0x3d8b072e	0.06788479
237	0xbca02ca0	-0.019552529
238	0xbdc3a198	-0.09552306
239	0x3d12e4b4	0.03586264
240	0xbb41e880	-0.0029588044
241	0x3de99612	0.11405577
242	0xbc83c168	-0.016083434
243	0xbd9b2364	-0.075751096
244	0xbd2b1750	-0.04177028
245	0xbc7a82b0	-0.015289947
246	0xbd021b98	-0.031764597
247	0xbd325c84	-0.04354526
248	0xbce5a0f0	-0.028030843
249	0xbd9660dc	-0.07342693
250	0xbd950360	-0.07276034
251	0x3ddbcaee	0.10732065
252	0x3d093af4	0.033503488
253	0x3d9604ee	0.07325159
254	0xbd332378	-0.043734998
255	0xbd93c5f0	-0.07215488

fc2.bias f4 [15]
0	0x3d11895c	0.035531387
1	0xbda05251	-0.078282006
2	0xbdd9fe8a	-0.106442526
3	0x3c203120	0.009777337
4	0xbda13c8c	-0.078728765
5	0x3dcbaeb0	0.09945428
6	0x3e900687	0.2812998
7	0xbd3122dc	-0.043246135
8	0xbe5b663b	-0.21425717
9	0xbd8afa8a	-0.06786068
10	0xbe0da366	-0.13831863
11	0xbe9e299f	-0.3089113
12	0xbdef1b34	-0.116751105
13	0xbe1895ba	-0.14900866
14	0xbe11397f	-0.1418209

fc3.weight f4 [1, 15]
0	0x3e65a54a	0.22426334
1	0x3cd4e535	0.0259882
2	0xbd873ce8	-0.06603414
3	0xbe395b66	-0.18101272
4	0x3ac63b4c	0.0015123873
5	0x3d4589f7	0.048227277
6	0xbb8ccafd	-0.004296659
7	0xbe23f54b	-0.1601154
8	0x3da4cbb3	0.08046665
9	0x3df31c0d	0.11870585
10	0x3dad3b76	0.08458607
11	0x3e519c89	0.2046987
12	0x3e36bfde	0.17846629
13	0x3e2e77e1	0.17037918
14	0xbde0ee7b	-0.109829865
