res/european/regular/models/regular_10.pt (torch, 12831 bytes, 5 tensors)

fc1.weight f4 [64, 30]
0	0xbdbbfa98	-0.09178656
1	0xbe22cc12	-0.15898159
2	0x3c66c790	0.014085665
3	0xbe0ca7c2	-0.1373587
4	0xbdf8f6c1	-0.121564396
5	0x3d965e8c	0.07342252
6	0xbe10687d	-0.14102359
7	0xbddbbe3b	-0.10729643
8	0x3cddfc20	0.027097762
9	0x3de1f7d0	0.110335946
10	0x3d7dd950	0.061974823
11	0xbd39d1e8	-0.045366198
12	0x3dcdad88	0.10042864
13	0xbdba52d4	-0.090978295
14	0xbce22ff0	-0.027610749
15	0x3dd110e4	0.102083
16	0x3d5b67b8	0.05356571
17	0x3de67658	0.11253041
18	0x3e21b26a	0.15790716
19	0xbb3c3280	-0.0028716624
20	0x3db4ac78	0.08821958
21	0x3dd4a5e0	0.10383201
22	0xbdc5e354	-0.096625
23	0x3defb290	0.1170398
24	0xbc982cd0	-0.018576056
25	0x3bb17680	0.0054157376
26	0xbc8d7580	-0.017267942
27	0x3db90ee8	0.09036046
28	0xbd605c6c	-0.05477564
29	0x3cd02000	0.025405884
30	0xbe15ce32	-0.14629439
31	0x3dc90e94	0.09817234
32	0xbf29ec7e	-0.66376483
33	0xbe9811fb	-0.29701218
34	0xbdfe6ae6	-0.12422733
35	0xbe62fe59	-0.22167338
36	0x3e54e4d7	0.2079042
37	0xbf1049fa	-0.5636288
38	0x3f207e41	0.6269265
39	0x3f328a65	0.69742423
40	0xbf24e674	-0.64414144
41	0x3e8c382f	0.27386615
42	0xbe1523e8	-0.14564478
43	0xbd8275b6	-0.06370108
44	0xbf5b8d80	-0.85762787
45	0xbe9a7446	-0.30166835
46	0x3f18fb56	0.5975851
47	0x3e6c899d	0.2309937
48	0x3f5cd882	0.86267865
49	0xbf08d0c2	-0.5344354
50	0xbdb5d9ba	-0.08879419
51	0x3f3af99e	0.73037136
52	0x3f5967e8	0.84924173
53	0xbe215b78	-0.15757549
54	0x3eaebd39	0.3412874
55	0x3f51f921	0.82020766
56	0x3ecb0380	0.39651108
57	0xbf33e852	-0.7027637
58	0x3dee0827	0.11622649
59	0x3e48657f	0.19569968
60	0xbdc54105	-0.09631542
61	0xbcc1bb68	-0.023648933
62	0xbcf60be0	-0.03003496
63	0x3db4be9c	0.08825418
64	0x3e087d96	0.13329157
65	0x3b73aa00	0.0037180185
66	0xbe07d9b2	-0.13266638
67	0x3de043c4	0.10950425
68	0xbe26601d	-0.16247602
69	0xbe2e4133	-0.17017059
70	0xbe1bb807	-0.1520692
71	0x3d0506ac	0.032477066
72	0xbdf70066	-0.12060623
73	0xbe0d563e	-0.1380243
74	0x3d8eb7a0	0.069686174
75	0x3d350fa8	0.044204384
76	0x3e1d940e	0.1538851
77	0x3d29a2bc	0.04141496
78	0x3df6501c	0.120269984
79	0xbe2923a1	-0.16517498
80	0xbdaa5c2e	-0.08318363
81	0xbe1611c0	-0.14655209
82	0xbd1cc39c	-0.038272485
83	0x3d56f58c	0.052480265
84	0x3db07e08	0.086177886
85	0x3dc3b8cc	0.095567316
86	0x3e2b35c6	0.16719732
87	0x3d96f29c	0.07370493
88	0x3e0b3a60	0.13596487
89	0xbe03ea5d	-0.12882371
90	0x38ee476f	0.0001136203
91	0xbfefd318	-1.8736296
92	0x40178576	2.3675208
93	0xc021b1d9	-2.52648
94	0x403cc5ea	2.9495797
95	0xbf9c9e13	-1.223574
96	0xc012507d	-2.2861626
97	0xc00906cc	-2.1410398
98	0x3e885bc5	0.26632515
99	0xc01c8842	-2.4458165
100	0xc028f8b7	-2.6401803
101	0x4043f2f5	3.061704
102	0xc033683f	-2.8032377
103	0xbf200876	-0.6251291
104	0xc0427721	-3.038521
105	0x3d42e473	0.047581147
106	0xc01c7ca7	-2.4451082
107	0xc0208bc4	-2.5085306
108	0xbffc7564	-1.9723325
109	0x3f6fc635	0.93661815
110	0x3f286884	0.6578448
111	0x3f50ad0d	0.81514055
112	0xbd60110b	-0.054703753
113	0xbc8cbd75	-0.017180184
114	0xbf1dd337	-0.61650413
115	0x3e9fa055	0.3117701
116	0x3e48dbc0	0.19615078
117	0x3f02ee2f	0.5114469
118	0x3f8eeeb9	1.1166602
119	0xbc7bb7eb	-0.015363674
120	0xbc5c2125	-0.013435637
121	0x3d9ce91a	0.07661648
122	0xbce56d1a	-0.028006125
123	0xbe0c8c23	-0.13725333
124	0x3d01ac05	0.03165819
125	0xbdb169fa	-0.086627916
126	0xbc4b268f	-0.01239933
127	0x3dbd0cef	0.092309825
128	0xbe12c69a	-0.14333573
129	0xbdb13472	-0.08652581
130	0x3dc9c756	0.098524734
131	0x3e3b990f	0.18320106
132	0xbdbcff1a	-0.09228344
133	0x3dcfeb5b	0.10152312
134	0x3d6a4f9f	0.05720484
135	0xbd6b19c0	-0.057397604
136	0x3e070f53	0.1318944
137	0xbdb14bf5	-0.08657066
138	0xbd9efb5b	-0.07762786
139	0xb9c686fb	-0.0003786607
140	0x3d3ad7c5	0.04561593
141	0x3b8acbd8	0.004235726
142	0x3e186db1	0.14885594
143	0x3b884c81	0.0041595106
144	0x3cfd287c	0.030903094
145	0xbbe4a32c	-0.0069774594
146	0xbc193784	-0.009351615
147	0x3e07e04f	0.1326916
148	0x3d79c75b	0.060981136
149	0xbcb74e41	-0.022376182
150	0xbdd0aec2	-0.101895824
151	0x3d944249	0.072392054
152	0x3e2922c4	0.16517168
153	0xbd9a36f3	-0.07530012
154	0xbe0fab3b	-0.14030163
155	0xbd1fe890	-0.03904015
156	0xbdceecf1	-0.10103787
157	0xbe0bb447	-0.13642989
158	0x3e1f40a0	0.15551996
159	0x3d26454c	0.04059343
160	0xbdf6b005	-0.12045292
161	0x3d5fc663	0.054632556
162	0x3d9aad09	0.07552535
163	0xbe62b298	-0.2213844
164	0x3de50b48	0.11183792
165	0xbd689204	-0.056779876
166	0x3d51be5d	0.051206935
167	0xbceeecb4	-0.029165603
168	0x3d768b90	0.06019169
169	0xbe8e8730	-0.27837515
170	0xbe3f4829	-0.1867987
171	0xbdc9f136	-0.098604605
172	0x3df536f1	0.1197337
173	0x3d81af9b	0.06332322
174	0xbcf720e9	-0.03016706
175	0x3e076d1a	0.13225213
176	0x3db7f2dd	0.08981869
177	0x3d7cfe6e	0.06176608
178	0xbe1fca33	-0.15604477
179	0x3d7eaf0e	0.062178664
180	0x3dc33bea	0.09532912
181	0x3f9666c0	1.1750107
182	0xbfa6a2a8	-1.3018389
183	0x3fbee79c	1.4914432
184	0xbff0a49b	-1.8800234
185	0x3f61fd16	0.88276803
186	0x3fb72faf	1.4311427
187	0x3f8be5b1	1.0929471
188	0x3d2ed14e	0.042680077
189	0x3fa63237	1.2984074
190	0x3fe0fb93	1.7576774
191	0xbfc9b568	-1.5758486
192	0x3fc97c81	1.574112
193	0x3ecf3b81	0.40475085
194	0x3fe3f04c	1.7807708
195	0xbd021b42	-0.031764276
196	0x3faa57fb	1.33081
197	0x3fb6d385	1.4283301
198	0x3f7a687a	0.9781567
199	0xbef403b8	-0.47659087
200	0xbeffc7b7	-0.49957058
201	0xbf0ff4b7	-0.5623278
202	0x3d6b1284	0.057390705
203	0x3e496a6c	0.19669503
204	0x3e730694	0.23732978
205	0xbe07ff88	-0.13281071
206	0xbdcdeccf	-0.10054933
207	0xbed5c3a8	-0.41750836
208	0xbf31b9f5	-0.6942437
209	0x3df762fd	0.120794274
210	0x3e031a12	0.12802914
211	0xbeaf7192	-0.34266335
212	0x3eb4fbe2	0.3534842
213	0xbf0d1330	-0.551074
214	0x3f893ec8	1.0722284
215	0x3d8a68f0	0.067582965
216	0xbf4d487b	-0.8018872
217	0xbf1b08ca	-0.60560286
218	0xbe1b2804	-0.15151983
219	0xbf591a65	-0.848059
220	0xbf2cc406	-0.6748661
221	0x3f80e9ad	1.0071312
222	0xbf2f8204	-0.68557763
223	0xbef906ae	-0.4863791
224	0xbf8b4f4a	-1.0883572
225	0xbde9155c	-0.11381027
226	0xbf218ada	-0.63102496
227	0xbea9314e	-0.3304543
228	0xbe014fc2	-0.12628081
229	0x3e3336c0	0.17501354
230	0x3e9c9c31	0.30587915
231	0x3ed81861	0.422061
232	0x3dfd1e0f	0.12359249
233	0x3dd4c525	0.10389165
234	0xbe2f8cb9	-0.17143525
235	0x3e4992c4	0.19684893
236	0xbe212f95	-0.15740807
237	0x3e9f2748	0.31084657
238	0x3f28b655	0.65903217
239	0xbe314520	-0.17311525
240	0xbdda9558	-0.10673016
241	0x3dac8020	0.084228754
242	0x3e193c02	0.14964297
243	0x3d76ffac	0.06030242
244	0xbe1573aa	-0.14594904
245	0x3dde9b4c	0.10869464
246	0x3d230c2c	0.03980653
247	0x3e25d9cc	0.16196364
248	0xbde01bb3	-0.10942783
249	0x3d410344	0.047122255
250	0xbda7febe	-0.08202885
251	0x3d91fc64	0.07128218
252	0xbe1199d4	-0.14218837
253	0xbcaf6070	-0.02140829
254	0xbd93d362	-0.072180524
255	0xbd8c4f10	-0.068510175

fc1.bias f4 [64]
0	0xbd724b2e	-0.05915373
1	0xbedc7115	-0.43055025
2	0x3e16c284	0.1472264
3	0x3d1ea59c	0.038732156
4	0xbd3c8536	-0.046025477
5	0xbe216bc4	-0.15763766
6	0x3dad2448	0.08454186
7	0xbe498453	-0.19679384
8	0x3d7f7cc4	0.062374845
9	0xbe1be488	-0.15223897
10	0xbd9b6b4e	-0.07588826
11	0xbe3a839e	-0.1821427
12	0x3e15fa62	0.14646295
13	0xbdbbebc5	-0.09175829
14	0xbd663e59	-0.056211803
15	0x3db15794	0.08659282
16	0x3e28bfa2	0.16479352
17	0xbdb16ea6	-0.08663683
18	0xbcc6ebd0	-0.024282366
19	0xbbb71aa0	-0.0055878907
20	0xbd29455c	-0.041325912
21	0xbed337a3	-0.41253385
22	0x3cd5b4f4	0.026087262
23	0xbddeaea4	-0.10873154
24	0x3e3e823c	0.18604368
25	0xbe32586c	-0.17416543
26	0x3e00fd2e	0.1259658
27	0xbbf6e4f0	-0.0075346157
28	0x3d9b51b0	0.0758394
29	0x3be0f480	0.006865084
30	0x3c128e10	0.008945003
31	0x3e4134db	0.18867819
32	0xbf0c6b25	-0.5485099
33	0x3de232cb	0.11044844
34	0x3cd8de13	0.02647308
35	0x3eeb5746	0.45965022
36	0xbc922aac	-0.017842613
37	0x3ddc0ae0	0.10744262
38	0x3da64e30	0.08120382
39	0xbe0e3777	-0.13888346
40	0x3e3501bc	0.17676443
41	0x3e09d13f	0.13458727
42	0xbe34d880	-0.17660713
43	0x3e26fd06	0.16307458
44	0xbb3b6800	-0.0028595924
45	0xbd57897d	-0.052621353
46	0xbdcfc066	-0.10144119
47	0x3e19f360	0.15034246
48	0xbe05f921	-0.13083316
49	0xbf0f1118	-0.5588546
50	0x3cfc4b28	0.030797556
51	0xbd5b2c5c	-0.0535091
52	0xbcea64a8	-0.02861245
53	0xbc25c6a0	-0.010118157
54	0xbea93017	-0.33044502
55	0xbd11f746	-0.03563621
56	0x3c23774a	0.009977171
57	0x3e0ba116	0.13635668
58	0xbd5ec09b	-0.0543829
59	0x3dc2ccee	0.095117435
60	0x3e8de1d9	0.2771137
61	0x3e0dcb6e	0.13847134
62	0xbe32abca	-0.17448345
63	0x3c73bed0	0.014877036

fc2.weight f4 [10, 64]
0	0x3da6757e	0.081278786
1	0xbe166387	-0.14686404
2	0xbdf715f8	-0.12064737
3	0xbc657092	-0.01400389
4	0x3da265ce	0.07929574
5	0xbd6a69c4	-0.057229772
6	0x3d786081	0.06063891
7	0x3bcea293	0.0063060015
8	0x3d4553cc	0.048175618
9	0xbdc2b726	-0.09507589
10	0xbd2f360e	-0.04277616
11	0xbdf98392	-0.12183298
12	0x3dde916a	0.10867579
13	0xbb13e240	-0.0022565275
14	0x3b349799	0.002755618
15	0x3cdd45d0	0.027010828
16	0xbdc32ea2	-0.09530379
17	0x3dcf024a	0.101078585
18	0xbdb4256a	-0.08796199
19	0x3d83746a	0.064186886
20	0x3dc49614	0.09598938
21	0xbd1f8bbe	-0.038951628
22	0xbd98d1f7	-0.074619226
23	0xbe0617d9	-0.13095035
24	0xbbaaf1c1	-0.0052168076
25	0x3dbae4a7	0.09125643
26	0x3d245058	0.040115684
27	0xbd3154b3	-0.043293666
28	0xbcc9ca05	-0.024632463
29	0xbd9138ae	-0.07090889
30	0xbdc685a2	-0.09693457
31	0x3de3134e	0.110876665
32	0xbe0e230c	-0.13880557
33	0xbd8391b5	-0.06424276
34	0xbb030197	-0.0019989961
35	0xbd74b2f2	-0.059740968
36	0x3da519e7	0.08061581
37	0xbca70e2c	-0.0203925
38	0x3d689c4c	0.05678968
39	0xbcf57a80	-0.02996564
40	0x3ca8bf18	0.020598933
41	0x3dadfb68	0.084952176
42	0xbd43dca9	-0.04781786
43	0xbdedaff1	-0.11605824
44	0xbd9f6524	-0.07782963
45	0xbd5ee1be	-0.054414503
46	0xbcb1f9af	-0.021725504
47	0xbd43e6d4	-0.047827557
48	0x3d6026bc	0.05472444
49	0xbdb0a7bf	-0.08625745
50	0x3d401960	0.0468992
51	0x3df8f2b6	0.121556684
52	0xbd93feac	-0.07226309
53	0x3de60174	0.11230746
54	0xbcba7dba	-0.02276503
55	0x3dd52b93	0.10408702
56	0x3d852e8a	0.06503017
57	0x3d1103de	0.03540408
58	0x3cee4df2	0.029089902
59	0xbda8ec58	-0.08248204
60	0x3d8ea830	0.06965673
61	0xbd66c948	-0.0563443
62	0x3de80b3f	0.1133027
63	0x3b4bacc0	0.0031078309
64	0xbc8e76c0	-0.017390609
65	0x3d3ec1e4	0.046571627
66	0xbd2cda50	-0.042200387
67	0xbdf884f0	-0.12134731
68	0x3dc6a80a	0.0970002
69	0xbd753d6c	-0.05987303
70	0x3cdb4390	0.026765615
71	0x3d3afe80	0.045652866
72	0xbd4263f4	-0.047458604
73	0xbde9c984	-0.11415389
74	0xbd877212	-0.06613554
75	0x3df71ba0	0.12065816
76	0xbc9fa7a8	-0.019489124
77	0x3d7ee2c4	0.06222798
78	0x3d8e96de	0.069623694
79	0x3c13f980	0.009031653
80	0xbda50592	-0.08057703
81	0xbd32333c	-0.043505892
82	0x3b91d200	0.004450083
83	0x3db1da90	0.086842656
84	0x3d6bbd98	0.057553858
85	0x3c1db480	0.009625554
86	0x3ccd88d8	0.025089666
87	0xbcf9b890	-0.030483514
88	0x3dfc9dc2	0.123347774
89	0xbdf24db6	-0.118312284
90	0xbc0cd9b0	-0.008596823
91	0x3d94dcde	0.072686896
92	0x3c14b6d0	0.009076789
93	0x3d6f10bc	0.05836557
94	0x3d855fa2	0.06512381
95	0x3d597fac	0.053100273
96	0x3dfb92be	0.12283848
97	0x3cd2e268	0.025742725
98	0xbc4fb620	-0.012677699
99	0xbdecce8a	-0.11562832
100	0xbd0e0820	-0.034675717
101	0xbda36e38	-0.07980007
102	0x3dc76c26	0.097374246
103	0xbd3c690c	-0.045998618
104	0xbdcfd1c4	-0.101474315
105	0xbd8c57a8	-0.068526566
106	0xbdf6aace	-0.12044297
107	0xbdebe030	-0.1151737
108	0xbd98bb62	-0.074576154
109	0x3dbfa3ae	0.09357391
110	0xbc0b0fd0	-0.008487657
111	0x3cb3f2c8	0.021966353
112	0x3d6c4080	0.0576787
113	0x3dcb25e0	0.099193335
114	0xbdbc377c	-0.0919027
115	0xbdf6d4cc	-0.120523065
116	0xbddfdc1a	-0.10930653
117	0xbdbe0c16	-0.09279649
118	0xbd980670	-0.07423103
119	0x3da91266	0.08255462
120	0xbdc49856	-0.09599368
121	0x3db9dc2a	0.09075196
122	0xbd033e04	-0.032041565
123	0xbdcf8782	-0.10133268
124	0x3d9306e8	0.07179052
125	0xbc15a4a0	-0.009133488
126	0x3cc606b0	0.02417311
127	0xbd86ccb6	-0.06582014
128	0x3d677aa4	0.056513444
129	0xbe2d10e2	-0.16900972
130	0xbc698f80	-0.0142554045
131	0x3da5b933	0.080919646
132	0xbd851a78	-0.06499189
133	0x3d83c4fe	0.06434058
134	0x3c177086	0.009243136
135	0xbcf2a5ff	-0.029620169
136	0xbc57ca00	-0.013170719
137	0xbdbafdf6	-0.091304705
138	0xbc82e7ce	-0.015979674
139	0xbdb4877e	-0.088149056
140	0xbde6819e	-0.11255191
141	0x3dd8e968	0.10591394
142	0xbcc84c9f	-0.024450598
143	0xbdaa98bc	-0.08329913
144	0x3c87afb0	0.016563267
145	0xbda42609	-0.08015067
146	0xbdff72ba	-0.12473054
147	0xbd5543a8	-0.052066475
148	0xbc26bb10	-0.010176435
149	0xbaaa2b38	-0.0012982851
150	0x3da3b0ac	0.07992682
151	0x3d693285	0.056932945
152	0xbda69a2a	-0.08134873
153	0x3d37c681	0.044867042
154	0xbdcc2864	-0.099686414
155	0x3d87a2c3	0.06622841
156	0xbced6b8c	-0.028981946
157	0xbdb4e196	-0.088320896
158	0xbdf63004	-0.12020877
159	0xbe0c8c4a	-0.13725391
160	0xbdc0355b	-0.09385177
161	0x3d7c4e30	0.061598003
162	0x3db08c9c	0.08620569
163	0x3d1fb291	0.038988654
164	0xbdf4cdc2	-0.11953308
165	0xbc5c5f7e	-0.0134505015
166	0xbd05fd84	-0.032712474
167	0x3cacadd8	0.021078989
168	0x3d6cbec0	0.0577991
169	0xbddf4480	-0.10901737
170	0x3dd5e8ac	0.10444769
171	0x3cfd4dd3	0.030920899
172	0x3d3bcbdc	0.045848712
173	0xbd2682ec	-0.0406522
174	0xbd7e0dbe	-0.062024824
175	0x3da27d1c	0.07934019
176	0xbe009bae	-0.12559387
177	0xbd7b7a58	-0.061395973
178	0x3c906a28	0.017628744
179	0x3df092ee	0.117467746
180	0xbdf6e9d6	-0.120563194
181	0x3d60d09c	0.054886445
182	0xbe45e6d8	-0.19326341
183	0x3de25d9d	0.110530116
184	0xbe0b9e65	-0.13634641
185	0x3d39207d	0.045197
186	0x3dd0c973	0.101946734
187	0x3cd54b1a	0.026036788
188	0x3dab5502	0.08365823
189	0xbcee56b8	-0.029094085
190	0x3db6e465	0.089302815
191	0x3def43ca	0.116828516
192	0xbbf12420	-0.0073590428
193	0xbca9f9a0	-0.020748913
194	0xbcf45688	-0.029826418
195	0x3b634a80	0.0034681857
196	0x3d7c0e00	0.06153679
197	0x3d4275e4	0.04747571
198	0xbdb11d3a	-0.08648153
199	0x3cbeee90	0.023307115
200	0x3da8b53e	0.08237694
201	0xbdd60a78	-0.104512155
202	0xbca54af0	-0.020177335
203	0xbcc32450	-0.023821026
204	0x3d19c3d8	0.037540287
205	0x3d07b74c	0.03313379
206	0x3d93869c	0.07203409
207	0xbd5e6acc	-0.05430107
208	0x3de29766	0.11064033
209	0xbd2029a0	-0.039102197
210	0xbda91c40	-0.082573414
211	0xbd929e66	-0.07159118
212	0x3d66d3dc	0.05635439
213	0xbdab7920	-0.08372712
214	0xbc2d6050	-0.010582045
215	0x3ac57e00	0.0015067458
216	0x3cf64650	0.030062824
217	0x3cd0d3b0	0.025491565
218	0xbdf662bc	-0.12030551
219	0x3d34a8e0	0.044106364
220	0xbdb21488	-0.08695322
221	0x3cc67120	0.024223864
222	0xbdf6c95e	-0.120501265
223	0x3d77da94	0.060511187
224	0xbd0fad38	-0.035077304
225	0xbbb600e0	-0.0055543035
226	0x3dc826bc	0.09773013
227	0x3dee91ee	0.11648928
228	0xbc5c4b30	-0.0134456605
229	0xbd9d3efa	-0.076780275
230	0x3d8e9056	0.06961124
231	0xbdf71c2a	-0.12065919
232	0xbdc1ad0c	-0.09456834
233	0x3d1be338	0.03805849
234	0xbcb8ce98	-0.02255945
235	0xbdaa36ee	-0.08311258
236	0xbdba9e04	-0.0911217
237	0x3b956d00	0.004560113
238	0xbd4c39e8	-0.04985991
239	0x3d097f50	0.03356868
240	0xbd9fa6d6	-0.07795493
241	0x3ca1b4d0	0.019739538
242	0x3d4168d8	0.047219127
243	0xbc1d2690	-0.009591714
244	0xbdd4dbb8	-0.103934705
245	0x3d932676	0.0718507
246	0x3bebac20	0.0071921498
247	0x3d9adfc4	0.07562211
248	0xbdc406e4	-0.09571627
249	0xbdf5549c	-0.119790286
250	0xbb881320	-0.0041526705
251	0xbd11daf0	-0.035609186
252	0x3df31e18	0.11870974
253	0xbdda1236	-0.10648005
254	0x3d00972c	0.03139417
255	0xbd38d610	-0.04512602

fc2.bias f4 [10]
0	0xbd629764	-0.05532016
1	0x3db3f1d8	0.087863624
2	0xbd9e3c57	-0.07726353
3	0x3decbf4c	0.115599245
4	0x3b8b0986	0.0042430786
5	0x3e14b3a2	0.1452165
6	0xbdb48540	-0.08814478
7	0x3d858f78	0.06521505
8	0x3d9016c4	0.07035592
9	0xbd5b6fd0	-0.05357343

fc3.weight f4 [1, 10]
0	0xba8085cb	-0.0009805498
1	0x3c0f9fc0	0.008766115
2	0xbc6204cb	-0.013795088
3	0xbe05ff78	-0.13085735
4	0x3d304004	0.0430298
5	0xbce06090	-0.027389795
6	0xbd2b55f0	-0.041830003
7	0x3e0dab06	0.13834772
8	0x3e9a1fd3	0.30102405
9	0x3e03ce52	0.12871674
