res/european/regular/models/regular_1.pt (torch, 10527 bytes, 3 tensors)

fc1.weight f4 [64, 30]
-0.049279556 -0.09398178 -0.07319347 0.103398174 0.0071237236 0.023477718 0.13163227 -0.1375157
0.031364292 0.16044518 0.17520326 -0.12713084 0.12545368 -0.02131109 -0.10373317 0.17279267
-0.18250133 0.027559519 0.057759717 0.033249557 0.048337042 -0.025766551 -0.11727881 0.12400156
-0.0728308 -0.01983364 -0.004183948 -0.17624667 0.15452385 0.10474178 -0.1058384 -0.073979825
-0.10102944 0.17509034 0.028562278 0.025177568 -0.062058426 0.05999933 0.11933437 -0.062081717
-0.047876522 0.046530455 0.13722691 -0.059826933 0.11412546 -0.07886851 0.07853603 0.07950193
0.11031917 0.13227484 0.081086636 0.09204733 -0.1650425 0.012813792 -0.020638853 -0.009484768
0.18233672 0.017661154 0.060134813 -0.17140484 -0.1521558 0.05022444 -0.02233094 -0.08172939
-0.16061951 0.14362648 0.025034428 -0.16247025 0.16313687 0.06865272 -0.100431874 -0.014176309
-0.14575464 -0.07361128 0.14279675 0.058700383 0.10264477 -0.108947515 0.17503703 -0.045924947
-0.123839766 -0.046994537 -0.1546728 -0.17608713 0.017807141 0.1303921 0.06942403 -0.04651217
0.0004197508 -0.18042648 0.020004615 0.13953438 0.087587535 -0.0729296 0.116698176 -0.032562017
0.1822842 0.1710465 -0.1759877 0.0821535 -0.028023914 0.16161332 0.033752188 0.17183581
0.11868757 0.07021168 0.0064866543 0.08492771 -0.023758933 -0.10512298 -0.18094261 0.13766626
0.13723865 0.17210364 -0.03063476 -0.090709634 -0.057498664 -0.14212191 -0.021350726 0.078668565
0.10372195 -0.03301017 -0.15584385 0.0461428 -0.009546116 -0.009850502 0.11504334 0.12532458
0.14957601 -0.04735571 -0.06452405 -0.14883673 -0.14494056 -0.0045508593 -0.060914613 0.054667428
-0.11863978 -0.1542881 -0.15774071 -0.06414279 -0.06086451 0.06983575 0.094584435 0.11167714
-0.13278598 0.14719447 0.095580965 -0.05679235 0.12180483 0.021419913 0.11552936 -0.047740206
-0.06459739 0.060249373 -0.10833815 -0.13073641 -0.15822089 0.09491593 -0.08849338 -0.023514211
0.14617258 0.11135438 -0.056587934 0.16131327 -0.116171926 0.037949413 -0.070944 0.034176007
-0.14024462 0.10207263 -0.1749697 -0.08364277 -0.04638517 -0.038320154 0.14334497 0.11895195
0.020075604 -0.067150585 0.042620227 -0.07253169 -0.12561144 0.008485168 0.06361686 0.14457548
-0.17423874 -0.011180863 -0.16451865 0.15693828 -0.046119183 -0.09402485 -0.09267898 0.036218718
-0.17189854 0.13147563 -0.0649974 -0.10823788 0.091900915 0.05435127 0.02875705 0.10218966
0.030685231 0.012834027 0.13622087 0.056052804 -0.18114832 0.14869997 0.12542486 -0.12990533
0.16155246 0.093256354 -0.017006785 -0.03337194 0.07392985 0.112957746 0.04894714 -0.07051001
0.06613277 -0.051171347 -0.087103665 0.07143664 0.013591796 -0.18223588 -0.005551502 0.034951717
0.13528559 -0.009489685 -0.15412371 -0.099234805 0.008126557 0.08017069 0.13413706 0.1677829
0.10969907 -0.15722026 -0.1822826 0.053995863 -0.049594223 -0.121150106 0.054348856 0.16225228
0.07088846 0.100913495 -0.04257074 -0.15211062 -0.013263524 -0.13099837 -0.16323555 -0.17341854
0.089639634 0.045220986 -0.12922134 -0.009903729 -0.08978327 -0.16247515 -0.012587309 0.064286634
00000000: 5cd9 49bd 8579 c0bd 75e6 95bd 6cc2 d33d
00000010: 206e e93b 5854 c03c 9cca 063e ead0 0cbe
00000020: d877 003d be4b 243e 7c68 333e 962e 02be
00000030: ee76 003e 9894 aebc 0e72 d4bd 90f0 303e
00000040: a1e1 3abe 80c4 e13c 7495 6c3d b030 083d
00000050: 10fd 453d 6014 d3bc df2f f0bd 88f4 fd3d
00000060: 5128 95bd 287a a2bc 8019 89bb 027a 34be
00000070: 803b 1e3e dc82 d63d cec1 d8bd bc82 97bd
00000080: 86e8 cebd e24a 333e 70fb e93c 3041 ce3c
00000090: fa30 7ebd dcc1 753d 9465 f43d 6649 7ebd
000000a0: 2c1a 44bd b896 3e3d 3685 0c3e 160d 75bd
000000b0: 9cba e93d d085 a1bd 80d7 a03d e8d1 a23d
000000c0: 04ef e13d 0e73 073e c010 a63d 5083 bc3d
000000d0: e700 29be f0f0 513c d012 a9bc 0066 1bbc
000000e0: 7ab6 3a3e 20ae 903c ec4f 763d c084 2fbe
000000f0: bbce 1bbe 24b8 4d3d 60ef b6bc bd61 a7bd
00000100: 7179 24be d212 133e 0015 cd3c 9a5e 26be
00000110: 5a0d 273e cc99 8c3d 3aaf cdbd c043 68bc
00000120: b440 15be 83c1 96bd 5039 123e d06f 703d
00000130: 6c37 d23d e01f dfbd e83c 333e cc1b 3cbd
00000140: b49f fdbd 587d 40bd 8c62 1ebe 2f50 34be
00000150: 48e0 913c 8285 053e 302e 8e3d 8c83 3ebd
00000160: 0012 dc39 b8c1 38be b8e0 a33c 1ae2 0e3e
00000170: 1861 b33d 1d5c 95bd 74ff ee3d c05f 05bd
00000180: b6a8 3a3e d026 2f3e 1f36 34be 1840 a83d
00000190: 6892 e5bc f67d 253e bc3f 0a3d baf5 2f3e
000001a0: 7812 f33d 24cb 8f3d 008e d43b 94ee ad3d
000001b0: 18a2 c2bc b84a d7bd 0549 39be 62f8 0c3e
000001c0: 4a88 0c3e f03b 303e c0f5 fabc f9c5 b9bd
000001d0: b883 6bbd 6888 11be b8e7 aebc fc1c a13d
000001e0: 2c6c d43d ac35 07bd 8895 1fbe 3c00 3d3d
000001f0: 5067 1cbc 0064 21bc d89b eb3d 1655 003e
00000200: 742a 193e 10f8 41bd 2f25 84bd a868 18be
00000210: 4c6b 14be 601f 95bb 9a81 79bd f4ea 5f3d
00000220: 6af9 f2bd b3fd 1dbe c886 21be 4c5d 83bd
00000230: 104d 79bd 0c06 8f3d 7cb5 c13d fcb6 e43d
00000240: 0cf9 07be 26ba 163e f4bf c33d 189f 68bd
00000250: d074 f93d d078 af3c a89a ec3d 3c8b 43bd
00000260: a34b 84bd 0cc8 763d 64e0 ddbd c4df 05be
00000270: a804 22be 4863 c23d 043c b5bd e0a0 c0bc
00000280: 44ae 153e c40d e43d c0c8 67bd 4e2f 253e
00000290: 8ceb edbd d870 1b3d 164b 91bd 24fc 0b3d
000002a0: 499c 0fbe 740b d13d 422b 33be e74c abbd
000002b0: 60fe 3dbd 98f5 1cbd 06c9 123e 149d f33d
000002c0: 9875 a43c 3f86 89bd 8c92 2e3d 7f8b 94bd
000002d0: 49a0 00be 6005 0b3c 8e49 823d 980b 143e
000002e0: a46b 32be f02f 37bc 9477 28be 6eb4 203e
000002f0: 78e7 3cbd 1a90 c0bd 7ace bdbd 145a 143d
00000300: 2c06 30be 8ca1 063e 5b1d 85bd d2ab ddbd
00000310: 8c36 bc3d 709f 5e3d e893 eb3c d048 d13d
00000320: 985f fb3c d045 523c 7c7d 0b3e a097 653d
00000330: f27e 39be ce44 183e 606f 003e e705 05be
00000340: 026e 253e 30fd be3d d051 8bbc 04b1 08bd
00000350: 8868 973d 6456 e73d cc7c 483d 8d67 90bd
00000360: 9e70 873d 0c99 51bd 6863 b2bd 604d 923d
00000370: 20b0 5e3c 0b9c 3abe 60e9 b5bb 8829 0f3d
00000380: 4e88 0a3e a07a 1bbc 9bd2 1dbe 9e3b cbbd
00000390: 4025 053c 8830 a43d 3a5b 093e 48cf 2b3e
000003a0: e8a9 e03d 59fe 20be 4aa8 3abe c42a 5d3d
000003b0: 5023 4bbd 8c1d f8bd e89c 5e3d 7625 263e
000003c0: f82d 913d bcab ce3d a85e 2ebd e3c2 1bbe
000003d0: 404f 59bc 7024 06be 3827 27be a194 31be
000003e0: fc94 b73d a439 393d 9952 04be 4043 22bc
000003f0: 4be0 b7bd e35f 26be 003b 4ebc b6a8 833d

fc1.bias f4 [64]
-0.1080837 0.06480329 0.079865545 -0.009959191 -0.15634277 -0.08383162 0.12275067 0.029261023
0.15647435 0.15996882 -0.04920964 -0.05212927 -0.12533191 -0.08007848 -0.099342324 -0.14978741
-0.13478701 -0.10932918 0.036202416 0.09346333 -0.15650915 -0.1568692 -0.09014177 0.047382012
0.16681913 0.08264634 -0.06774902 -0.038508505 -0.014481649 -0.16483381 -0.12797333 0.14793077
0.092108786 0.047091067 -0.122898 -0.17932712 0.06529327 -0.15435496 0.09704843 -0.012625068
-0.07243482 0.17706913 0.14483082 0.16364956 0.04792577 0.06757283 0.1629205 -0.03771533
-0.08294131 0.11342603 0.17095461 0.17965457 -0.14017847 0.16642028 -0.16113345 -0.13685524
0.086018324 0.08478403 -0.07097795 -0.17987858 0.1280359 -0.13816874 0.017478555 -0.00030322373
00000000: fd5a ddbd 96b7 843d 8c90 a33d e02b 23bc
00000010: 5218 20be eaaf abbd b464 fb3d d0b4 ef3c
00000020: d03a 203e dece 233e 0c90 49bd 8085 55bd
00000030: 0257 00be 3000 a4bd fd73 cbbd df61 19be
00000040: 9b05 0abe fae7 dfbd fc48 143d b469 bf3d
00000050: ef43 20be 52a2 20be 409c b8bd a413 423d
00000060: a2d2 2a3e 7c42 a93d 00c0 8abd 18bb 1dbd
00000070: 7044 6dbc 32ca 28be 710b 03be 2a7b 173e
00000080: 88a3 bc3d 90e2 403d f2b1 fbbd 87a1 37be
00000090: 7ab8 853d 3a0f 1ebe 54c1 c63d 60d9 4ebc
000000a0: b558 94bd 9c51 353e 884e 143e c093 273e
000000b0: d04d 443d a063 8a3d a2d4 263e 647b 1abd
000000c0: 22dd a9bd e84b e83d ba0e 2f3e 5ef7 373e
000000d0: f28a 0fbe 146a 2a3e 2b00 25be c823 0cbe
000000e0: 602a b03d 40a3 ad3d e35c 91bd 1732 38be
000000f0: d81b 033e 1b7c 0dbe 302f 8f3c 00fa 9eb9

fc2.weight f4 [1, 64]
-0.08426151 0.11128436 -0.004752502 0.07901965 -0.112810224 0.019961908 -0.05710143 0.07189278
0.00052292645 -0.044169724 0.11087838 -0.07664436 0.049258098 0.0074091703 0.035680205 0.09291166
0.035132185 0.11761707 -0.05010052 0.04834111 -0.022236899 0.10811314 0.06443885 0.104022995
-0.09820379 0.048651874 -0.009983271 0.019351915 0.119278505 -0.078994974 0.037452042 -0.04902284
-0.10339177 -0.10728088 -0.11314282 0.0793802 -0.07513681 -0.05542572 -0.056919888 -0.060228676
-0.023259878 0.025428921 0.046773925 -0.11814356 0.11717667 0.03679934 0.017160088 0.10788044
0.044124424 0.039536953 -0.03804116 -0.113148645 0.043493897 -0.0035151094 -0.12168975 0.049599975
0.050039068 0.098367885 0.107833385 -0.11525789 -0.02683796 0.018447325 -0.05605544 -0.09995486
00000000: 4c91 acbd 0ee9 e33d e0ba 9bbb 0ed5 a13d
00000010: 0c09 e7bd 2887 a33c 30e3 69bd 863c 933d
00000020: 0015 093a 50eb 34bd 3414 e33d b8f7 9cbd
00000030: dcc2 493d a0c8 f23b 6825 123d 7848 be3d
00000040: c4e6 0f3d 38e1 f03d 3436 4dbd 5401 463d
00000050: 282a b6bc 6c6a dd3d 84f8 833d 020a d53d
00000060: 121f c9bd 3047 473d e090 23bc e887 9e3c
00000070: 4a48 f43d 1ec8 a1bd 5067 193d 2ccc 48bd
00000080: 10bf d3bd 14b6 dbbd 6cb7 e7bd 1692 a23d
00000090: 54e1 99bd 1406 63bd d424 69bd 58b2 76bd
000000a0: 808b bebc 5050 d03c 0496 3f3d 40f5 f1bd
000000b0: 52fa ef3d e8ba 163d 5093 8c3c 6cf0 dc3d
000000c0: d0bb 343d 80f1 213d 0cd1 1bbd 7aba e7bd
000000d0: a826 323d c05d 66bb 7a38 f9bd 5829 4b3d
000000e0: c4f5 4c3d 1a75 c93d c0d7 dc3d 540c ecbd
000000f0: 48db dbbc d81e 973c 649a 65bd 22b5 ccbd
