res/european/regular/models/regular_14.pt (torch, 13983 bytes, 5 tensors)

fc1.weight f4 [64, 30]
00000000: 0384 2cbe 68f4 15bd c0bd 053b ce0a 0a3e
00000010: fa08 0f3e 4ce1 9fbd d776 0abe 1175 9cbd
00000020: 6212 0fbe 6834 403d 08da 09be f68c edbd
00000030: 5c86 40bd 6d5b 3abe da80 2ebe 6c11 e1bd
00000040: a483 a0bd 2450 373e 05e9 3abe 3dc1 d2bd
00000050: 0b9c 2ebe 0e97 0fbe 802f 593c e215 23be
00000060: c840 9e3d 58a0 f03d 609c 98bd 00e4 a2bd
00000070: 38f2 1b3d 2133 90bd 5cad 38bd 5689 c4bd
00000080: dd52 c5bd c64c 32be 08f8 283e 4eb2 313e
00000090: 9878 bebc d114 bfbd 0893 31be f2cc 34be
000000a0: 314e dfbd a42e bb3d 8008 783c 6cbf d8bd
000000b0: c8ae 353e ac82 bb3d fd40 2abe d227 cfbd
000000c0: 4a6c 7ebd 3686 173e 9e6b 373e 61bb 86bd
000000d0: eb10 81bd e0e3 d63d e0d1 30bd b5bf 95bd
000000e0: 36c9 353e c004 22bd f477 19bd 7ae3 30be
000000f0: 785b 2ebc e3b5 0cbf c9b1 0d3f 55e7 20bf
00000100: 0082 253f 3da2 01bf 6866 27bf 9b9b 14bf
00000110: 8c6b 00bd b14d 19bf d3e1 ddbe 9e27 1b3f
00000120: ca02 06bf 7627 83be 6af6 2cbf b562 283c
00000130: abf1 19bf ec82 23bf 4b73 6dbe 80c0 0b3e
00000140: c6ed d9bb 1736 743e 57fc 8c3c a6ac 0a3e
00000150: c717 27be 69fa 9abd c318 243d e853 ed3d
00000160: 57ac 5c3e 158a 863d 3158 cd3c 8526 89bf
00000170: da21 5b3f 7759 b2bf 2e1d ae3f 78b3 dfbe
00000180: 0331 8ebf 09d7 68bf 9857 153e 9c46 90bf
00000190: 646b 97bf c0e1 b73f 775e bbbf 23b9 0cbf
000001a0: f271 c1bf cd0d c7bc 0fa0 a0bf 3332 92bf
000001b0: 8eec 30bf 8a1a f43e ee2b 753e 121d 063f
000001c0: fb13 993d 4faa 903d 4f3f 15be 2c5c d33d
000001d0: d189 85bd 7d44 3e3e fe91 093f 2025 933d
000001e0: d9a2 e8bd c21b 1d3e 1fae 60be fe1c 46be
000001f0: 1018 2bbe 24e1 6fbe a6af c5bc c16f 66be
00000200: 6231 623e 2523 3f3e 373b 8fbe 0095 7b3e
00000210: 3cfd a8bd 4084 15bd 14c9 47be 8c60 a7be
00000220: ed9c f53e 5545 713e b2cf f83e 14fc b1bd
00000230: 278b 3bbe 2c38 f13e 84be b93e 53ca a63d
00000240: a79c 643e 5993 c73e 8a5f 4f3e 891a 3dbe
00000250: c019 23be 1778 063e 18ab 9f3d 44f6 9e3f
00000260: 66bf c7bf 32bf d43f 1634 e6bf 409a 3f3f
00000270: 4686 ba3f d12a a53f 04c0 18be 3a32 dd3f
00000280: 0544 dd3f 4971 e1bf ed73 e83f 23f5 4b3f
00000290: 6769 0740 fd1c 8f3c 9efb c53f 9c71 aa3f
000002a0: 2a83 5d3f 17d0 f1be 7160 19bf f93c 15bf
000002b0: d4ea 77bd 2594 003e 82d4 9c3e 32aa 68be
000002c0: 6031 59be 557c f6be 976f 15bf 3a31 16be
000002d0: cc8e bf3d e1ad 67bf b264 663f 2c66 a7bf
000002e0: e1b7 b73f a011 bebe efde babf 0c91 76bf
000002f0: c742 093e fc00 acbf 79bc a4bf 6e04 ae3f
00000300: d46d a0bf 43ee 20bf 1fa1 c1bf e532 fd3d
00000310: c8a2 93bf 7bdb 65bf 69f3 45bf 707a 203f
00000320: c6cd 8f3e 1d6e 253f 534b 003e 4296 17be
00000330: a2b0 84be 27e1 f13d b9ae 113e 5ae3 013f
00000340: 7393 243f fdda 9dbc a95f 3dbc 926d 243d
00000350: 3af7 363e 9237 4abe 7b54 b43e 7aa0 cd3c
00000360: e0c4 38be c3b6 e0bc ddad 67be eafe d7bd
00000370: 0ca1 5cbe 6c39 853e 6336 97bc 09f7 a1be
00000380: 487b 33be 5f67 9dbd f9a9 debd deb9 98be
00000390: fb28 2cbd 2ce2 683e cbd2 f8bd 7c2d 763d
000003a0: d1e0 10bd 07b0 e03d 2316 a4bb b074 333e
000003b0: 201f 733e cc2b df3d 4a22 b9bc 79e1 0abe
000003c0: 6827 063e 47be 1f3f 7d2b 7abf d7dd 773f
000003d0: 3d3d a6bf 40d0 cf3e 6089 6b3f 45d1 413f
000003e0: 30a3 fe3d 5459 803f eb69 8d3f 29aa 80bf
000003f0: 9af5 903f fe86 cc3e dff3 b33f 4ae9 b6bd
-0.16847233 -0.036610037 0.002040729 0.13480684 0.13968268 -0.07806644 -0.13521896 -0.07639516
-0.13971856 0.04692498 -0.13462079 -0.11599152 -0.047003135 -0.18198939 -0.1704134 -0.10989651
-0.078376085 0.17901665 -0.18252952 -0.102907635 -0.17051713 -0.14022467 0.013255954 -0.15926316
0.077272 0.11749333 -0.07451701 -0.07953644 0.038072795 -0.07041002 -0.045087203 -0.09596507
-0.096349455 -0.17412099 0.16500866 0.17353174 -0.023250863 -0.09330142 -0.17341244 -0.17656305
-0.10903586 0.09139755 0.015138745 -0.10583386 0.17742455 0.09155783 -0.16626354 -0.10115017
-0.06211499 0.14797291 0.17912146 -0.065787084 -0.06302055 0.104926825 -0.043168902 -0.07311956
0.17752537 -0.03955531 -0.03746791 -0.17274275 -0.010641925 -0.5496504 0.55349404 -0.62852985
0.6465149 -0.5063818 -0.65390635 -0.58049935 -0.031352565 -0.5988417 -0.43336353 0.60607326
-0.52348006 -0.25616044 -0.675635 0.01027744 -0.6013438 -0.63871646 -0.23188512 0.13647652
-0.0066506593 0.23848759 0.017210169 0.13542423 -0.16317664 -0.07567293 0.040062677 0.115882695
0.21550117 0.06569306 0.025066467 -1.071488 0.8559853 -1.3933553 1.3602655 -0.4369161
-1.1108707 -0.9095312 0.14584196 -1.1271548 -1.1829648 1.4365768 -1.4638203 -0.54969996
-1.5112898 -0.024298573 -1.2548846 -1.142157 -0.69110954 0.47676498 0.23942539 0.5238811
0.07474514 0.07063734 -0.14574932 0.10320315 -0.06520427 0.18580814 0.5373839 0.071848154
-0.11359186 0.1534262 -0.21941422 -0.19346997 -0.16708398 -0.23425728 -0.024131607 -0.22503568
0.2208915 0.1866575 -0.27974865 0.24568558 -0.082514256 -0.036503077 -0.19510299 -0.32690847
0.47971287 0.23561604 0.4859596 -0.08690658 -0.18314801 0.47113168 0.36278164 0.08144059
0.22325383 0.38979605 0.20251289 -0.18467154 -0.15927792 0.13131748 0.077963054 1.2418904
-1.5605285 1.6620848 -1.7984645 0.7484474 1.4572227 1.2903692 -0.14916998 1.7280953
1.7286383 -1.7612697 1.8160378 0.79670924 2.1158082 0.017469877 1.5467412 1.3315921
0.86528265 -0.47229072 -0.5991278 -0.5829616 -0.060526684 0.12556513 0.3063088 -0.22721174
-0.21210241 -0.48141733 -0.583734 -0.14667216 0.09353408 -0.90499693 0.899974 -1.3078055
1.435299 -0.37122822 -1.4599284 -0.96315074 0.1340438 -1.34378 -1.2870017 1.3595102
-1.2533517 -0.6286356 -1.5127295 0.12363223 -1.1534052 -0.89788026 -0.7732454 0.62686825
0.2808668 0.64621145 0.12528734 -0.14803413 -0.2591601 0.118105225 0.14226808 0.50737536
0.6428749 -0.01926946 -0.011558452 0.040143557 0.17867747 -0.19747761 0.35220703 0.025100935
-0.18043852 -0.027430898 -0.22624917 -0.10546668 -0.2154581 0.26020372 -0.01845855 -0.31633785
-0.17527497 -0.07685732 -0.108722635 -0.29829305 -0.04203127 0.22742528 -0.121495806 0.06010197
-0.03537065 0.109710746 -0.0050075217 0.17524981 0.23742342 0.108970255 -0.022599358 -0.13562573
0.1310097 0.62399715 -0.9772261 0.96822876 -1.2987438 0.4058857 0.9200649 0.75709945
0.12433469 1.0027261 1.1047949 -1.0051929 1.1324952 0.3994674 1.4058799 -0.08931215

fc1.bias f4 [64]
00000000: ca20 2a3e 05bd c5bd 4129 603d 7296 00be
00000010: 1efa 02be 8576 303e 8653 45be f9a9 97be
00000020: ff66 783d b753 dabc 1e00 8dbe 1556 9ebe
00000030: 6cea 703d aab2 443d 5c4b 783e e0eb fc3b
00000040: e000 993b 51cd 3cbe 16e4 d03d 41e7 283e
00000050: be1e 2dbe 3065 cd3d ba87 0abe 6ab2 34be
00000060: 73e3 71bd 61fc c0be b8d6 b13d e936 2e3e
00000070: a791 99be 9e60 b6bd cd56 913e 6859 503d
00000080: 5062 acbc 7086 fc3d ff2e e33c 5bae df3d
00000090: 83fe ea3d f5b2 123d eaa3 46bd 5e59 403e
000000a0: 1909 353c 63db 11bd f0c1 fa3c 2c81 9e3d
000000b0: 429e 223e 1774 843d a4d3 00be 5efb 92bd
000000c0: efbf 6e3c a0e0 d1bc cc8c 23be 721b f0bd
000000d0: 872e bebd eadd 263e 33a4 c1be 73e6 36be
000000e0: c6b0 f5bd 034b f03d 52dd f03c b821 0ebd
000000f0: 02a6 2fbd a6b4 b8bd e0db 80bb 0494 cbbd
0.1661407 -0.09655193 0.054726843 -0.1255739 -0.12790725 0.17232712 -0.19270143 -0.29621866
0.0606451 -0.026651246 -0.27539152 -0.3092505 0.058817312 0.04802195 0.24247497 0.007718548
0.0046692938 -0.18437697 0.10199754 0.16494466 -0.16906258 0.100290656 -0.13528338 -0.17646185
-0.059054803 -0.3769255 0.086835325 0.17013134 -0.29993936 -0.08905147 0.28386536 0.050866514
-0.021042973 0.123303294 0.02773237 0.109219275 0.114743255 0.035815198 -0.048496164 0.18784091
0.011049532 -0.035609614 0.030610055 0.07739481 0.15880683 0.06467455 -0.12580734 -0.07176851
0.014572128 -0.025619805 -0.15971678 -0.11723985 -0.09286218 0.16295591 -0.37820587 -0.17861347
-0.119966075 0.11733057 0.029402409 -0.034700125 -0.042882927 -0.09018831 -0.003932461 -0.09940341

fc2.weight f4 [14, 64]
00000000: 3aec b93d f449 22bd 75f5 2dba 0099 68bd
00000010: f014 b9bc a669 d03c eba9 973d dd91 da3d
00000020: 5302 c53d 07c7 12be 731e d53b 63e8 b13c
00000030: cc78 94bd da91 27bd 3275 66bc c840 533d
00000040: 82cf 9cbd b010 c1bc d3bb 333d 9246 9dbd
00000050: 8424 ba3d 2ada 84bd 5ef7 023d 4a4c c5bd
00000060: 0f95 04be 7425 963c 60f9 063c 8d54 bcbc
00000070: 5166 81bd 0510 febd fe92 de3c a612 82bd
00000080: 2510 f8bd c869 093d 16d7 3cbd c2f6 793d
00000090: 67c2 d43d 63ee 74bd c0ea c9bd 5a59 ef3d
000000a0: aba0 be3d 7462 b03d 78cb e23d 02eb bf3d
000000b0: de33 a7bd 488b 1c3d acc8 61bd 6240 5f3d
000000c0: cf61 a1bd 64e7 873d 29cb 9fbd 7004 10bc
000000d0: a081 92bd 7e53 8d3d d6ab 03bd f015 543d
000000e0: 997c aabd e443 f5bd 9e2d 46bd 8a22 d33d
000000f0: 769e e23c 3449 663d f061 0dbd 307c 9bbc
00000100: 4cac dc3d f0f6 a73c d4f9 9c3d a58a df3d
00000110: ed95 25be 86c4 c7bd f45b d93d 1b0e e63d
00000120: 798d e1bc 15d9 903b 690b 57bd ee3d f53c
00000130: 4470 213d 0cb6 893d 3b91 54bc 92eb 88bd
00000140: fc91 4c3d 4e14 b1bd a0ce 293d f9f5 b4bd
00000150: 401e 4ebd 8481 753d 65bf bf3d 5567 bfbc
00000160: 52a9 343c 9948 a4bc 3853 fbbd 6cae 8f3d
00000170: 5c89 8d3d 17bf 22bd 9b33 cabd 4422 243d
00000180: 1438 10be a461 8ebd bcc0 463c fcb8 41bd
00000190: 73dc 993d 14fb 983d 585f c6bd 1432 b1bd
000001a0: 67ce 03bd 0e30 1dbd 8238 eebd 4f7f 853d
000001b0: 60f6 9f3d f3eb 52bd 4091 a43d 593a 8b3d
000001c0: 1dd3 c53c 5270 e1bd 2737 a9bd 4a6f 96bd
000001d0: ef13 063d 8c44 613d 63b4 c0bd d86b 693d
000001e0: 5418 303d 25a3 1abd b111 27bd 987f 823c
000001f0: 35b0 863b 80b5 77bc 64fb 2e3d c6b0 af3d
00000200: 784c 6abd f0f5 233d ec50 893d a063 9b3c
00000210: 1429 293d 4aa0 c3bd 40e5 18bb 481b 7ebd
00000220: 7c7b f3bd 9072 d73d 8428 ad3d 8825 763d
00000230: 487c c3bc 58d8 aabd 004c 7abc a49c e93d
00000240: b4d5 243d 5098 e33d a450 46bd be9e aabd
00000250: 8092 a8bb e463 503d 146f d03d d0c1 8fbd
00000260: ccbc 8ebd ace6 7cbd cc1c 4dbd 542d 71bd
00000270: 68d4 e63c daef d2bd d889 33bd 2cbb 20bd
00000280: 08e7 49bd 503a 13bd acd6 76bd f8c3 81bc
00000290: 403c dbbc 0045 05bb accc 163d 38f3 8b3d
000002a0: b4fc 2b3d 6471 99bd 80c1 c5bc 20bd d7bd
000002b0: dc42 08bd 1607 9a3d 063d f13d 20c9 85bb
000002c0: 548b 41bd a863 8d3d c02c 87bb 1651 c73d
000002d0: f807 443d 6851 7f3d 661e 9ebd d0d9 113c
000002e0: 0094 4abd 384b 88bc aaf1 e2bd 8a25 ffbd
000002f0: 10bc 313d 344c 6c3d c2f5 81bd d005 9cbd
00000300: 4863 ee3d a8d1 63bd cb74 60bd b649 e8bd
00000310: 6cce 343d 82fe 903c 313f d4bd 7f7b 193d
00000320: 35c3 5bbc 3e8f 96bd 9aeb d83d ba91 383b
00000330: 4afa 91bd 6a68 513d b7e4 a4bd c875 d43c
00000340: 2c3a 913d 168f ebbd bb8f c0bd 08c1 953d
00000350: 7cd4 08bd 92f3 abbd 0e4d ba3d c05c 36bb
00000360: 077f cd3d 26f5 493d 7620 b73d 7ee3 0dbc
00000370: 89fc b4bc 6722 e7bc a11d 06bd 2012 d1bd
00000380: f3b6 843d dadc f43d 848f e63c b5f3 8ebd
00000390: 9510 dabd 5539 25bd f0e9 f53c 1091 ac3d
000003a0: 345e 3c3d fd7d a5bd 862f e3bd 4a74 9b3d
000003b0: 046f 27bd ffec 95bd f0d5 dfbc c7cd a23c
000003c0: 3ff1 a83d 6c40 b93d 6895 973d 904d 413c
000003d0: 9748 bf3d 080c fabc 82db c3bd 2874 963d
000003e0: b7bb 2dbd 40f1 5e3b 3e30 f4bd bc66 04bd
000003f0: 58ca 8fbd 04b0 00bd d4ed 763d 9880 b03c
0.0907826 -0.03962131 -0.0006636002 -0.056786537 -0.022592992 0.025441002 0.07405456 0.106723525
0.09619584 -0.14333735 0.006503874 0.021717256 -0.07249603 -0.04091058 -0.0140660275 0.051575452
-0.076567665 -0.023567528 0.043880295 -0.07679476 0.09088996 -0.06486924 0.03197419 -0.096336916
-0.12947486 0.018328406 0.008238167 -0.022989536 -0.063183434 -0.12405399 0.0271697 -0.06351213
-0.12112454 0.033548146 -0.04610356 0.061026342 0.10388642 -0.059797656 -0.09859228 0.11686964
0.09307989 0.086125284 0.11073965 0.09370996 -0.0816419 0.038218766 -0.055123016 0.05450476
-0.07879984 0.06635931 -0.078024216 -0.0087901205 -0.0715363 0.069006905 -0.032146297 0.051778734
-0.08324546 -0.1197584 -0.048383348 0.10309322 0.02766345 0.056222156 -0.03451723 -0.018980116
0.107750505 0.020503491 0.076648384 0.10915116 -0.16170473 -0.09754281 0.10613242 0.11233159
-0.02753328 0.0044204094 -0.052501116 0.029936757 0.039413705 0.06724176 -0.012974079 -0.066855565
0.04994391 -0.08646451 0.04145682 -0.08835978 -0.050321817 0.05993797 0.093626775 -0.023364702
0.011026697 -0.020054149 -0.12271732 0.0701569 0.06910965 -0.03973302 -0.09873124 0.04007174
-0.14083892 -0.06952217 0.012130912 -0.047295555 0.075127505 0.07469764 -0.09686154 -0.0865213
-0.032179262 -0.038375907 -0.11631872 0.06518423 0.07810664 -0.05149455 0.08035517 0.06798238
0.024148518 -0.110077515 -0.082624726 -0.073454455 0.032733854 0.054997012 -0.09409406 0.056987613
0.04299195 -0.037753243 -0.040788356 0.015929982 0.004110361 -0.015118957 0.042720214 0.08578639
-0.057201833 0.040029466 0.06704888 0.018968403 0.04129894 -0.09552057 -0.0023330003 -0.062037736
-0.11888787 0.10519898 0.08454993 0.060094386 -0.023862973 -0.083420455 -0.015276909 0.1140683
0.040242866 0.11113036 -0.04841675 -0.08331059 -0.0051444173 0.050876513 0.101774365 -0.07019389
-0.06969604 -0.061743423 -0.05007629 -0.05888112 0.028177455 -0.10299654 -0.04383263 -0.039241
-0.049292594 -0.035944283 -0.06026332 -0.015840515 -0.026762128 -0.0020335317 0.036816284 0.068335
0.041989043 -0.07492331 -0.02414012 -0.105341196 -0.033266887 0.07520883 0.117792174 -0.004082814
-0.047252014 0.069037735 -0.0041252077 0.09732263 0.047859162 0.062333494 -0.07720642 0.008902028
-0.04945755 -0.01663743 -0.1108125 -0.12458332 0.04339224 0.05768986 -0.06345703 -0.07618296
0.1164003 -0.055619866 -0.054798882 -0.11342184 0.04414217 0.017699484 -0.10363615 0.03747129
-0.01341324 -0.0735154 0.105918124 0.0028163032 -0.07127817 0.051124968 -0.080514364 0.025935069
0.070911735 -0.11501901 -0.094024144 0.073122084 -0.033405766 -0.08396067 0.09096728 -0.002782628
0.10033994 0.049306057 0.08941738 -0.008660195 -0.022093074 -0.028214647 -0.0327431 -0.10208535
0.06480207 0.119561866 0.028144605 -0.06980077 -0.10647694 -0.04033788 0.030018777 0.08426106
0.045988277 -0.08080671 -0.11093049 0.0759054 -0.040877357 -0.07320594 -0.027323693 0.019873513
0.08249139 0.090454906 0.07401544 0.0117982775 0.09340017 -0.030523315 -0.09563352 0.07346374
-0.042415347 0.0034018308 -0.11923264 -0.032324538 -0.07021016 -0.03141786 0.060285404 0.021545693

fc2.bias f4 [14]
00000000: 22a4 1e3e 90d7 0e3d 38c9 953c 116c acbc
00000010: 0e79 0b3d 5991 7a3d a331 31be c351 f4bd
00000020: 6368 02bd 43b5 a13d 7076 d9bc f5f1 e9bd
00000030: 8cd3 87bd bc65 32bd
0.15492299 0.034873545 0.018284425 -0.021047624 0.034050994 0.06117377 -0.17304091 -0.11929657
-0.031837832 0.07895901 -0.026545733 -0.11423103 -0.06632146 -0.043554053

fc3.weight f4 [1, 14]
00000000: ea15 f7bc 4435 a3bc 48c1 5f3d 016a 15bd
00000010: 1146 48be 3ce4 0c3a 1cb9 903d 9261 3abe
00000020: 8546 e5ba 8291 1abe 04d2 bb3d 9beb e93d
00000030: ecfd 50be 627b 1c3e
-0.030161817 -0.01992286 0.054627687 -0.036478046 -0.19557978 0.0005374586 0.07066557 -0.18201283
-0.001749233 -0.1509457 0.09170917 0.11421891 -0.20409364 0.15281442
