res/european/regular/models/regular_2.pt (torch, 10783 bytes, 5 tensors)

fc1.weight f4 [64, 30]
-0.15622842 0.026646763 0.04396999 -0.11346298 -0.110170394 0.014358759 0.14384595 0.11009991
-0.1073394 -0.03862457 -0.1145768 -0.14914119 0.14946082 0.0059714764 0.0964784 -0.13119812
-0.14813186 -0.030641422 -0.058644727 0.031192675 0.16231948 -0.12373316 -0.048049986 0.13989562
-0.04773982 -0.02530016 0.17403442 0.08377555 -0.0967688 -0.021986857 -0.1376664 0.022400916
-0.16726795 0.10858756 -0.07966472 -0.16070312 -0.03731793 -0.088473484 0.085642695 -0.094995156
-0.10931914 -0.025664434 0.17151958 -0.087522805 -0.06310844 -0.05540988 -0.089194536 0.0500205
0.12824985 -0.15378566 0.14140034 0.01700008 0.012243792 -0.15123403 -0.07580134 0.13730094
0.12174511 -0.033858314 0.15002328 0.13110346 0.036725968 0.00079752505 0.052064866 0.1283223
-0.10247864 0.11447173 0.044530243 -0.11172948 0.044837102 -0.14836273 -0.082453 -0.056646526
-0.1643458 0.028917655 -0.10831414 -0.17968696 0.040093914 0.18144712 0.11239445 -0.05876138
-0.026508614 -0.15331784 -0.0066345334 -0.06870505 -0.17670201 0.056295782 -0.11695014 0.1824213
-0.17844573 0.069999576 -0.1797025 0.09368777 0.088330865 -0.17467834 -0.11674157 -0.029655471
-0.072465815 -0.0070819855 -0.046429947 0.116594404 0.039708972 -0.072457306 0.04894203 -0.0008494854
-0.1239723 0.17514837 -0.08503229 0.021685556 -0.04956971 -0.101160616 0.017586768 -0.04262297
0.17817774 -0.12934405 -0.07149583 -0.1124671 0.0046713054 -0.17714815 0.086612254 -0.07644287
-0.05549541 0.009232625 0.17444915 0.15716362 0.050283834 0.016251296 -0.08443305 0.0588509
-0.039071128 -0.09366552 0.16375229 0.09030995 0.013134688 -0.090327166 -0.10543776 -0.024747953
0.0042369664 0.14782766 -0.033731207 0.11921537 0.058109447 -0.07291427 -0.14619958 -0.010094956
0.101269126 0.17334712 -0.11908332 -0.037755728 -0.015461206 -0.17434399 0.18004054 0.038743496
0.16331741 -0.014006749 0.016504347 0.07952356 0.014036924 0.17358455 -0.11918416 0.0834662
0.07367247 0.13199443 -0.009984553 0.14987952 0.0372383 -0.15619184 -0.14320712 0.18183354
0.14799684 0.10073927 0.14644352 -0.053907216 -0.15451664 -0.1775994 -0.0831838 -0.030298874
-0.13370346 -0.014706358 0.06343816 -0.13888183 0.17436785 0.15515435 0.026865512 0.17852569
-0.15503275 -0.042562813 0.13817677 -0.03111495 -0.0098899305 0.036288187 0.0312552 -0.042901948
-0.13559157 -0.039155945 -0.081269525 0.110901654 0.0923222 -0.13324192 0.071272284 0.10188696
-0.0729666 0.08282721 0.16487408 0.15928361 -0.1084718 0.11711541 0.07148087 -0.100278065
-0.1234911 0.049272627 -0.0042153746 -0.06253339 0.090510786 -0.08161217 0.09872225 -0.05246742
-0.17795008 -0.15209588 -0.022997811 -0.013257787 0.018030226 -0.1092044 0.05842091 0.15009558
-0.16100445 -0.18124123 0.042234942 -0.1311169 -0.104462236 -0.08539147 0.05680546 0.018526241
-0.1410561 -0.10973783 -0.14917994 -0.051569283 -0.15686823 0.0021471977 -0.13493326 -0.06677478
-0.18162256 -0.032128677 0.057266608 -0.078855425 -0.07471337 -0.098481074 -0.07149218 0.15028352
0.09760594 0.13887936 0.06869897 0.108566076 -0.095640935 0.0077180266 -0.048665613 0.0008390844
00000000: 58fa 1fbe 504a da3c e019 343d 475f e8bd
00000010: 04a1 e1bd 0041 6b3c 5a4c 133e 107c e13d
00000020: c2d4 dbbd cc34 1ebd 3ea7 eabd 78b8 18be
00000030: 420c 193e 60ac c33b 7896 c53d cd58 06be
00000040: e1af 17be b803 fbbc 7435 70bd c887 ff3c
00000050: 1437 263e d067 fdbd 10d0 44bd cc40 0f3e
00000060: d48a 43bd 4842 cfbc 1436 323e 8492 ab3d
00000070: b82e c6bd c81d b4bc 6cf8 0cbe 2082 b73c
00000080: 4a48 2bbe 2863 de3d 4227 a3bd 5c8f 24be
00000090: b0da 18bd 9631 b5bd 7065 af3d d28c c2bd
000000a0: b7e2 dfbd 383e d2bc d4a2 2f3e 283f b3bd
000000b0: ff3e 81bd 78f5 62bd a0ab b6bd 4ce2 4c3d
000000c0: ee53 033e fd79 1dbe 40cb 103e c043 8b3c
000000d0: 309a 483c 18dd 1abe bc3d 9bbd 9e98 0c3e
000000e0: 8055 f93d 04af 0abd b49f 193e fc3f 063e
000000f0: f86d 163d 0011 513a f841 553d ec66 033e
00000100: 52e0 d1bd 2870 ea3d 5865 363d 6dd2 e4bd
00000110: 1ca7 373d 66ec 17be 1edd a8bd 3006 68bd
00000120: 444a 28be b8e4 ec3c ced3 ddbd dcff 37be
00000130: 8439 243d 46cd 393e 102f e63d c6af 70bd
00000140: 9828 d9bc 5aff 1cbe 8066 d9bb 3cb5 8cbd
00000150: 5ff1 34be 6896 663d 8e83 efbd a6cc 3a3e
00000160: 7aba 36be f05b 8f3d ef03 38be 60df bf3d
00000170: d0e6 b43d e1de 32be 3416 efbd 08f0 f2bc
00000180: f568 94bd 0010 e8bb 542d 3ebd 0cc9 ee3d
00000190: e0a5 223d 7f64 94bd 7077 483d 00b0 5eba
000001a0: 30e5 fdbd 185a 333e 6925 aebd e8a5 b13c
000001b0: 9c09 4bbd 4c2d cfbd 2012 903c 6c95 2ebd
000001c0: 3a74 363e c472 04be 686c 92bd 2755 e6bd
000001d0: c011 993b 5366 35be c461 b13d 148e 9cbd
000001e0: 284f 63bd 7044 173c cca2 323e 80ef 203e
000001f0: 6cf6 4d3d 7021 853c 3ceb acbd a40d 713d
00000200: 0c09 20bd b5d3 bfbd aeae 273e 6cf4 b83d
00000210: e032 573c 73fd b8bd c1ef d7bd 38bc cabc
00000220: 40d6 8a3b 2260 173e bc29 0abd 3027 f43d
00000230: 2c04 6e3d 1454 95bd 58b5 15be 5065 25bc
00000240: 3066 cf3d e881 313e f5e1 f3bd c0a5 1abd
00000250: 0051 7dbc 3b87 32be 8c5c 383e 80b1 1e3d
00000260: ae3c 273e 907c 65bc 2034 873c 40dd a23d
00000270: 20fb 653c 26c0 313e d316 f4bd 54f0 aa3d
00000280: 98e1 963d 8c29 073e 4096 23bc 047a 193e
00000290: 3087 183d c1f0 1fbe e3a4 12be 9232 3a3e
000002a0: 7c8c 173e 6450 ce3d 4af5 153e d0cd 5cbd
000002b0: 9c39 1ebe 9edc 35be 455c aabd 5835 f8bc
000002c0: 8fe9 08be f0f2 70bc deeb 813d 0a37 0ebe
000002d0: 7c8d 323e c8e0 1e3e 1015 dc3c 70cf 363e
000002e0: e8c0 1ebe 5856 2ebd 367e 0d3e c8e4 febc
000002f0: 6009 22bc eca2 143d 7405 003d f4b9 2fbd
00000300: 84d8 0abe fc61 20bd a370 a6bd 6820 e33d
00000310: 6c13 bd3d 9270 08be 34f7 913d 1caa d03d
00000320: 836f 95bd 50a1 a93d c0d4 283e 3e1b 233e
00000330: 7726 debd 34da ef3d 9064 923d 965e cdbd
00000340: e7e8 fcbd 18d2 493d 2021 8abb 8211 80bd
00000350: b85d b93d 4824 a7bd e42e ca3d 14e8 56bd
00000360: 8c38 36be 06bf 1bbe e865 bcbc 3037 59bc
00000370: 20b4 933c 8ea6 dfbd c44a 6f3d a8b2 193e
00000380: 5ade 24be 4d97 39be 8cfe 2c3d 8243 06be
00000390: 4cf0 d5bd b9e1 aebd d8ac 683d 58c4 973c
000003a0: 0371 10be 3abe e0bd a0c2 18be 503a 53bd
000003b0: 11a2 20be 00b8 0c3b f22b 0abe 37c1 88bd
000003c0: 44fb 39be 5c99 03bd 6490 6a3d f47e a1bd
000003d0: 5303 99bd 72b0 c9bd 7e6a 92bd ece3 193e
000003e0: a0e5 c73d 6436 0e3e 0cb2 8c3d e457 de3d
000003f0: 65df c3bd 80e7 fc3b 9855 47bd 00f6 5b3a

fc1.bias f4 [64]
-0.047107235 -0.01207231 -0.046257854 -0.0043389797 0.1682927 0.1759435 0.042160153 0.13940883
-0.11587129 -0.021445408 0.087156534 0.037568793 -0.02349937 -0.021999404 0.116354555 -0.07547098
-0.11768517 0.15885997 -0.088081025 0.057546094 -0.11715279 0.13674676 0.10275027 -0.10999343
-0.10477286 0.11718705 -0.069589764 -0.112533286 -0.13212204 -0.16259372 0.17449468 -0.06685877
-0.12281658 -0.120171964 -0.024892911 0.11688298 0.017068267 -0.022162944 -0.12930243 -0.09629696
0.043707594 -0.09085276 0.016309887 -0.06041296 -0.13336508 0.035268933 0.1469537 -0.01541467
0.16469404 0.15059975 0.0459501 0.011609465 -0.054757833 -0.022850111 -0.10822043 -0.034590036
0.018131167 0.084771395 0.025091857 -0.113873914 0.1730681 -0.0548359 -0.008080587 0.08501813
00000000: 84f3 40bd f0ca 45bc e078 3dbd 002e 8ebb
00000010: ec54 2c3e 882a 343e 20b0 2c3d 30c1 0e3e
00000020: ed4d edbd 48ae afbc 207f b23d bce1 193d
00000030: c081 c0bc 1838 b4bc 4c4b ee3d 8790 9abd
00000040: ec04 f1bd 30ac 223e d363 b4bd 74b5 6b3d
00000050: cded efbd 5807 0c3e bc6e d23d 3c44 e1bd
00000060: 2793 d6bd c4ff ef3d 1485 8ebd da77 e6bd
00000070: 004b 07be f87e 26be bcae 323e 40ed 88bd
00000080: 4287 fbbd b81c f6bd 38ec cbbc 5860 ef3d
00000090: c0d2 8b3c 108f b5bc db67 04be 5737 c5bd
000000a0: bc06 333d 0311 babd 509c 853c 9473 77bd
000000b0: db90 08be 2876 103d 087b 163e d08d 7cbc
000000c0: 8ea5 283e d236 1a3e 2c36 3c3d a035 3e3c
000000d0: c049 60bd 2830 bbbc aca2 ddbd 48ae 0dbd
000000e0: d087 943c a09c ad3d 708d cd3c ba36 e9bd
000000f0: c438 313e 9c9b 60bd 7064 04bc fc1d ae3d

fc2.weight f4 [2, 64]
0.08165598 -0.010316476 -0.07558061 0.061657563 0.11130646 -0.07271169 -0.12230559 -0.08153467
0.11640166 0.08470395 -0.09470463 -0.051744863 -0.037829086 -0.10317154 0.094560385 0.090859026
0.07005082 -0.041701436 -0.10770106 -0.037013113 0.09394145 -0.03428392 0.08467789 0.0034407377
-0.121829316 0.012705684 0.114679545 0.019148946 -0.0655905 -0.1106077 0.043727398 0.10326728
-0.077515736 0.12077598 0.034569845 0.009314701 -0.0068472326 -0.072710246 -0.05822751 -0.042060316
-0.04565385 0.028916419 -0.011440158 -0.08554025 0.11045167 -0.04204394 0.076258 -0.109482005
-0.05752708 0.1235411 -0.01680018 -0.0026708394 -0.046298176 0.029020622 -0.0656102 0.079105034
0.026459888 -0.05625692 -0.061136767 -0.058597937 0.076161236 0.04829113 -0.067294225 0.119995564
-0.1013404 -0.11875303 -0.048045784 -0.10710111 -0.10739091 0.104172766 0.03757538 0.04103677
-0.098744795 -0.11106126 -0.010348216 -0.033867672 0.025817558 0.04611081 0.009089902 -0.10335939
-0.05535701 0.036595494 -0.021573126 0.05797413 0.05508764 -0.10127263 -0.088211805 -0.06331961
0.03234394 -0.0450114 -0.06945452 -0.06571141 0.031489983 0.0050663203 -0.1042712 -0.08321233
-0.031994596 0.05803497 -0.06863698 -0.10733557 -0.1096219 0.11412807 0.004952252 0.034266368
-0.05676219 -0.045846537 0.06473786 0.02529633 0.026495561 0.0553222 -0.07938573 0.022847101
-0.032888725 0.007863328 -0.02629006 0.048262328 -0.098193005 0.045742333 -0.104589835 -0.10036759
0.05883944 -0.09236227 -0.120235085 0.08939682 -0.09231961 0.05063413 0.03990251 0.070902824
00000000: 403b a73d 7006 29bc 02ca 9abd a48c 7c3d
00000010: a4f4 e33d dee9 94bd 5a7b fabd a6fb a6bd
00000020: fe63 ee3d 4479 ad3d 80f4 c1bd 6cf2 53bd
00000030: acf2 1abd 9a4b d3bd e0a8 c13d 4c14 ba3d
00000040: ce76 8f3d 20cf 2abd 6092 dcbd 109b 17bd
00000050: 6064 c03d 4c6d 0cbd 9a6b ad3d 007e 613b
00000060: a681 f9bd 802b 503c 1cdd ea3d 40de 9c3c
00000070: 5054 86bd 4a86 e2bd 801b 333d cc7d d33d
00000080: 92c0 9ebd 6659 f73d 1c99 0d3d b09c 183c
00000090: c05e e0bb 1ce9 94bd f87f 6ebd 7047 2cbd
000000a0: 88ff 3abd 20e2 ec3c 806f 3bbc ba2f afbd
000000b0: 7c34 e23d 4436 2cbd 282d 9c3d 1a38 e0bd
000000c0: 84a1 6bbd 1e03 fd3d 88a0 89bc 4009 2fbb
000000d0: 28a3 3dbd a8bc ed3c a45e 86bd d201 a23d
000000e0: 68c2 d83c a86d 66bd 8c6a 7abd 6404 70bd
000000f0: 6cfa 9b3d eccc 453d 8ed1 89bd 3cc0 f53d
00000100: 8e8b cfbd ca34 f3bd a8cb 44bd d457 dbbd
00000110: c4ef dbbd 8858 d53d a4e8 193d 2c16 283d
00000120: b63a cabd 1674 e3bd 908b 29bc d4b8 0abd
00000130: 587f d33c b0de 3c3d d0ed 143c 16ae d3bd
00000140: 08be 62bd 28e5 153d 20ba b0bc 4876 6d3d
00000150: 94a3 613d 0668 cfbd 64a8 b4bd b6ad 81bd
00000160: 147b 043d e05d 38bd 2c3e 8ebd b493 86bd
00000170: a4fb 003d 6003 a63b 248c d5bd 3a6b aabd
00000180: c40c 03bd 14b6 6d3d 8c91 8cbd c0d2 dbbd
00000190: 7281 e0bd fabb e93d 8046 a23b e45a 0c3d
000001a0: 787f 68bd 94c9 3bbd 4895 843d 403a cf3c
000001b0: 380d d93c 8899 623d fc94 a2bd d829 bb3c
000001c0: 54b6 06bd 30d5 003c 405e d7bc b8ae 453d
000001d0: 6a19 c9bd 505c 3b3d 3233 d6bd 868d cdbd
000001e0: a001 713d 6e28 bdbd d03d f6bd ae15 b73d
000001f0: 1012 bdbd bc65 4f3d d070 233d 8035 913d

fc2.bias f4 [2]
0.12474345 -0.0052356124
00000000: 7e79 ff3d 808f abbb

fc3.weight f4 [1, 2]
-0.44641992 0.17063195
00000000: 2791 e4be 24ba 2e3e
