res/european/regular/models/regular_12.pt (torch, 13343 bytes, 5 tensors)

fc1.weight f4 [64, 30]
00000000: bf91 c1bd 0911 453d f9cf b33e 2700 833e
00000010: 4435 803e 3e17 443d e7c9 80bd 4761 ab3e
00000020: dcaa 44be 11f8 34be ea8b 323f 9c6e d9bd
00000030: 0d75 c23d 46fd 233e 541a 213f bb4f 8e3e
00000040: 3b3b 06bf af7f 7fbe c38c 36bf 6487 c33e
00000050: 9075 053e 28e9 13bf 6ecd dcbe 8304 2c3c
00000060: 9cb1 ddbd 9ad8 e2be 0664 a6be d967 0b3f
00000070: 2db3 453d 8cf8 6f3d 846a 49bd 60c0 553d
00000080: 98cf 75bd 08e6 cf3d 2cf3 99bd 80ce 14bb
00000090: 288f dfbc 4978 1cbe 0cb1 e63d d231 9bbd
000000a0: e49b 8d3d 7070 f53c 04ae 4b3d 2670 183e
000000b0: 803e b33c 6450 003e 3853 66bd cba7 1cbe
000000c0: c0b0 ef3d 3d3e 87bd 00d2 a2bb a82e 3fbd
000000d0: 2c17 643d 1002 633d e033 9a3d 482a 1d3e
000000e0: 885c 13be a0ba a23d 66ec 363e ea36 80bd
000000f0: 3ecb d3bb fe77 49bf 7246 6a3f be30 95bf
00000100: a706 a93f 40e6 38bf 02d0 95bf 7cb2 4ebf
00000110: 77a3 0d3e d8e3 7fbf d512 8fbf 3f4b 8b3f
00000120: 5f6d 85bf b46c 92be 0b62 93bf f021 013d
00000130: d91a 8abf 0ad0 86bf c822 69bf 82b9 c43e
00000140: d2a9 a33e 8819 e13e 0a13 773e 066f 213e
00000150: 8a91 91bd 3a44 9b3d 3113 aa3e d8cc 223e
00000160: 9dbb 913e 2a17 7f3d 33bb 853d 494a 413f
00000170: 962a 5bbf f373 5e3f ce4b 99bf 8b04 fd3e
00000180: 18c3 743f 6e84 2f3f 7909 48bd 92b6 8a3f
00000190: 66b6 893f f6ab 8ebf f517 993f e15b f03e
000001a0: 2248 9d3f 9949 0d3e 4326 8c3f 01e5 6c3f
000001b0: 1ddb 1b3f b1c9 edbe 2a89 d9bd a773 e1be
000001c0: ed1b 60be 3dcb 693d 5e7a e83d c971 20be
000001d0: 8f52 5bbe ea6a bbbe 08ed a2be 499f a3bd
000001e0: 3cf2 f53c 7f1c 733f 8506 46bf d02a 5a3f
000001f0: 4fc4 88bf 75e0 d83e 64e9 693f 4a56 7c3f
00000200: b140 ea3d f7f5 943f 46ae 7b3f 4c6d a1bf
00000210: 3084 8c3f a64e 073f cbfe 9d3f 6eb9 513e
00000220: 33ff 8e3f 70e0 763f 28f4 3b3f e518 f9be
00000230: cb5d 6fbe 553c adbe 5dea 5abe 2d77 143e
00000240: c8ba b73e 9c84 09be 31a9 20bd fa12 7abe
00000250: 619c efbe cd4f 60bd afe7 f6bd 7e87 0b3e
00000260: 04b4 e03d 8a6a 0a3e c407 8f3d 728a 353e
00000270: 1c6a 1a3e 2852 9c3d 007c 0f3e 08fc e9bc
00000280: c8df 603d b803 cdbc 649c 15bd dcf5 db3d
00000290: 0a3b 073e 96ea 91bd e4d8 aebd 141d 56bd
000002a0: 684e d13d 1c0e eb3d e7b8 c9bd b892 44bd
000002b0: d084 07be 7868 8ebd aa79 0cbe 0002 ff3a
000002c0: 882a ffbd ac8a e33d 3045 cc3d f532 38be
000002d0: b270 e5bd a8c0 583d c08a c03c 18c4 93bd
000002e0: 9287 f3bd 1052 943d e636 74bd a426 173e
000002f0: 6c07 5f3d f433 f33d 413f 80bd 101e e0bc
00000300: f0ba a23d 7ac7 18be a8c8 ddbc 689b 01be
00000310: 14e9 b13d 9c33 d13d 1458 293d c065 313b
00000320: 2034 f1bc 3402 cb3d 1c26 c83d 7c64 bd3d
00000330: af27 28be 406d 253d 20a5 343d 80f9 21be
00000340: 149c 083d 9022 9a3d d517 5c3d 26df 0f3f
00000350: 1bfb 3ebf 58a9 483f 5f39 87bf a663 933e
00000360: c1df 853f 2c09 2a3f 22cd 153e 4167 483f
00000370: c151 453f 0e27 7bbf f831 653f bb65 cb3e
00000380: be47 7b3f df7e ec3d 916d 433f 8aa7 753f
00000390: 6e67 083f c1e2 bcbe 723f 7cbe aeeb e9be
000003a0: f908 0ebe b41f e2bd eec0 8a3e a247 31bd
000003b0: 8fdf 92be 1aac 1cbd 0b2b 03bf 2ebe a43d
000003c0: da18 cdbb 64a3 32be 39a7 283b cacf f23d
000003d0: d70a 47bd bf74 2dbe 87fe 32be 9475 573d
000003e0: 4128 ca3b 09e3 173d b2db 15be 8aaf 0dbe
000003f0: 63dc 4fbc 096a 093e f04b 2f3c 48ba 66bd
-0.09451627 0.04811195 0.35119608 0.25586054 0.25040638 0.047873728 -0.0628851 0.33472654
-0.19205803 -0.17672755 0.6974474 -0.106168 0.09494982 0.16014585 0.629308 0.27795205
-0.5243413 -0.24951051 -0.71308535 0.38189232 0.13033128 -0.57777643 -0.4312548 0.010499123
-0.10824892 -0.4430588 -0.32498187 0.54455334 0.04826658 0.058586642 -0.049173847 0.052185416
-0.06001243 0.10151297 -0.075170845 -0.0022706091 -0.027289942 -0.1528026 0.11264238 -0.07577862
0.069144994 0.029960841 0.0497265 0.14886531 0.021880388 0.12530667 -0.056231707 -0.15298383
0.11703634 -0.06603668 -0.0049688816 -0.046675354 0.05568616 0.05542189 0.075294256 0.1534816
-0.14390767 0.07945752 0.17863616 -0.06260474 -0.0064634373 -0.7869872 0.9151374 -1.16555
1.3205155 -0.72226334 -1.1704104 -0.80741096 0.13831888 -0.99957037 -1.1177622 1.0882338
-1.0424002 -0.2859856 -1.1514295 0.031526506 -1.0789443 -1.0532238 -0.91068697 0.3842278
0.319655 0.4396479 0.24128357 0.15765008 -0.071078375 0.075813726 0.33217767 0.15898454
0.2846345 0.06227795 0.06529846 0.75503975 -0.85611856 0.86895674 -1.1976259 0.4941753
0.9561019 0.68561447 -0.04883716 1.0836966 1.0758789 -1.1146228 1.1960436 0.46945098
1.2287638 0.13797607 1.0949177 0.9253693 0.60881215 -0.4644294 -0.10621865 -0.44033548
-0.21885653 0.05707859 0.11351465 -0.15668406 -0.21418212 -0.36605006 -0.31821465 -0.079893656
0.030022733 0.94965357 -0.773537 0.85221577 -1.0684909 0.42358747 0.9137175 0.98569167
0.1143812 1.1637563 0.98312795 -1.261148 1.097784 0.52854383 1.2343382 0.20480892
1.1171631 0.96436214 0.7341943 -0.48651806 -0.23375623 -0.33835092 -0.21378465 0.14498587
0.3588469 -0.13429493 -0.039223853 -0.24421301 -0.46798995 -0.054763604 -0.12055909 0.13625905
0.10971835 0.13517204 0.06983903 0.17728594 0.1507954 0.076328576 0.14012146 -0.02856256
0.054900914 -0.025026187 -0.0365261 0.10740253 0.13206115 -0.07124822 -0.08537462 -0.052273825
0.10220033 0.114773005 -0.098497204 -0.047991484 -0.13234258 -0.069535196 -0.13718286 0.0019455552
-0.12459284 0.11110434 0.09974134 -0.17988189 -0.112031356 0.052918106 0.023503661 -0.07215136
-0.11891092 0.07242215 -0.059622668 0.14760834 0.054450437 0.11875144 -0.06262065 -0.027358085
0.07945812 -0.14919844 -0.02707322 -0.12656939 0.08687034 0.10214922 0.041343763 0.0027068704
-0.0294438 0.099125296 0.09772894 0.092476815 -0.16421388 0.040387392 0.044102788 -0.15817833
0.033351973 0.075261235 0.053733665 0.5619987 -0.74601907 0.783834 -1.0564383 0.28786963
1.0458909 0.66420245 0.14629033 0.7828255 0.7707787 -0.9810647 0.8952937 0.39726052
0.98156345 0.11547636 0.7633906 0.9595877 0.5328282 -0.3689175 -0.24633577 -0.45687622
-0.1387061 -0.11041203 0.2710032 -0.043281205 -0.28686187 -0.038250066 -0.51237553 0.080440864
-0.006259066 -0.17445141 0.0025734438 0.11856039 -0.048594322 -0.16939066 -0.17479907 0.052602366
0.0061693494 0.037081752 -0.14634588 -0.13836494 -0.012686822 0.13419355 0.010699257 -0.056329995

fc1.bias f4 [64]
00000000: 0ab8 f63d 1811 c2bc aab1 7bbe 0a17 193e
00000010: 55c3 563d a686 73bd 9c1d c53d a9a4 263e
00000020: d119 10be f247 ee3d 2f7d 50be 19d3 8fbe
00000030: c071 a6bb 1a5c 273e 6705 b5bc 8008 f5bb
00000040: fa46 2ebd 34ec 23be e144 0d3d 06ec 443e
00000050: 8051 473b 394c 49be 884f 9abc deee 65be
00000060: a581 90be e6fd c03c 2b74 55bd 1826 2dbd
00000070: 6650 c63d a86a 9c3e 7034 4fbe 9708 2d3d
00000080: 5d04 f3bc 8949 48bc 1905 2bbe a0f3 b93b
00000090: 7c7e 29bd 7c10 2e3e d680 243e 94b1 d1bd
000000a0: 810a 26be dd99 46be e831 0c3d bd7b 5bbe
000000b0: a0da 953d 0c63 293d 600c 7bbe d702 94be
000000c0: ac29 b23d ae91 bc3c 5cb0 55bc 8b55 4b3e
000000d0: 5942 c7bd 5409 4dbc 98d1 1b3e e147 3fbe
000000e0: 424b 9fbd 640f 5bbd acf4 ccbe c0e6 ea3d
000000f0: ecc3 6e3d ddd6 c7bd 64b5 5a3d 9029 ccbd
0.120468214 -0.023689792 -0.24579492 0.14950195 0.052432377 -0.059454583 0.09624788 0.1627375
-0.14072348 0.11634816 -0.20360254 -0.28090742 -0.005079478 0.16343728 -0.022097303 -0.00747782
-0.042548157 -0.16008073 0.034489516 0.19230661 0.0030413568 -0.19657983 -0.018836752 -0.22454402
-0.2822391 0.023558568 -0.05211274 -0.042272657 0.096833035 0.30550122 -0.20234847 0.04224452
-0.029665167 -0.012224563 -0.16701163 0.0056747943 -0.04138039 0.16998476 0.16064772 -0.102389485
-0.16214944 -0.19394632 0.03422728 -0.21433921 0.0731709 0.041354224 -0.2451644 -0.28908417
0.086993545 0.023018684 -0.013042536 0.19856851 -0.09729452 -0.012514431 0.15216672 -0.18679763
-0.07778026 -0.053481475 -0.4003042 0.11469793 0.058292314 -0.09757779 0.053395644 -0.09968865

fc2.weight f4 [12, 64]
00000000: 30fc 6abd 9024 2d3c 1200 92bd 2088 473d
00000010: 5cfa e43d 20bb 613c 9a25 833d 38ba 543d
00000020: ec81 6d3d f2bc 8dbd b828 e03d 3c28 7a3d
00000030: 740c 75bd 28eb a9bc 300b 5ebd 6440 a7bd
00000040: bcd6 64bd 00a8 54ba 00c6 fbba 9cb9 13bd
00000050: d0b8 223c dafb fb3d 6017 8f3b def3 f3bd
00000060: 00af e13b 00ce fdbb 84b6 cebd ec66 59bd
00000070: 4405 73bd 8c23 843d 0032 38bb 285c 56bd
00000080: 50af 093c 7cfe 453d c85d 133d 9475 813d
00000090: 487a e2bd 0461 0ebd f403 da3d 082a d6bd
000000a0: 40c1 debd f0b5 debc de0c 9b3d 105e 06bd
000000b0: e096 6ebd 785f 533d 3692 ba3d e01b 8bbb
000000c0: dc24 48bd 20f2 16bc 7046 6c3c cc3e ddbd
000000d0: 68d9 8b3c 00ca 41bc 9889 f8bc 425a 90bd
000000e0: 6048 79bd 00b5 5dba 206f a5bb 58e9 003d
000000f0: 0aa7 b3bd 68cf 833c 00a9 e73c 54ba 693d
00000100: b47c 89bd 7085 3e3c 7adc a33d 383f a6bd
00000110: 5c25 ec3d 84a8 53bd 080f a13c 042e e93d
00000120: 842c e0bd c447 86bd 5866 c03c 8073 9cbd
00000130: ca1e f93d 1eb3 b63d 0c4c 6ebd 9808 423d
00000140: 3c08 64bd 54b0 d53d e013 a53b 7a59 df3d
00000150: 9215 ca3d ba55 cfbd 00f4 8f3b 8c03 e33d
00000160: c6ad aa3d d0b4 ee3c d69e e53d b833 c2bd
00000170: 9872 a2bd 900f 1ebd 1cd5 273d ec2e 3abd
00000180: d888 e1bc 1ea7 f13d 7271 b63d 30f1 ac3d
00000190: e830 ba3c 9488 51bd 32f7 c8bd 2a9b 88bd
000001a0: 1abe f0bd 4c7f 4dbd 1078 023d c092 42bb
000001b0: 1cbe 0abd 10aa 26bc a272 a4bd 7a97 e43d
000001c0: 527d dcbd f84d f73c 302f 48bc ec87 21bd
000001d0: 2a5f dbbd 50e1 49bd 80a2 223d c073 363d
000001e0: 8064 86bb d889 77bd b6ce 863d 94f8 9f3d
000001f0: c6a2 8cbd cce0 f83d e431 1c3d f401 8bbd
00000200: a05f c03d 3c64 92bd 34ef 4ebd 4059 d8bc
00000210: 104b 33bd f29f e43d 2cc1 963d 0031 e5ba
00000220: c0ab f4bd c094 29bb a0e8 22bd e4c6 7b3d
00000230: 0043 873c 00b8 85bb f4e4 04bd fcba 343d
00000240: 1c18 0e3d b05f 2cbc 20d7 c3bb 903d 7a3d
00000250: dc84 813d 9052 dd3d 8465 b93d 5c4a f83d
00000260: d0bb 91bc 386b 8dbc ecf6 01bd 4255 87bd
00000270: 62ed dc3d da5f c9bd a05b 223c d009 2b3d
00000280: 0849 4d3d 64f9 843d 70e4 1f3d 20b2 0bbd
00000290: 3034 83bd 5e1c bb3d 5c82 dd3d 20d4 09bc
000002a0: 80c9 e83b 3808 b1bc 0ed0 e7bd d091 a6bd
000002b0: ee3e 853d d6ed ee3d 70ee eebd b221 e2bd
000002c0: 4cd4 1b3d d0ee 42bd c43f b4bd 40fa f1bb
000002d0: 14a4 19bd 24b1 efbd f8ee f43d 0ca6 e9bd
000002e0: 208c cb3d 10d8 6bbd 02b7 e7bd e0fd a1bb
000002f0: ac50 babd 387b cf3c 2a69 9d3d dc98 4dbd
00000300: 08ec a1bc f42e c8bd bbb4 733d 601f f23c
00000310: 416f edbd e8b1 7e3d 2465 7b3d 8aa3 1bbc
00000320: b7ab abbd 0914 a93d 26fb b6bd 27a9 c13c
00000330: 5c80 503d c0de 903d f471 2dbd ea0d b5bd
00000340: a4b0 16bd 040e 223d d8c9 b83d f20e efbd
00000350: d068 57bd 58e0 00be 2890 d5bd 8f7f 9c3d
00000360: 2e12 7cbd 5d6f b13d 64c6 a0bd 2d12 04be
00000370: e2c6 af3b 8625 bb3d dab4 c2bd 046d a43d
00000380: dd69 c6bd c625 f8bd d589 0e3d 543e b2bd
00000390: a02b 8cbb cc0c d93d 80f7 87bd 748a eabd
000003a0: 248f 153d ceff 2fbd 8e8a 9cbd 5ac9 0c3d
000003b0: 683c 823c 5569 5e3d 6b3e 10bc f4b8 7c3d
000003c0: a2cd 9dbd be4e e33d c94b 21bd bd0a a5bd
000003d0: 9c3b 7b3d 5cb6 d0bd 289a f1bd 69cd b53c
000003e0: 60e0 fcbb c8c1 c0bd 38d0 3f3d 30e0 753c
000003f0: 200d 4c3c 6be5 03be c412 c1bd e85f 52bd
-0.05736941 0.010567799 -0.0712892 0.048713803 0.11180565 0.013777524 0.06403656 0.051935405
0.05798523 -0.06920804 0.109452665 0.061073527 -0.05982633 -0.020742014 -0.054209888 -0.081665784
-0.05586885 -0.0008112192 -0.0019208789 -0.036065683 0.009931758 0.12303896 0.0043668 -0.11911748
0.0068873167 -0.0077455044 -0.10093406 -0.05307667 -0.059331194 0.064520925 -0.0028105974 -0.05233398
0.008403614 0.0483384 0.03597811 0.063212544 -0.110584795 -0.03476049 0.10645285 -0.104572356
-0.10876703 -0.027186364 0.075708136 -0.03280455 -0.058249354 0.051604718 0.09109919 -0.0042452663
-0.048863277 -0.009213001 0.0144210905 -0.10802993 0.01707144 -0.011827946 -0.030339047 -0.07048465
-0.060860038 -0.0008457452 -0.0050486475 0.031472534 -0.087720945 0.01609011 0.028278828 0.057062462
-0.06713238 0.011628494 0.08001037 -0.08117527 0.11530563 -0.05167438 0.019660488 0.1138573
-0.10945991 -0.06556657 0.023486301 -0.076392174 0.12164076 0.08920883 -0.058177993 0.047371477
-0.055671915 0.104340225 0.0050377697 0.10905738 0.098673955 -0.10123773 0.0043931007 0.11084661
0.08333926 0.029138952 0.11211936 -0.09482521 -0.07932013 -0.03858906 0.04097472 -0.045454904
-0.027531072 0.11799453 0.08908357 0.0844444 0.022728398 -0.05115564 -0.09812774 -0.0667022
-0.11755009 -0.050170228 0.03185278 -0.002968952 -0.03387271 -0.010172382 -0.08029677 0.11161704
-0.107660905 0.030188546 -0.012218282 -0.039436266 -0.107115105 -0.04928714 0.039705753 0.04454398
-0.004101336 -0.060434192 0.06582396 0.078110844 -0.06866984 0.121522516 0.038133517 -0.06787482
0.09393239 -0.071480244 -0.05052109 -0.026409745 -0.043772757 0.1116332 0.07361063 -0.0017485917
-0.11946821 -0.0025876015 -0.03977263 0.061468974 0.01651144 -0.0040807724 -0.03244491 0.044123635
0.03469096 -0.010520861 -0.0059765726 0.061093867 0.06324169 0.10806763 0.09052566 0.12123558
-0.017789751 -0.01726304 -0.031729624 -0.066080585 0.10787465 -0.09832735 0.00990954 0.041757405
0.050118476 0.0649288 0.039036214 -0.03410542 -0.06406438 0.0913627 0.1081588 -0.008412391
0.007104099 -0.021610364 -0.1131898 -0.0813328 0.065061435 0.11666457 -0.11666572 -0.11041583
0.03804426 -0.04759103 -0.08801225 -0.0073845685 -0.037509993 -0.11703709 0.11959642 -0.11408624
0.09938836 -0.0575791 -0.11314203 -0.0049435943 -0.09097418 0.02532731 0.07686074 -0.050194606
-0.019765869 -0.097745806 0.05949853 0.029555976 -0.115934856 0.062181383 0.061375752 -0.00949944
-0.083823614 0.082557745 -0.089346215 0.023640228 0.050903663 0.07073736 -0.042345002 -0.088405445
-0.03678955 0.039564148 0.09022874 -0.116727725 -0.05259019 -0.1258558 -0.10427886 0.07641517
-0.061540775 0.08663819 -0.0785034 -0.12897559 0.005364285 0.091380164 -0.09507151 0.080286056
-0.096881606 -0.1211658 0.034799416 -0.087032944 -0.0042776614 0.10598144 -0.06639004 -0.11452189
0.036513463 -0.042968564 -0.07643615 0.03437171 0.015897945 0.05429967 -0.008803944 0.061699823
-0.07705237 0.11099003 -0.039378915 -0.08058689 0.061336145 -0.10191032 -0.11796981 0.022192674
-0.0077171773 -0.09411961 0.046829432 0.015007064 0.012454301 -0.12880485 -0.094274074 -0.051360995

fc2.bias f4 [12]
00000000: a88c dfbc 5287 afbd 8259 bbbd b4f0 973c
00000010: abf6 233d aa36 a7bd cb8a 5cbe 6f8f d0bc
00000020: 6730 503d b94b 70bd 1097 493d 145b 3a3e
-0.02728875 -0.08570732 -0.09147932 0.018547393 0.040030163 -0.08164723 -0.2153732 -0.02545902
0.05082741 -0.058665965 0.04921633 0.18198806

fc3.weight f4 [1, 12]
00000000: 5ed4 7ebe 826b 323e 0057 b3ba ff6d c83c
00000010: 8258 07be 948c 5dbe 92ed b73d f9a4 813d
00000020: 541d cd3d 89b1 35bd eac8 e1bd f709 e6bc
-0.24885699 0.17423823 -0.0013682544 0.024466513 -0.13217357 -0.21635658 0.0898086 0.06330294
0.100153595 -0.044358764 -0.110246494 -0.028080923
