res/european/regular/models/regular_8.pt (torch, 12319 bytes, 5 tensors)

fc1.weight f4 [64, 30]
000000 f4 d4 98 3d 2f a4 eb bd da b6 21 be c2 9a 26 be
       0.074624926 -0.11505925 -0.15792409 -0.16269973
000010 a5 dd 27 be 47 23 f7 3b 41 73 ba 3d 67 ac 15 3e
       -0.16393144 0.007542047 0.09104014 0.14616548
000020 0f 2b 67 bd 21 c4 a4 3d 2e 50 0f 3d 81 90 84 3d
       -0.05643755 0.08045221 0.034988575 0.064728744
000030 9a 5d 1b 3e 4c c3 2b be d2 5b ed bd bc 3e 0a 3e
       0.15172425 -0.16773719 -0.11589779 0.13500494
000040 e9 0b 12 3e 30 07 2e 3e e3 f4 24 be 22 a6 06 3d
       0.14262356 0.1699493 -0.16109042 0.03287328
000050 fc 4a f3 bd ac 91 8e 3d ec 1a aa bd b6 99 87 bb
       -0.118795365 0.069613785 -0.08305916 -0.004138197
000060 42 e2 e1 3c cb 58 1d 3e 06 c3 29 3e 77 b7 45 3e
       0.027573708 0.15365903 0.16578302 0.19308268
000070 3a 7a e3 bd 0e 14 04 be 42 87 3c 3e 71 4a 55 be
       -0.11107297 -0.12898275 0.18410972 -0.20829178
000080 de 6d cf bc d4 ca 81 3c 93 f4 16 be 49 51 17 3e
       -0.025320943 0.015843786 -0.14741735 0.14777102
000090 34 5f de bd 50 67 a9 3d de 55 59 3d f3 27 54 be
       -0.10858002 0.082716584 0.053060405 -0.20718364
0000a0 20 a9 b6 bb 4b 9e d9 bd 6d ec 3a bd 8b 28 c9 bd
       -0.0055743605 -0.10625895 -0.04563563 -0.09822186
0000b0 28 39 5d bb 0d cb 4e bd 7f bf 7e bd 78 4d 1b 3e
       -0.0033755992 -0.050486613 -0.062194344 0.1516627
0000c0 44 d7 d5 3d 13 d5 1e bd ce 26 f5 bd 53 cb 8b bd
       0.10441449 -0.038777422 -0.11970292 -0.068258904
0000d0 43 de 11 bd 18 89 d6 bd f3 fd bb bd f5 1b 94 bd
       -0.035612356 -0.10475367 -0.09179296 -0.07231895
0000e0 1d ae 0f be e7 9e ce 3d 48 7f 5b 3d 08 a6 e4 3d
       -0.14031263 0.10088902 0.05358818 0.111644804
0000f0 99 28 ac bd 0a e6 85 bd 1a 15 33 be 4c 71 24 3d
       -0.08406181 -0.06538017 -0.17488518 0.04014711
000100 dc 9b 00 3e b4 8f 2a 3e 18 61 ee bc e8 42 db 3d
       0.12559456 0.16656381 -0.029099032 0.10706121
000110 a7 6a af bd ec 31 18 3e 48 ff f6 bc b2 c1 2d be
       -0.08565264 0.14862794 -0.030151024 -0.1696842
000120 f4 ff 26 be a0 50 41 3d 40 1d 3f bd 10 0d a3 3d
       -0.16308576 0.04719603 -0.046658754 0.07961476
000130 92 fa 89 3d fc 93 31 bd da 12 15 3e ec 11 21 be
       0.067372456 -0.04335402 0.14557973 -0.15729493
000140 bc 23 db 3d 40 47 95 3c 4a f4 19 be c4 e3 46 3d
       0.10700175 0.018222451 -0.15034595 0.048557058
000150 70 86 d1 bc 98 4d 07 3e 58 ba c8 3d 28 03 b9 bd
       -0.0255768 0.13213193 0.09801167 -0.09033805
000160 31 a6 2a be 60 57 51 bc 76 d1 d1 3d 45 46 a5 bc
       -0.1666496 -0.0127771795 0.1024503 -0.020175109
000170 56 66 03 be 31 61 d4 bc 24 69 b7 bd bb de b7 bc
       -0.12832007 -0.02592525 -0.08955601 -0.022445073
000180 5f f8 64 bd 14 e2 25 3e 2a ac 1f 3e b3 6b 52 3e
       -0.055900928 0.16199523 0.15593019 0.20548896
000190 59 70 0b be b2 19 fe 3d 7b dd 81 3d 6a 85 b2 3c
       -0.13617076 0.12407245 0.06341072 0.021792132
0001a0 1b 8b e6 3d a4 90 fe bd f2 6d 87 bc 90 2d ea 3c
       0.11257001 -0.12429932 -0.016531918 0.028586179
0001b0 2f 2f 1e be 36 c3 26 3d b8 96 1b 3d 99 d3 3c be
       -0.15447687 0.04071351 0.037985533 -0.18440093
0001c0 f1 6a e1 3c 88 0d 2b be c0 d7 f3 3d 9e 58 d4 3d
       0.027516814 -0.1670438 0.119063854 0.10368465
0001d0 06 54 d1 3d 8f 25 2b be f9 8d d5 3d 07 f9 35 be
       0.10221104 -0.16713546 0.1042747 -0.17770778
0001e0 9f b2 3e 3e 16 4e 0c 3d 36 a0 30 bd c9 e5 c1 3d
       0.18622826 0.034254156 -0.04312154 0.09467656
0001f0 f3 82 73 3d 97 fe f2 3d 99 fb ea bd c2 69 f8 3d
       0.059451055 0.118649654 -0.1147377 0.12129547
000200 0a 50 c3 bc 58 24 d5 bc d8 b4 3b be 18 07 d9 3d
       -0.023841877 -0.026018307 -0.18330705 0.10597056
000210 55 a3 79 bd df 60 f4 bd ad 29 fc bd d4 0d 08 bd
       -0.06094678 -0.11932539 -0.123126365 -0.033216313
000220 bf cc 29 be b2 61 e8 3d 68 c2 24 be 46 a2 30 be
       -0.1658201 0.11346759 -0.16089785 -0.17249402
000230 82 9f a0 3d de b2 01 be f2 b3 6b bd bf b5 bb 3c
       0.07842924 -0.12665889 -0.057544656 0.022913812
000240 a2 20 1f be 57 1c c6 3d ee 9e 7d bd bc bf 7e 3b
       -0.15539792 0.09673374 -0.061919145 0.0038871607
000250 2b 6d e9 3d e0 22 fd 3c 27 3a 31 3d 7e 1a ce 3d
       0.11397775 0.030900419 0.04326835 0.10063647
000260 da 17 23 be 7b 8d 27 bc d9 e7 56 bd c1 95 31 3e
       -0.15927067 -0.010226603 -0.0524672 0.17342283
000270 b4 dc 33 3e 14 83 a6 3d 24 65 0e 3e bd d4 40 bd
       0.1756466 0.0813047 0.1390577 -0.047077883
000280 00 8e bb 3d 4a 62 2d be 41 11 52 3d a7 06 16 be
       0.09157944 -0.16932026 0.051285986 -0.14650975
000290 20 0a 2d bd be 4d 34 3e 8c 1a 26 be 9a f6 0d 3e
       -0.042245984 0.17607781 -0.16221064 0.13863602
0002a0 af 05 55 bd 4e 5b 64 3b 96 3e bd bd 0b e6 8d bd
       -0.052007373 0.003484446 -0.09240453 -0.06928643
0002b0 85 a7 74 bc d4 65 2b be 42 d8 77 3d 27 0c db bb
       -0.014932518 -0.16738063 0.060508974 -0.0066847983
0002c0 30 6d 8a 3d cc e8 e6 bd 30 6e 27 3d f9 c2 26 3e
       0.06759107 -0.11274871 0.040876567 0.16285314
0002d0 67 ba 92 bd 20 38 3b bd 18 16 fa 3d 88 b6 e9 bd
       -0.0716446 -0.04570782 0.12211245 -0.11411768
0002e0 2f 58 0d be 00 54 d3 b9 54 0b 1b bd c4 4e d8 3d
       -0.1380317 -0.0004030764 -0.0378526 0.10561898
0002f0 28 94 37 be 40 55 2d be a8 36 cd 3d 78 49 d5 bc
       -0.17927611 -0.16927052 0.100201905 -0.02603601
000300 0c a3 26 be c4 eb 06 3e e4 b8 53 3d be 78 1d 3e
       -0.16273135 0.13175875 0.051689997 0.1537809
000310 f4 49 ca 3d d7 09 84 bd 92 b2 fa bd c4 7b 86 3d
       0.09877387 -0.06447189 -0.12241091 0.06566575
000320 20 ae b8 3d 62 ea 39 3e 6f 17 b3 bd 84 ff dd 3d
       0.09017587 0.18155816 -0.08744704 0.10839751
000330 70 14 3a bc 40 d5 b8 bd 9c 25 51 bd f2 9a 12 be
       -0.011357412 -0.09025049 -0.051061258 -0.1431692
000340 56 bd 2e 3e 14 ee 4b bd 02 e7 1f be 01 eb 01 be
       0.17064413 -0.049787596 -0.15615466 -0.12687303
000350 c0 67 f6 bc 59 e2 21 be 04 17 02 3d c0 05 90 bb
       -0.030078769 -0.15809001 0.03176023 -0.0043952167
000360 48 1e 7e 3d 9c 74 8e bd 8c 5c 57 3d 3f cc 27 be
       0.062040597 -0.06955835 0.052578494 -0.16386507
000370 bb 98 26 be 71 b1 26 be ec 17 0c 3e 68 cf 82 bc
       -0.162692 -0.16278626 0.13681 -0.01596804
000380 f2 ac 24 3e 10 23 d1 3d cc 71 9c 3d 64 e0 1b 3d
       0.16081598 0.10211766 0.076388925 0.038055792
000390 40 34 d0 bc 90 ce c4 bc c0 d8 7f bc 1a 03 11 3e
       -0.02541554 -0.024024278 -0.015615642 0.1416134
0003a0 82 68 96 bd 98 71 c8 3d 00 2b b7 ba 14 83 3d 3d
       -0.07344152 0.09787291 -0.0013974607 0.046267584
0003b0 3a 87 35 3e fc 3c 24 be c8 84 b8 3d 97 52 dd bd
       0.17727366 -0.16038889 0.09009701 -0.108067684
0003c0 05 d4 c5 3d 71 46 16 3e e0 8f ed bd 59 86 ab bd
       0.0965958 0.14675309 -0.115997076 -0.08375234
0003d0 ad 16 3a be 11 20 16 be 4e 8f eb 3d 99 7c 15 3e
       -0.18172713 -0.1466067 0.115019426 0.14598311
0003e0 9f fd e7 3d af 25 29 be 14 c5 0d 3e 86 d7 19 3e
       0.11327671 -0.16518281 0.1384471 0.15023622
0003f0 e9 0c 90 3d b1 dc 06 3e 5b 74 ee 3d 2a 89 9c 3d
       0.070337124 0.13170125 0.11643287 0.076433495

fc1.bias f4 [64]
000000 e6 fe e8 bc c6 a5 e9 bc 1f 28 b8 bd f4 b3 01 3e
       -0.028441858 -0.02852143 -0.089920275 0.12666303
000010 23 27 05 be 14 94 23 3e 1c 65 ce 3d c0 bf 86 bb
       -0.1300321 0.15974456 0.10077879 -0.004112214
000020 15 fc d4 bd 6c df 62 3d d5 01 39 be 23 bc 02 be
       -0.10399643 0.055388853 -0.18067105 -0.12767081
000030 d9 ff f3 bd 54 55 1e 3d 62 99 2c 3e 33 36 c5 bd
       -0.119140334 0.038655594 0.16855386 -0.09629478
000040 3a e8 f5 bd ec 60 80 bd 95 54 47 be 78 0c bd 3d
       -0.12007184 -0.062684864 -0.19465859 0.09230894
000050 82 a2 08 be 0f d9 32 bd ec 26 79 3d d2 e0 18 3e
       -0.13343242 -0.043664034 0.060828134 0.14929512
000060 fd ba 9b bd 50 d5 23 be 80 a4 90 bd 1e 87 21 be
       -0.076040246 -0.15999341 -0.07062626 -0.157742
000070 04 c8 85 bd 8e 96 3a 3e c7 76 05 be 65 50 40 bd
       -0.065322906 0.18221495 -0.13033591 -0.04695167
000080 28 9b 7b bc c1 06 d1 3d 13 34 be bd af 79 ff bd
       -0.015356816 0.10206366 -0.09287276 -0.12474381
000090 55 f7 f4 39 ca cc 9b 3d 10 63 04 bc 7e 92 0d be
       0.00046723583 0.0760742 -0.008080259 -0.13825414
0000a0 57 e4 1c bd a0 61 2c be 45 d7 0b 3d 68 7f c5 3d
       -0.0383037 -0.16834116 0.034140844 0.096434414
0000b0 55 40 63 bd cf 8e 3c 3e b4 11 77 3d f4 77 de 3d
       -0.055481274 0.18413852 0.060319617 0.10862723
0000c0 82 1b 88 3d e0 75 8b bb 2d c1 74 3d 14 3e 38 be
       0.06645872 -0.004255995 0.05975454 -0.17992431
0000d0 c0 a7 99 bb 52 9e a0 3d b5 23 3c be f4 53 5d bd
       -0.004689187 0.07842697 -0.18372996 -0.054035142
0000e0 48 37 30 bd 4e eb 44 bd 50 13 ef bb ee c0 fa bc
       -0.04302147 -0.048075967 -0.0072960034 -0.030609574
0000f0 04 1b be 3d f0 61 a7 3d 46 87 b7 bd 94 65 a9 bd
       0.092824966 0.08172977 -0.08961348 -0.082713276

fc2.weight f4 [8, 64]
000000 34 b7 ff bd aa f0 e8 3c 0c b3 81 bd fa 23 4f bd
       -0.12486115 0.02843507 -0.063329786 -0.05057142
000010 ed 5e 11 bd 3e f4 91 3d 7c 59 d5 bd 00 ca fa 3c
       -0.03549092 0.071266636 -0.104174584 0.0306139
000020 62 a2 87 3d 2c d9 33 bd 20 f3 47 3d 4c b4 99 3d
       0.06622769 -0.043908283 0.048815846 0.07505092
000030 65 9d c5 bc ad 1c 40 3d 6e 1f cb 3c 48 c2 a2 bc
       -0.024122903 0.046902347 0.02479526 -0.019868031
000040 a6 22 44 bd d2 f6 7b 3d 98 fa c4 bd aa 57 9a bd
       -0.047884606 0.061514683 -0.096181095 -0.07536252
000050 ae bc c8 3d 4e b4 81 bc cd f8 67 3d f4 54 85 3d
       0.09801613 -0.015833046 0.05663376 0.06510344
000060 07 9b a1 bd 52 a6 a2 3d a5 6b 59 bc 69 1a de bd
       -0.07890897 0.07941879 -0.013270293 -0.10844881
000070 da 7f 81 bd 6c b8 31 bd 98 ba 4d bd 93 6d dd bd
       -0.06323214 -0.04338877 -0.050226778 -0.10811915
000080 cc a5 a1 3d 16 7b ac 3d 19 09 3a bb 3e 45 6f 3d
       0.07892951 0.08421914 -0.002838677 0.058415644
000090 fb 41 af 3d 46 f0 a2 bd f8 75 dd 3d b6 45 d1 3d
       0.08557507 -0.07955985 0.108135164 0.102183744
0000a0 6c c1 22 be 18 13 fd 3c 55 fc bc bc e4 37 a3 bd
       -0.15894097 0.030892894 -0.02306954 -0.07969645
0000b0 3e 89 ae 3c 26 93 07 bd 26 0d 81 bd 28 01 fc 3d
       0.021305677 -0.033099316 -0.06301336 0.12304908
0000c0 38 d6 00 bd 5c 7f 75 bd b0 20 9c bd 45 8d f3 bd
       -0.031454295 -0.059935912 -0.07623422 -0.118921794
0000d0 1c 99 0d 3d 4c 5b b2 3d ab 41 81 bd 98 38 ee bd
       0.034569845 0.0870882 -0.06311353 -0.11631888
0000e0 14 39 bd bd 8d ee 04 bd b1 d1 8d 3d 8d 95 01 be
       -0.092394024 -0.032454062 0.06924761 -0.12654705
0000f0 e1 e6 d7 bd 10 d5 60 3d ba 98 e6 bd c0 ae f4 bb
       -0.105420835 0.054890692 -0.11259599 -0.007467121
000100 a9 55 f1 bc 45 f8 01 3d 00 98 9d b9 d3 2d 93 bd
       -0.029459791 0.03173091 -0.00030058622 -0.07186475
000110 f8 6e 9d bd fa fa 9f bd a0 37 5b 3c 0c dd 3b bd
       -0.07687181 -0.07811542 0.013379961 -0.045865104
000120 f5 10 14 bd 44 30 36 bd 08 60 f0 bc 42 dc a2 bd
       -0.036148984 -0.044479623 -0.029342666 -0.07952167
000130 6c 2e 76 bc 8c be f7 3d 36 b3 30 3d 28 f7 e8 bd
       -0.015025716 0.12096891 0.04313966 -0.11375266
000140 99 17 db bd 4e 18 44 3d 72 05 41 3c 85 38 aa 3d
       -0.1069786 0.04787474 0.011781083 0.083115615
000150 68 17 b9 3c 65 ef 74 3d 6e 43 df 3d e0 3f 3b bd
       0.022594169 0.059798617 0.10901533 -0.045715213
000160 d9 24 25 3d 09 ba 55 3c 96 6e e9 3d 7a fa e8 bd
       0.040318344 0.0130448425 0.11398046 -0.113758996
000170 f7 57 f9 3c ae 44 a3 bd be 75 5f 3b 45 ec 12 3d
       0.030437453 -0.07972084 0.003409728 0.035869855
000180 95 08 21 3d 9a f1 88 bc cb ff aa 3d b1 5a 9d 3d
       0.039314825 -0.016716767 0.0834957 0.07683314
000190 58 16 f3 bd fe f5 72 bc 00 c6 f4 bd 88 b9 9e 3d
       -0.11869496 -0.014829157 -0.11951828 0.07750231
0001a0 40 73 cd 3d 08 35 aa bc c3 46 b6 3d d8 46 eb 3d
       0.10031748 -0.02077724 0.089002155 0.11488122
0001b0 a0 5d 6e bd 18 8f fc bd d4 af b7 bd 40 0e f7 3b
       -0.058194757 -0.123319805 -0.089690834 0.0075395405
0001c0 70 dd b0 bc 00 60 a3 3c e8 a2 6b 3d c9 e4 af bd
       -0.021589965 0.019943237 0.057528406 -0.08588559
0001d0 fa 46 d0 3d 5f 97 c1 bc 2a 74 ce bd 5c 13 f6 3d
       0.10169788 -0.02363175 -0.1008075 0.12015411
0001e0 90 30 43 3d 9e c2 5d 3d a2 a5 e2 bd 16 c1 f0 bd
       0.047653735 0.05414068 -0.11066748 -0.11755578
0001f0 93 55 ea 3c 70 89 84 bd 12 bc 02 be f8 af ea bd
       0.028605258 -0.064715266 -0.12767056 -0.114593446
000200 4d 69 be 3c 52 d7 c0 bd a8 a1 ce bc d3 99 2f bd
       0.02324357 -0.09416069 -0.025223568 -0.042871308
000210 41 b9 cc ba 90 5c 6f 3d 7c 55 e6 bd c8 9e 48 3d
       -0.0015619175 0.058437884 -0.112467736 0.04897955
000220 c7 e1 67 3c 26 a4 b2 bd 34 d4 d0 3d c0 a7 d7 bb
       0.014152951 -0.08722715 0.101967245 -0.0065812767
000230 9b 5b e6 ba 6a 9b db bd e1 c5 b6 3c 70 45 f9 bc
       -0.0017574908 -0.10723002 0.022311153 -0.030428618
000240 cd 22 5a 3d 06 d5 b2 bd 83 75 ce 3d 09 b1 bf bc
       0.053255845 -0.08732037 0.10081007 -0.023399847
000250 34 d8 b1 3d a8 46 c8 bd 7a 98 eb bd 71 9b 80 bd
       0.086838156 -0.097791016 -0.11503692 -0.06279648
000260 a3 18 92 bd da 8b e1 3d ec 10 b3 3d 10 79 65 bc
       -0.07133605 0.11013003 0.08743462 -0.014005914
000270 41 db bc 3d 00 f1 fb ba 12 e0 00 be 9b 12 17 bd
       0.09221507 -0.0019221604 -0.12585476 -0.036882978
000280 d5 d1 d5 3b 44 49 83 3d 50 c6 1c bc b0 e7 e7 3c
       0.006525258 0.06410459 -0.009568766 0.02830872
000290 bd 98 87 3a 5f 90 e5 bb 80 31 2a 3c c0 09 b8 bd
       0.0010345202 -0.0070057358 0.010387778 -0.08986235
0002a0 34 ba 95 bd 9d d5 e3 3d c7 c8 18 bd 96 fb db 3d
       -0.07310906 0.11124728 -0.03730085 0.107413456
0002b0 03 b3 7a bd 59 db f1 bd fe c4 c7 bd d8 51 ca bc
       -0.061205875 -0.11809415 -0.0975437 -0.02469723
0002c0 c4 3c 83 bd 10 db 13 3c 28 9d 35 3d 58 86 a7 3d
       -0.064080745 0.009024397 0.04433933 0.08179921
0002d0 fa 62 83 bd 5e 9c 8e 3d d2 4c 34 3d 18 75 5a 3d
       -0.06415363 0.069634184 0.044018574 0.053334326
0002e0 70 c9 06 3c be 37 08 3d 0a 90 d1 bd 8c 09 64 3d
       0.008226737 0.033256285 -0.102325514 0.055673167
0002f0 eb 31 5a 3d 00 9c ad 3b 00 11 8d 3c 84 a0 a2 3d
       0.05327026 0.0052981377 0.01722002 0.07940772
000300 ac ba 60 3b 12 b0 38 3c 1e d4 99 3d 75 0d 5a 3d
       0.0034290953 0.011272447 0.07511161 0.05323549
000310 84 59 13 be a6 32 91 3d fe b3 a8 3d e8 62 b0 3d
       -0.14389616 0.070897385 0.08237456 0.08612615
000320 13 5d 47 3d fe 5e 9a bd ac 24 7e bd 08 1d 8a bc
       0.048672747 -0.075376496 -0.06204669 -0.016859546
000330 b0 5a a3 3d 86 b0 b7 bd 4a 43 1d bd 4c ca c7 3d
       0.07976282 -0.08969216 -0.03839425 0.09755382
000340 fc 65 5e 3c 11 16 01 3d ff 86 c5 3d 69 d3 12 be
       0.01357412 0.031515185 0.09644889 -0.14338459
000350 04 c8 93 3d c4 2e a7 3d aa 2e ea bd c6 af 28 bd
       0.07215884 0.08163217 -0.11434682 -0.041183256
000360 e2 82 97 bd a0 06 8d bc 16 56 8a 3d ec 32 82 bd
       -0.07398011 -0.017215073 0.06754701 -0.06357369
000370 4a 07 aa 3d 3c 12 b0 3d 7d a3 d6 bd a3 3b fe 3c
       0.083021715 0.08597228 -0.10480402 0.031034296
000380 c4 94 9b 3d 16 e9 fb 3c ae 62 d1 3d 01 73 55 3d
       0.07596734 0.030750792 0.102239 0.05211163
000390 e0 97 16 3d 64 f1 b6 bc f0 10 bd 3d b1 39 07 be
       0.036765933 -0.0223319 0.09231746 -0.13205601
0003a0 00 e0 ac 3d 7d a8 6a 3d dd a7 b0 3d a0 c6 b9 bc
       0.08441162 0.05728959 0.086257674 -0.02267772
0003b0 51 3c 92 bd 66 77 8a bd 9c 06 29 bd 66 fe e8 bd
       -0.07140411 -0.06761055 -0.04126607 -0.11376648
0003c0 34 74 43 3d 88 30 fd bd 1c c6 02 be 84 70 1f bd
       0.04771824 -0.12362772 -0.12770885 -0.038925663
0003d0 ea 58 9b 3d 0d cf 18 bc 54 9d 42 bd 60 16 e2 bd
       0.075853184 -0.0093267085 -0.04751332 -0.11039424
0003e0 1c c6 92 bd 5d dc c9 3d f3 5d 07 3d ec 61 0c 3d
       -0.071666926 0.09856484 0.03304858 0.034273073
0003f0 d4 8a d1 bd 60 9b d5 3c 39 9d d5 bb e8 c9 fe 3d
       -0.102315575 0.026075065 -0.0065189865 0.12440854

fc2.bias f4 [8]
000000 d2 bd ad bd ed 1b 82 3d cd 32 cd 3c e2 33 cb 3d
       -0.08483471 0.06352983 0.025048638 0.09922005
000010 0a 24 82 bd 73 9c b6 bd 69 f4 7c ba ba 91 35 3c
       -0.0635453 -0.08916559 -0.0009649457 0.011082107

fc3.weight f4 [1, 8]
000000 c1 04 95 bc b5 48 5b 3d 4f 81 63 bd 2a 7d 9b be
       -0.018190743 0.053536136 -0.05554324 -0.3036893
000010 3e 52 7c bd 11 f1 9d be ff 9f 10 bd 4a 81 e2 bd
       -0.06160187 -0.30847982 -0.035308834 -0.11059816
