res/european/regular/models/regular_3.pt (torch, 11039 bytes, 5 tensors)

fc1.weight f4 [64, 30]
0	0x3d9e587d	0.077317216
1	0xbe0d4ae7	-0.13798104
2	0x3e127a51	0.14304473
3	0xbe0b9b4b	-0.13633458
4	0xbcdd057d	-0.026980156
5	0x3d87f6fe	0.06638907
6	0xbd49face	-0.04931145
7	0xbdc3883e	-0.095474705
8	0xbde18719	-0.11012096
9	0x3e3f75dd	0.18697305
10	0xbc93e38d	-0.01805284
11	0xbe27e8b7	-0.16397367
12	0xbdfacdf7	-0.12246316
13	0x3e2e59dc	0.17026466
14	0xbcaa61cd	-0.020798588
15	0x3de8524a	0.113438204
16	0xbce039d4	-0.027371325
17	0xbd045f0a	-0.0323172
18	0x3d461695	0.04836138
19	0xbe0c719e	-0.13715217
20	0x3d027e90	0.03185898
21	0xbe05a282	-0.13050273
22	0xbdce0324	-0.10059193
23	0xbc2a12dc	-0.010380473
24	0x3da86ea5	0.08224229
25	0x3d898ee5	0.06716708
26	0x3baea91e	0.005330219
27	0x3e0fefa0	0.14056253
28	0x3e1cf36c	0.15327233
29	0x3ccc4c9e	0.024938878
30	0xbd210f64	-0.03932132
31	0xbe250668	-0.16115725
32	0x3d21f230	0.03953761
33	0x3ddb2b10	0.10701573
34	0xbe341759	-0.17587031
35	0xbe025dd2	-0.12731102
36	0x3d5324a4	0.051548615
37	0x3d5e5404	0.054279342
38	0xbca01330	-0.0195404
39	0xbdc6223f	-0.09674501
40	0x3d79ae48	0.060957223
41	0x3e15ee1c	0.14641613
42	0x3d875be0	0.06609321
43	0xbdbe8ebd	-0.09304569
44	0x3e0ae804	0.1356507
45	0x3da55848	0.08073479
46	0x3c9411d0	0.0180749
47	0x3e055818	0.13021886
48	0xbd5e6b88	-0.05430177
49	0x3d4ca138	0.049958438
50	0xbda29114	-0.07937828
51	0xbde006d4	-0.10938802
52	0xbdfb8eca	-0.12283094
53	0x3d1a7cdc	0.03771673
54	0xbd87afd0	-0.066253304
55	0x3d8ba86c	0.06819233
56	0x3d82482a	0.063614205
57	0x3e0bbb28	0.13645613
58	0xbd800e99	-0.06252784
59	0xbe057f59	-0.1303686
60	0xbde4133c	-0.11136481
61	0x3dbb5578	0.09147161
62	0xbd9d91ce	-0.07693826
63	0xbe1006be	-0.14065072
64	0xbd862de2	-0.0655172
65	0xbe399c11	-0.18125941
66	0xbd7fa818	-0.062416166
67	0xbe0cc2ac	-0.13746136
68	0xbd6d12c8	-0.05787924
69	0xbcc75078	-0.024330363
70	0x3dbd585c	0.09245369
71	0x3e345742	0.17611411
72	0x3d8ff23c	0.070286244
73	0xbe03b28f	-0.12861083
74	0x3e0ff0d8	0.14056718
75	0x3dab06fc	0.083509415
76	0xbde5be64	-0.11217955
77	0xbe167c08	-0.14695752
78	0x3da227c0	0.07917738
79	0x3d951b7c	0.07280633
80	0x3da71b3c	0.081594914
81	0xbe18761e	-0.14888808
82	0x3e0438e0	0.12912321
83	0x3df78ee0	0.12087798
84	0xbc992f18	-0.018699214
85	0xbce871f0	-0.028374642
86	0x3d2f9798	0.04286918
87	0x3e0aac72	0.13542345
88	0xbd05b9f4	-0.03264804
89	0x3d77d650	0.06050712
90	0x3d7015b8	0.058614463
91	0xbe373990	-0.17893052
92	0x3c688a16	0.0141930785
93	0xbe1a8f4b	-0.15093724
94	0xbaab1357	-0.0013052028
95	0xbe089086	-0.13336381
96	0xbe34ff64	-0.17675549
97	0x3cf164e9	0.029467063
98	0xbce82998	-0.028340146
99	0x3d42804e	0.047485642
100	0x3dbbfc3b	0.091789685
101	0x3cc38ab2	0.023869846
102	0x3db02bc5	0.086020984
103	0xbd9be132	-0.07611312
104	0x3e1aff4e	0.15136454
105	0xbd90d2db	-0.070714675
106	0x3ddd6491	0.10810197
107	0xbe1cf2f6	-0.15327057
108	0x3dd2e116	0.10296838
109	0x3dcab9af	0.098986976
110	0xbde83ed8	-0.113401115
111	0xbe35a6e3	-0.17739443
112	0x3dbde421	0.09272028
113	0x3d57502b	0.05256669
114	0x3e0bbc70	0.13646102
115	0x3c8738ff	0.01650667
116	0xbda5569f	-0.08073162
117	0xbbf96c5a	-0.0076117935
118	0x3e1fa7e3	0.15591387
119	0xbbb86842	-0.005627663
120	0x3e1de3da	0.1541895
121	0x3d9664ac	0.073434204
122	0xbcb4e1ac	-0.022080265
123	0x3da87d30	0.082270026
124	0xbdee3934	-0.116320044
125	0x3dc6f4e5	0.09714679
126	0xbcf999bf	-0.03046882
127	0xbd88a2c7	-0.06671672
128	0xbd3de0fc	-0.04635714
129	0x3e015473	0.12629871
130	0xbdb0e920	-0.08638215
131	0x3e294c5a	0.16533032
132	0x3d3ae9ff	0.045633312
133	0x3e30d99b	0.1727051
134	0xbd224410	-0.03961569
135	0xbd99a076	-0.075013086
136	0xbc4ad768	-0.012380458
137	0x3d213b83	0.039363395
138	0x3dc92504	0.09821513
139	0x3d03da53	0.032190632
140	0xbe06d879	-0.13168515
141	0x3b9c61a0	0.00477238
142	0x3dd9a751	0.10627616
143	0xbcca1e01	-0.02467251
144	0xbd1b9ab4	-0.037989333
145	0xbcae3f3b	-0.021270385
146	0x3d9854ff	0.07438087
147	0xbc924a33	-0.017857647
148	0xbdf17cfb	-0.11791416
149	0xbe27626a	-0.16346136
150	0x3df7ced2	0.12099995
151	0x3ddda15c	0.108217925
152	0xbdd19c29	-0.10234863
153	0x3df53635	0.1197323
154	0xbd81d338	-0.06339115
155	0x3cda5735	0.026652912
156	0xbe27f9f7	-0.16403948
157	0x3d7bebae	0.06150406
158	0xbe36bbf8	-0.17845142
159	0xbe195d24	-0.14976937
160	0x3e1807a2	0.14846662
161	0xbde2f781	-0.11082364
162	0xbb91fa47	-0.004454884
163	0xbdbdfb68	-0.092764676
164	0x3d9d85de	0.07691549
165	0xbe1c918e	-0.152899
166	0x3dba2b24	0.0909026
167	0x3e0a8590	0.13527513
168	0xbdd85df4	-0.10564795
169	0x3e29dce4	0.1658817
170	0xbe2aee50	-0.16692472
171	0x3da9b366	0.08286171
172	0xbdc047fa	-0.093887284
173	0xbe0d5172	-0.138006
174	0x3e3c665b	0.1839842
175	0x3bc72168	0.0060769804
176	0x3e2feca8	0.17180121
177	0xbd777f3f	-0.060424086
178	0xbddf109a	-0.10891838
179	0x3e11dddd	0.1424479
180	0xbdf504ef	-0.11963832
181	0xbd4ff560	-0.050771117
182	0xbd559e2c	-0.052152798
183	0xbc3caec0	-0.011516273
184	0xbe3769bb	-0.17911427
185	0x3ca246d8	0.019809172
186	0xbd4aa7f4	-0.04947658
187	0x3d225798	0.039634317
188	0x3de8b840	0.11363268
189	0x3e20c5dc	0.15700477
190	0xbd8f4cf3	-0.06997099
191	0x3d52023c	0.051271662
192	0x3d4d55b4	0.05013056
193	0xbd74a7aa	-0.05973021
194	0x3e3adc8a	0.18248191
195	0xbcae4598	-0.02127342
196	0x3ca92ac8	0.020650283
197	0x3e0345fa	0.12819663
198	0xbd4e7964	-0.050408736
199	0x3e0e1b64	0.13877636
200	0xbd1ef9a4	-0.038812295
201	0xbda5ba51	-0.08092178
202	0xbe0866fe	-0.13320538
203	0x3d415654	0.04720147
204	0xbda3df27	-0.08001547
205	0xbc30b4f0	-0.010785326
206	0xbde496b0	-0.11161554
207	0xbb1a5900	-0.0023551583
208	0xbe3aeda1	-0.1825471
209	0xbe0f8788	-0.14016545
210	0xbdd7d0ba	-0.10537858
211	0xbe29a734	-0.16567689
212	0xbd155d60	-0.036466002
213	0xbe07bb1d	-0.13254972
214	0xbd95d69e	-0.073163256
215	0x3e383cc6	0.17991933
216	0xbdb94efb	-0.090482675
217	0x3da93f50	0.08264029
218	0xbda37e09	-0.07983024
219	0xbd6b75b0	-0.057485282
220	0x3d385bd0	0.045009434
221	0xbb545f40	-0.0032405406
222	0xbe12f37a	-0.14350691
223	0xbdf24707	-0.11829954
224	0x3c32ebe0	0.010920495
225	0xbd3387b4	-0.04383059
226	0x3c152b80	0.0091046095
227	0x3e3943fa	0.18092337
228	0xbe0ee282	-0.13953593
229	0xbd910488	-0.070809424
230	0x3d5059a8	0.050866753
231	0xbdeda31f	-0.116033785
232	0xbdac95db	-0.0842702
233	0x3e0bbdee	0.13646671
234	0x3d70b8b8	0.05876991
235	0x3e0d23d2	0.13783196
236	0x3db9f83c	0.0908055
237	0x3da90074	0.082520396
238	0x3e1d67cc	0.15371627
239	0x3d9253d0	0.07144892
240	0xbd9672a1	-0.073460825
241	0xbda86186	-0.08221726
242	0x3da2a268	0.07941133
243	0xbe0b47a8	-0.13601553
244	0xbd7825a8	-0.060582787
245	0x3c0754c0	0.008259952
246	0xbd9403d5	-0.072272934
247	0x3dcf9904	0.10136607
248	0xbe306470	-0.17225814
249	0xbd495c98	-0.04916057
250	0xbe180368	-0.1484505
251	0xbc1460f0	-0.009056315
252	0xbe2df62a	-0.16988435
253	0x3d0fa2c4	0.035067335
254	0x3d0ab80c	0.033866927
255	0xbe3857b5	-0.18002208

fc1.bias f4 [64]
0	0x3e09e25c	0.13465255
1	0x3e01b820	0.12667894
2	0x3d078308	0.033083946
3	0xbddee94d	-0.10884342
4	0x3dcf94b4	0.10135785
5	0x3dd955d2	0.10612072
6	0xbe1ce554	-0.15321857
7	0xbccb04c0	-0.024782538
8	0xbe226a55	-0.15860875
9	0xbd851d4e	-0.0649973
10	0xbe2629ba	-0.16226855
11	0xbcf3b222	-0.029748026
12	0xbde7e05c	-0.1132209
13	0x3db74561	0.0894878
14	0x3dfaf876	0.122544214
15	0xbc582a10	-0.013193622
16	0xbc15775c	-0.009122696
17	0x3de153e0	0.11002326
18	0x3c2277f3	0.009916293
19	0x3de9116c	0.11380276
20	0x3e06f8db	0.13180868
21	0x3db8b34c	0.09018573
22	0xbdc67aac	-0.096913666
23	0x3e015517	0.12630115
24	0x3e267902	0.16257098
25	0x3e1b361e	0.15157363
26	0xbe2ad309	-0.16682066
27	0x3e313396	0.17304835
28	0xbe2028b4	-0.15640527
29	0xbc2cf640	-0.010556757
30	0x3d4bd5b7	0.04976436
31	0xbe332fc6	-0.17498693
32	0x3dcd5138	0.10025257
33	0x3d1d607f	0.038422104
34	0x3cc99a90	0.024609834
35	0x3c358450	0.011078909
36	0xbdcad49c	-0.09903833
37	0x3dd402c7	0.10352092
38	0xbd424977	-0.047433343
39	0xbbc49860	-0.00599961
40	0x3d7d22cc	0.061800763
41	0xb9c1cc3a	-0.0003696399
42	0x3cc5b717	0.024135156
43	0x3e26a586	0.1627408
44	0x3d781a4e	0.06057196
45	0x3dd34d04	0.10317424
46	0x3deaa811	0.114578374
47	0x3cc9be39	0.024626838
48	0x3b71cf40	0.0036897212
49	0x3d5d1de0	0.05398357
50	0xbe1e4a0c	-0.15457934
51	0x3e2a3b64	0.16624218
52	0x3d625f62	0.055266745
53	0xbcc2c4ad	-0.023775423
54	0x3d9a3921	0.07530428
55	0x3dcc1b0c	0.09966096
56	0x3b5709c0	0.0032812208
57	0xbbf84e43	-0.007577689
58	0xbe01e9d3	-0.12686853
59	0x3d5486dc	0.051886424
60	0x3e008d06	0.12553796
61	0x3d5c4074	0.053772405
62	0xbb298e44	-0.002587215
63	0xbddaf348	-0.106909335

fc2.weight f4 [3, 64]
0	0xbd34589c	-0.044029817
1	0x3c585740	0.013204396
2	0xbda6e2f8	-0.081487596
3	0xbc14f0e0	-0.009090632
4	0x3cfd7d10	0.030943424
5	0x3d6b7308	0.05748275
6	0x3dea1b4e	0.11430989
7	0xbb827700	-0.003981471
8	0xbdb99264	-0.09061125
9	0x3d77b87c	0.060478672
10	0xbd1fd8d0	-0.039025128
11	0x3cacc0b0	0.021087974
12	0xbdaf35d8	-0.08555192
13	0xbdb8565e	-0.09000848
14	0x3dcdd186	0.10049729
15	0x3d5ae098	0.053436846
16	0xbd969836	-0.07353251
17	0x3db8dc76	0.090264246
18	0xbde514e4	-0.11185625
19	0xbdb52a94	-0.08846012
20	0x3d3205d4	0.04346259
21	0x3d21ede8	0.039533526
22	0x3defcfac	0.11709532
23	0x3d1b2e40	0.037885904
24	0xbdb7f01a	-0.089813426
25	0xbdf9bd54	-0.121943146
26	0x3d4c3068	0.04985085
27	0xbc7205b0	-0.014771864
28	0xbd67cb74	-0.056590512
29	0x3d8c2344	0.06842664
30	0x3df64136	0.12024157
31	0x3d10bb84	0.03533508
32	0x3df18386	0.11792664
33	0xbdc9ca54	-0.09853044
34	0xbd6bd568	-0.057576567
35	0xbd8678a6	-0.065659806
36	0xbd017cd0	-0.03161317
37	0xbccb1410	-0.02478984
38	0xbda21cbc	-0.07915637
39	0xbdf9502c	-0.12173495
40	0xbdcb48c4	-0.09925988
41	0xbda259f8	-0.079273164
42	0xbc8d8230	-0.017273992
43	0xbc97cca0	-0.01853019
44	0xbda9b31c	-0.082861155
45	0xbde61948	-0.11235291
46	0x3d8a9322	0.067663446
47	0xbdec270a	-0.115308836
48	0x3d96492a	0.07338174
49	0xbdfeac34	-0.12435189
50	0xbbc226a0	-0.0059250146
51	0xbd7401d8	-0.05957207
52	0xbdd5ef04	-0.10445979
53	0x3c8d8cb8	0.017279014
54	0x3ddc78dc	0.107652396
55	0x3de895b2	0.11356677
56	0xbd76490c	-0.060128257
57	0xbce69998	-0.028149411
58	0xbdb9d2a6	-0.09073381
59	0x3d494690	0.04913956
60	0xbdcb6bc0	-0.09932661
61	0xbd94aab6	-0.07259123
62	0x3ddb2be0	0.10701728
63	0xbd0c4ac0	-0.034250975
64	0xbe01a503	-0.12660603
65	0xbd8867a4	-0.06660393
66	0xbd4b5650	-0.04964286
67	0xbdbb62b7	-0.09149688
68	0xbcd8d438	-0.026468381
69	0x3d9638d9	0.073350616
70	0xbda5b4ce	-0.080911264
71	0xbd9eb682	-0.07749654
72	0x3dfa6fbc	0.12228343
73	0xbdf68b8d	-0.12038336
74	0xbdf57ae6	-0.11986332
75	0xbdb0267a	-0.08601089
76	0xbddffbc6	-0.10936694
77	0x3d74d40a	0.05977253
78	0xbdccf2b5	-0.1000723
79	0xbd91b468	-0.07114488
80	0xbd1933ae	-0.0374028
81	0xbccb9d40	-0.024855256
82	0xbdac0e45	-0.08401159
83	0xbdfaa4e0	-0.12238479
84	0xbcf18cdc	-0.029486112
85	0x3cebb4e0	0.028772771
86	0x3ddcd5de	0.107829794
87	0x3d9c9f95	0.07647625
88	0xbdb0b14f	-0.08627569
89	0x3dd8c957	0.105852775
90	0xbd994c0e	-0.074852094
91	0xbd3958cb	-0.045250695
92	0x3cb25064	0.021766849
93	0xbd91193a	-0.0708489
94	0x3da0b659	0.0784728
95	0xbdad458b	-0.0846053
96	0x3d8ce98c	0.06880483
97	0x3cd7c84c	0.026340626
98	0xbd71a1a4	-0.058992043
99	0xbce7df08	-0.028304592
100	0xbabf0380	-0.0014573187
101	0x3d4a7920	0.04943192
102	0x3cdfbf46	0.027312886
103	0xbd930c71	-0.071801074
104	0xbcfb8510	-0.030703098
105	0xbde82dab	-0.113368355
106	0xbdb07006	-0.08615117
107	0xbb687b80	-0.0035474002
108	0x3de057b7	0.1095423
109	0xbbf69720	-0.0075253397
110	0xbd38c13c	-0.045106158
111	0xbc529160	-0.012852043
112	0xbde50fec	-0.111846775
113	0xbd66af1c	-0.05631934
114	0x3c7ef570	0.015561447
115	0x3cbeec94	0.023306169
116	0x3d93aeeb	0.07211097
117	0xbdd16cfc	-0.10225865
118	0xbc5a06ca	-0.013307283
119	0xbccff038	-0.0253831
120	0x3d8f50f2	0.06997861
121	0xbdadd15f	-0.084872
122	0xbdd85e3d	-0.105648495
123	0x3d5a07d8	0.053230137
124	0xbddadc24	-0.1068652
125	0xbddede16	-0.10882203
126	0x3de993cb	0.114051424
127	0xbcc189d5	-0.023625294
128	0xbdf50223	-0.11963298
129	0x3bfce8e0	0.0077181906
130	0xbb548e00	-0.0032433271
131	0xbe074df6	-0.13213333
132	0xbb6c850c	-0.0036090044
133	0x3d044482	0.032291897
134	0x3caff320	0.021478236
135	0xbd9dd6fa	-0.07707019
136	0xbca67770	-0.020320624
137	0xbcd4adcd	-0.02596178
138	0x3d99d50a	0.07511337
139	0xbdb35ee1	-0.08758331
140	0x3d8c0a80	0.0683794
141	0xbdcdf38a	-0.10056217
142	0xbde015be	-0.10941647
143	0xbd5afe48	-0.053465158
144	0xbd9e1ce3	-0.077203535
145	0x3da0e93e	0.078569874
146	0x3da80a82	0.08205129
147	0x3dd8be68	0.10583192
148	0x3da7c849	0.08192498
149	0xbdf0667a	-0.11738296
150	0x3cf04392	0.029329095
151	0xbd82fe92	-0.06396212
152	0xbd8dea0c	-0.069294065
153	0xbe05b059	-0.13055553
154	0xbd857cae	-0.065179214
155	0xbd88a4c0	-0.066720486
156	0x3d943cda	0.07238169
157	0xbdeab994	-0.114611775
158	0x3c7fc158	0.015610062
159	0x3cfad7ee	0.030620541
160	0xbcd7ec20	-0.02635771
161	0x3d9fa7ab	0.07795652
162	0x3d511434	0.051044658
163	0x3d76a684	0.060217395
164	0xbd7156c4	-0.058920637
165	0x3d7a6975	0.061135728
166	0xbd5ed623	-0.054403435
167	0x3ddd11ab	0.107943855
168	0xbdc3bf42	-0.09557964
169	0xbdbd0833	-0.092300795
170	0x3ca16c41	0.01970494
171	0xbdd41244	-0.103550464
172	0x3c616db4	0.013759065
173	0xbd92f2ef	-0.07175242
174	0xbe0a12dd	-0.13483758
175	0x3d10c768	0.03534642
176	0x3a350f00	0.0006906837
177	0x3d7bc390	0.0614658
178	0xbde4aa2a	-0.11165269
179	0x3da4b036	0.08041422
180	0x3cd8e0f8	0.026474461
181	0x3d1236ae	0.035696678
182	0x3dd15632	0.102215186
183	0x3de8eb20	0.113729715
184	0x3dbc9400	0.09207916
185	0x3cfd2f80	0.030906439
186	0xbcc94400	-0.024568558
187	0xbbc4f0e0	-0.00601016
188	0x3d76a920	0.060219884
189	0x3dc535ba	0.09629388
190	0xbdebb246	-0.11508612
191	0xbdf1839c	-0.117926806

fc2.bias f4 [3]
0	0x3d85f1ae	0.06540237
1	0x3d51fe4f	0.05126792
2	0xbd76c32e	-0.06024473

fc3.weight f4 [1, 3]
0	0xbec1cc67	-0.3785126
1	0xbede6520	-0.43436527
2	0x3ea4db0c	0.3219837
