res/european/regular/models/regular_13.pt (torch, 13599 bytes, 5 tensors)

fc1.weight f4 [64, 30]
-0.035703182 0.018123835 0.17251605 -0.1740771 -0.17115232 0.15255901 0.18187577 -0.11777958
0.012887329 0.074322104 0.01691103 0.15654731 0.06885794 -0.15922591 0.15483868 0.13083449
0.096203536 0.12133461 -0.15296681 -0.13171536 -0.034354404 0.07372767 -0.13986272 0.032536134
0.031151667 -0.18092042 -0.06661154 -0.14521207 0.048519745 -0.0336857 -0.058813706 0.029159218
0.011066064 -0.09309224 -0.026470944 0.040731817 0.15663382 -0.13736223 -0.039049134 -0.031541795
-0.15558322 0.16388035 -0.14233273 0.083207965 0.044991612 -0.11055985 -0.17452078 0.06723021
0.015915096 0.18181938 0.13775271 0.15745553 0.16705889 -0.030937523 0.0080792755 0.12700054
0.078289986 0.102835 -0.026135296 -0.07709115 0.0017193673 -0.23806518 0.5029302 -0.23829119
0.42711338 -0.45174295 -0.2711463 -0.28539035 0.11316846 -0.27278382 -0.22992451 0.43903807
-0.31430674 -0.083341345 -0.60139626 -0.09950159 -0.45579493 -0.21615538 -0.43200728 0.15294161
0.011902537 -0.020641096 0.04657298 -0.16084655 -0.28229952 -0.14418688 0.10987869 -0.030520102
0.18221255 0.0042616 0.038847644 -1.2956249 1.6223522 -1.8336694 2.182689 -0.6181186
-1.6336545 -1.4184041 0.195114 -1.676887 -1.9725204 2.267418 -1.9701182 -0.84855366
-2.1289325 -0.2519724 -1.5808799 -1.6942998 -1.1991827 0.4263198 0.41925773 0.5954195
0.09742038 -0.28556153 -0.4099023 0.2876634 0.26185954 0.6912364 0.79682523 0.008865056
-0.16569123 -0.023536071 0.011583014 -0.12906387 0.022433832 0.004031772 0.19860353 -0.16845073
-0.08107038 -0.03588505 0.08850976 0.20833702 0.044918682 -0.12553367 0.103437506 -0.16862987
-0.14073938 -0.124330215 -0.08371094 -0.20262727 0.08791857 -0.13064225 0.16955842 0.11392863
-0.05685039 -0.04596199 -0.12152643 0.15248111 -0.16063863 0.13564797 -0.00085430086 0.27566883
-0.24402133 0.22070698 -0.1364167 0.13500242 0.024013946 -0.026277754 -0.08268452 0.07085648
0.18871626 -0.0970359 0.07630099 0.039545532 0.038315017 0.15232864 0.24997355 -0.03704246
0.03459204 0.08812864 0.00659447 0.006932273 0.13112636 -0.18208288 0.15039186 -0.12628187
0.033844598 0.009876637 -0.047754686 -0.11532804 0.11232054 -1.1168143 1.4094864 -1.6587554
2.0440912 -0.50993246 -1.6912562 -1.0128419 0.068774834 -1.4842732 -1.6149789 1.9085015
-1.8186151 -0.8997553 -2.1547735 0.10218195 -1.5692422 -1.3930511 -0.8708364 0.4195352
0.35504588 0.68380105 0.31395957 -0.079088375 -0.23158129 -0.11311981 0.21330091 0.6299992
0.9806639 -0.09081113 -0.010177646 1.0547389 -1.24581 1.2519823 -1.7520975 0.31122366
1.5325466 1.0763505 0.17039274 1.4150964 1.4725103 -1.6396612 1.3695898 0.75049806
1.603982 0.068735555 1.2965115 1.2185212 0.6574594 -0.5165596 -0.451504 -0.5160635
-0.1957321 0.23833057 0.25153318 -0.15395905 0.017580453 -0.29578704 -0.51396537 -0.21161939
-0.10556442 -0.12795176 0.025893368 -0.18951125 0.16857365 -0.09512793 -0.119813755 -0.114465766
0.030155536 -0.13708185 0.10749732 0.10141677 -0.031435046 0.13607426 0.09966664 0.16169083
00000000: 803d 12bd 7078 943c 0ca8 303e 4441 32be
00000010: 8e42 2fbe 6e38 1c3e a43d 3a3e 6c36 f1bd
00000020: 6025 533c 3036 983d 0089 8a3c f04d 203e
00000030: 6405 8d3d 1e0c 23be 088e 1e3e 7af9 053e
00000040: 5c06 c53d 487e f83d 55a3 1cbe 64e0 06be
00000050: 34b7 0cbd 88fe 963d 2c38 0fbe 9c44 053d
00000060: c831 ff3c 3443 39be a26b 88bd 79b2 14be
00000070: a4bc 463d 04fa 09bd a4e6 70bd 50df ee3c
00000080: 704e 353c 25a7 bebd 98d9 d8bc 68d6 263d
00000090: 9e64 203e afa8 0cbe fcf1 1fbd f831 01bd
000000a0: 3551 1fbe 40d0 273e acbf 11be f068 aa3d
000000b0: 2049 383d 346d e2bd 93b5 32be feaf 893d
000000c0: 6060 823c dc2e 3a3e 0c0f 0d3e 063c 213e
000000d0: 7c11 2b3e b070 fdbc f05e 043c 6e0c 023e
000000e0: 8056 a03d 289b d23d b019 d6bc f7e1 9dbd
000000f0: 655c e13a 5cc7 73be 09c0 003f 9b02 74be
00000100: 9bae da3e da4a e7be b0d3 8abe af1e 92be
00000110: dec4 e73d 52aa 8bbe 5571 6bbe 99c9 e03e
00000120: d0ec a0be deae aabd 1bf5 19bf 7dc7 cbbd
00000130: f45d e9be d657 5dbe 0f30 ddbe ba9c 1c3e
00000140: dc02 433c 8417 a9bc 4fc3 3e3d f5b4 24be
00000150: 9089 90be baa5 13be 1408 e13d 4b05 fabc
00000160: ed95 3a3e e4a4 8b3b b51e 1f3d 09d7 a5bf
00000170: 3da9 cf3f aeb5 eabf 2db1 0b40 053d 1ebf
00000180: 971b d1bf 448e b5bf f7cb 473e 3ca4 d6bf
00000190: 8c7b fcbf 601d 1140 d52c fcbf d03a 59bf
000001a0: 6e40 08c0 8702 81be 465a cabf d1de d8bf
000001b0: d27e 99bf 9746 da3e f3a8 d63e 6a6d 183f
000001c0: 5684 c73d 1f35 92be b7de d1be 9e48 933e
000001d0: 7412 863e def4 303f bdfc 4b3f bd3e 113c
000001e0: f6aa 29be b8ce c0bc afc6 3d3c 5229 04be
000001f0: 28c7 b73c f41c 843b b95e 4b3e 597e 2cbe
00000200: 3a08 a6bd 34fc 12bd 9b44 b53d 4d56 553e
00000210: a7fc 373d e68b 00be 0bd7 d33d 4fad 2cbe
00000220: fc1d 10be d7a0 febd a470 abbd 867d 4fbe
00000230: a70e b43d 15c7 05be b9a0 2d3e 6a53 e93d
00000240: f4db 68bd a442 3cbd d9e2 f8bd 0224 1c3e
00000250: 747e 24be 4de7 0a3e 29f3 5fba 7724 8d3e
00000260: bae0 79be 0301 623e d2b0 0bbe 133e 0a3e
00000270: e5b8 c43c 7244 d7bc 8056 a9bd 341d 913d
00000280: d63e 413e c2ba c6bd b243 9c3d 7ffa 213d
00000290: 35f0 1c3d 0afc 1b3e 11f9 7f3e d6b9 17bd
000002a0: 62b0 0d3d ca7c b43d 6c16 d83b 1f28 e33b
000002b0: fd45 063e ef73 3abe 5300 1a3e 0950 01be
000002c0: a2a0 0a3d 9ed1 213c 6b9a 43bd 1c31 ecbd
000002d0: 5008 e63d c5f3 8ebf 0d6a b43f 1952 d4bf
000002e0: 64d2 0240 ef8a 02bf 157b d8bf cea4 81bf
000002f0: d2d9 8c3d aafc bdbf a1b7 cebf c749 f43f
00000300: 61c8 e8bf 5d56 66bf cfe7 09c0 c544 d13d
00000310: eedc c8bf 804f b2bf 22ef 5ebf 51cd d63e
00000320: 93c8 b53e 960d 2f3f 4fbf a03e 16f9 a1bd
00000330: a523 6dbe 5cab e7bd 8e6b 5a3e a147 213f
00000340: ca0c 7b3f 30fb b9bd 24c0 26bc af01 873f
00000350: b476 9fbf f540 a03f bb44 e0bf b558 9f3e
00000360: 7d2a c43f dac5 893f 6f7b 2e3e e121 b53f
00000370: 387b bc3f 6be0 d1bf b84e af3f a420 403f
00000380: 484f cd3f 3ac5 8c3d 17f4 a53f 81f8 9b3f
00000390: 424f 283f 403d 04bf 882b e7be bd1c 04bf
000003a0: ff6d 48be ee0c 743e f5c8 803e 71a7 1dbe
000003b0: e204 903c 6671 97be 3c93 03bf c1b2 58be
000003c0: 2932 d8bd c905 03be 541e d43c 3d0f 42be
000003d0: 929e 2c3e 6fd2 c2bd ea60 f5bd 076d eabd
000003e0: be08 f73c 2f5f 0cbe 8e27 dc3d 98b3 cf3d
000003f0: 09c2 00bd 0d57 0b3e 061e cc3d 4892 253e

fc1.bias f4 [64]
0.040587977 -0.14714164 -0.15693586 -0.29251242 0.029028011 -0.12862734 -0.10917644 -0.04558842
-0.030362792 -0.236252 0.13487047 0.046503533 -0.13003226 -0.021136237 0.24258061 0.05119722
0.062381588 -0.15373555 -0.058452934 0.0068632755 0.15928262 0.020904792 0.03841499 0.26825857
-0.24248472 0.32394558 -0.27017748 0.056571417 -0.07216754 0.11902496 -0.5187111 -0.07899411
0.053664528 -0.015941922 -0.039894685 0.17983884 -0.17111877 0.037968338 -0.09060954 0.11172036
0.02179727 -0.11761176 -0.24645998 -0.22686924 0.12740353 0.2910729 0.46549633 0.14596674
-0.14132568 0.10826158 0.032368913 -0.29005867 0.056305185 -0.06852691 0.27948985 -0.17814612
0.11281928 -0.09940043 -0.0008551237 0.07653239 -0.021731168 -0.21294245 -0.32543677 -0.24185608
00000000: 943f 263d 4cac 16be cbb3 20be 30c4 95be
00000010: 27cc ed3c e3b6 03be e697 dfbd ecba 3abd
00000020: 64bb f8bc 0bec 71be 7c1b 0a3e 7d7a 3e3d
00000030: 2d27 05be e725 adbc 0d67 783e 2db4 513d
00000040: d683 7f3d da6c 1dbe 586c 6fbd 54e5 e03b
00000050: fc1a 233e 8740 ab3c 0959 1d3d 3059 893e
00000060: ea4d 78be 32dc a53e b454 8abe 6eb7 673d
00000070: 93cc 93bd 5cc3 f33d 40ca 04bf aac7 a1bd
00000080: 56cf 5b3d a298 82bc 9c68 23bd ac27 383e
00000090: c239 2fbe b084 1b3d 7f91 b9bd a5cd e43d
000000a0: 3090 b23c 6fde f0bd 0160 7cbe 6950 68be
000000b0: 1276 023e 8207 953e 8955 ee3e 4e78 153e
000000c0: aeb7 10be 3fb8 dd3d 4495 043d 9282 94be
000000d0: 44a0 663d d657 8cbd 4b19 8f3e f06b 36be
000000e0: cb0d e73d 7492 cbbd 612a 60ba 04bd 9c3d
000000f0: 9005 b2bc 960d 5abe a69f a6be 1fa9 77be

fc2.weight f4 [13, 64]
-0.031238541 -0.06059873 -0.027413962 -0.030664077 0.047976475 0.076968886 -0.11315165 0.096022315
-0.02747701 -0.09196645 -0.12286875 0.09064542 0.039664492 0.07694947 0.027666014 0.10531732
0.109071404 0.10374659 0.00496009 0.07862379 -0.04217398 0.037304558 0.0142306825 -0.036023773
-0.073622465 -0.005576162 0.0322334 -0.09375238 -0.030314313 -0.07511525 -0.002403347 -0.10017539
0.13270754 -0.0945582 0.06386122 0.05166745 -0.053852797 0.008856078 0.12021728 -0.08042925
-0.08786939 -0.045917958 0.07259662 -0.084180824 0.102358185 -0.04336464 -0.0027284608 -0.07681097
0.09862757 -0.06368816 -0.09669925 0.119238235 -0.0609034 0.00034864247 -0.011756396 -0.0058270665
0.010873042 -0.065036386 0.105544426 -0.08395533 -0.06708129 -0.06864502 -0.06740783 -0.06738026
0.007219717 -0.052528977 0.020039693 0.058725327 0.06790882 -0.10647568 -0.009569138 0.007730767
0.06924459 -0.022861332 0.026590765 -0.0634613 0.09354107 -0.12127696 -0.1088064 -0.09789103
0.020327672 0.05914727 0.073363364 0.0053984374 -0.11229566 -0.035213217 -0.0024165362 -0.11138961
-0.10611491 -0.07173294 0.10852441 -0.039293513 0.06637284 0.017166927 -0.114778146 -0.03767912
-0.0485567 -0.01934421 -0.033086866 0.027983412 -0.037185416 0.039839998 -0.015909493 -0.08128016
0.009881869 0.070793346 0.020968601 0.08800338 -0.052698165 -0.07909052 0.10817796 -0.0032970011
-0.059527114 0.09885 0.018414631 0.06503959 -0.11601853 -0.017372623 -0.06635748 -0.011858478
-0.0015871227 -0.089757115 0.053421646 -0.04569584 0.01549536 0.0154880285 -0.07825154 0.025037795
-0.10886839 0.019710302 0.02889503 -0.038348533 0.10896314 0.025209844 -0.14081451 -0.1509613
0.05869589 -0.052831307 -0.051629677 -0.018131942 0.11754711 0.09092079 -0.08350051 -0.014625966
-0.11284127 -0.15515195 0.047577903 0.08127112 -0.046274945 -0.06979423 0.08255032 -0.10251134
0.101708494 -0.0126086855 -0.116655335 -0.050269842 0.08511837 -0.18904546 0.07345269 -0.12960927
-0.09347057 -0.05181361 0.08859061 0.0051781833 -0.091533646 -0.035779737 -0.12357542 0.0523117
-0.011875734 -0.108972296 -0.074728355 0.0029407027 0.072251566 0.08522562 -0.1498156 0.111300215
-0.09659091 0.07974379 0.12487391 0.09213931 0.08465342 0.029843062 0.08091761 -0.0889411
0.038159385 0.10532485 0.009383948 0.08003092 -0.05775878 0.07208367 0.07689854 0.018416978
-0.0011202842 0.050142348 0.049247768 -0.1459668 -0.03572952 -0.11704868 0.032658987 -0.15806875
0.01542677 0.0786068 -0.051615745 -0.037655476 0.06355484 -0.06788389 -0.00509575 -0.1359797
0.102670185 -0.024389427 -0.0708971 0.0024876117 0.032422274 -0.13169119 0.032489758 0.06205615
0.017274939 -0.05396345 -0.024815062 0.026181148 -0.058645155 -0.013289327 -0.0022770173 -0.12955216
-0.12911797 0.01608335 -0.11233437 0.009737298 -0.093877956 -0.035800688 -0.029964343 -0.011740167
-0.0621448 -0.009946823 -0.10178775 0.013140759 0.052039176 0.018753808 -0.06334125 -0.012268424
-0.022610039 -0.036990896 0.048941195 0.09824884 0.033727556 0.03082852 0.037377786 0.079025134
-0.14570077 0.06850946 0.11436675 -0.13382542 0.037874177 -0.12611412 -0.008714184 0.084616214
00000000: f8e7 ffbc 6036 78bd 3f93 e0bc 3b33 fbbc
00000010: fb82 443d dda1 9d3d 0dbc e7bd 59a7 c43d
00000020: 7717 e1bc e858 bcbd 9ca2 fbbd 4ea4 b93d
00000030: 3c77 223d af97 9d3d d6a3 e23c 9bb0 d73d
00000040: d460 df3d 1879 d43d 4088 a23b 8205 a13d
00000050: a0be 2cbd aacc 183d cf27 693c aa8d 13bd
00000060: 60c7 96bd 3db8 b6bb 2b07 043d 3f01 c0bd
00000070: b955 f8bc 06d6 99bd 7981 1dbb c128 cdbd
00000080: 7ce4 073e bba7 c1bd acc9 823d 40a1 533d
00000090: c094 5cbd 1519 113c 7a34 f63d 17b8 a4bd
000000a0: def4 b3bd 7814 3cbd 89ad 943d ff66 acbd
000000b0: 2ba1 d13d 1f9f 31bd facf 32bb 124f 9dbd
000000c0: 40fd c93d f06e 82bd 420a c6bd 2d33 f43d
000000d0: d875 79bd 00ca b639 e69d 40bc faf0 bebb
000000e0: d824 323c cc31 85bd ad27 d83d c6f0 abbd
000000f0: ea61 89bd c395 8cbd 1e0d 8abd a9fe 89bd
00000100: 6093 ec3b a028 57bd 482a a43c f889 703d
00000110: c813 8b3d ec0f dabd e0c7 1cbc 6052 fd3b
00000120: 1cd0 8d3d b047 bbbc e0d4 d93c 00f8 81bd
00000130: 7692 bf3d 0e60 f8bd e4d5 debd 187b c8bd
00000140: 3886 a63c 6844 723d 883f 963d 60e5 b03b
00000150: 44fb e5bd bc3b 10bd c05e 1ebb 3c20 e4bd
00000160: c652 d9bd b8e8 92bd 0c42 de3d 3cf2 20bd
00000170: 7cee 873d a8a1 8c3c ce10 ebbd 6c55 1abd
00000180: 64e3 46bd c077 9ebc 1886 07bd 783d e53c
00000190: bc4f 18bd 442f 233d a054 82bc 3676 a6bd
000001a0: 90e7 213c 1afc 903d 58c6 ab3c 1e3b b43d
000001b0: 08da 57bd 36fa a1bd 688c dd3d 8012 58bb
000001c0: b4d2 73bd de71 ca3d 48da 963c 7a33 853d
000001d0: 209b edbd 0851 8ebc 6ee6 87bd 104a 42bc
000001e0: 0007 d0ba 94d2 b7bd a8d0 5a3d 902b 3bbd
000001f0: 40e0 7d3c 80c1 7d3c 5842 a0bd 101c cd3c
00000200: 64f6 debd 8077 a13c 45b5 ec3c 5a13 1dbd
00000210: 1128 df3d e084 ce3c ae31 10be 9995 1abe
00000220: 1a6b 703d a465 58bd a479 53bd 7089 94bc
00000230: 8abc f03d ae34 ba3d 5102 abbd bfa1 6fbc
00000240: 5319 e7bd 27e0 1ebe 0ce1 423d 7971 a63d
00000250: cc8a 3dbd 47f0 8ebd 2410 a93d 77f1 d1bd
00000260: 8b4c d03d a994 4ebc fee8 eebd c0e7 4dbd
00000270: 8a52 ae3d 2295 41be 5d6e 963d 4bb8 04be
00000280: 806d bfbd 823a 54bd fe6e b53d c0ad a93b
00000290: fe75 bbbd c68d 12bd 1c15 fdbd cb44 563d
000002a0: 7092 42bc de2c dfbd 2e0b 99bd ceb8 403b
000002b0: a1f8 933d c58a ae3d 4369 19be 5ef1 e33d
000002c0: 74d1 c5bd b650 a33d e4bd ff3d 89b3 bc3d
000002d0: c65e ad3d 7079 f43c 22b8 a53d c026 b6bd
000002e0: 044d 1c3d 8eb4 d73d 21bf 193c 40e7 a33d
000002f0: 7894 6cbd 9aa0 933d fb7c 9d3d 34df 963c
00000300: 80d6 92ba 1062 4d3d 07b8 493d 5278 15be
00000310: 1e59 12bd 38b7 efbd 6ec5 053d c6dc 21be
00000320: 90c0 7c3c 9afc a03d 086b 53bd a13c 1abd
00000330: 0a29 823d b506 8bbd 40fa a6bb 433e 0bbe
00000340: bf44 d23d 56cc c7bc 8032 91bd 3307 233b
00000350: 38cd 043d 0eda 06be fb13 053d 972e 7e3d
00000360: 2c84 8d3c c708 5dbd f548 cbbc d979 d63c
00000370: e735 70bd 7abb 59bc 033a 15bb 52a9 04be
00000380: 8037 04be 3bc1 833c 900f e6bd 3089 1f3c
00000390: 1643 c0bd bea3 12bd c877 f5bc d459 40bc
000003a0: 8c8b 7ebd 00f8 22bc 1976 d0bd 574c 573c
000003b0: 0827 553d 96a1 993c 0fb9 81bd 8001 49bc
000003c0: b038 b9bc c483 17bd 9076 483d b036 c93d
000003d0: e825 0a3d 188c fc3c 7319 193d eed7 a13d
000003e0: 9532 15be b04e 8c3d 1d39 ea3d 8809 09be
000003f0: f421 1b3d 0f24 01be f0c5 0ebc 444b ad3d

fc2.bias f4 [13]
0.19077373 0.09777711 -0.26374182 0.11312053 -0.043855045 -0.04218441 -0.015221187 0.083462596
0.122949414 0.016707705 -0.24431883 0.48495594 -0.027063696
00000000: 305a 433e 5e3f c83d 2b09 87be bdab e73d
00000010: 59a1 33bd 8fc9 2cbd 4962 79bc 70ee aa3d
00000020: e7cc fb3d 99de 883c b72e 7abe 254c f83e
00000030: afb4 ddbc

fc3.weight f4 [1, 13]
-0.14412048 -0.07576062 0.14414461 -0.11598179 -0.005049913 0.009485608 0.04505183 -0.010308445
-0.06838576 -0.092216425 0.15919167 0.03116279 0.017519109
00000000: 5294 13be 6228 9bbd a59a 133e dc87 edbd
00000010: be79 a5bb 8669 1b3c 4588 383d c1e4 28bc
00000020: d50d 8cbd f7db bcbd 2403 233e 1b49 ff3c
00000030: 3c84 8f3c
