res/european/regular/models/regular_6.pt (torch, 11807 bytes, 5 tensors)

fc1.weight f4 [64, 30]
00000000: 3061 133e 3887 9d3f 1370 c6bf ad58 ed3f
00000010: 35ba f3bf 85bb 713f e074 cd3f 0bec a63f
00000020: 9898 d6be 2548 eb3f 25c9 0040 6b40 0dc0
00000030: c65d 0440 4a5d f13e bc14 0d40 d761 e83d
00000040: 064d ed3f 98bb d03f f97d a43f 154e 62bf
00000050: b158 16bf a021 3dbf 8979 f3bc 067f bdbd
00000060: 282e cb3e a6b5 0ebe 1811 e0be e773 1cbf
00000070: 5f0b 10bf 188e 52bd 9839 03be a09a fc3b
00000080: 9cfd 9e3d 00c5 53bc 7875 7e3d 5e90 063e
00000090: 2c96 c63d a085 febc 8444 973d ce3e c2bd
000000a0: e6cc 333e 30bd 8fbc 3c73 16be ccfc 00bd
000000b0: 0008 ee3d e048 0ebe fddc a4bd b9b8 0ebe
000000c0: c865 d6bc 8f31 d0bd b9a2 aabd c824 a5bc
000000d0: 709a 4fbc c063 4d3c 50a0 163e 7410 f63d
000000e0: c094 423b 5002 2a3d ecbc b1bd 1c17 893d
000000f0: 1283 3d3d 3235 9fbf 4d33 b63f 33de b1bf
00000100: 7338 d13f 85f0 67bf e72e b4bf 119d 92bf
00000110: 6b6a b83e 58d1 c4bf 64fe d2bf cdf2 f03f
00000120: 5ce0 c9bf 156f bbbe 408b eebf 368c 0abe
00000130: 9cc7 c1bf cfea c5bf 89e1 96bf c627 1b3f
00000140: bba7 9c3e d729 d03e 4c9a 9439 631f d23d
00000150: a69f c3be ddbc 653e 3ee7 3c3e 23f3 eb3e
00000160: eeb9 233f 4c99 6b3c 4711 0b3c 1fc3 a6bf
00000170: b121 c03f b46c e1bf 9088 e23f 7cf5 97bf
00000180: 864d b0bf a008 e8bf eebe 803f 7d51 97bf
00000190: c54d f2bf 3dc7 e03f 9872 e0bf 2df7 da3d
000001a0: fcc5 01c0 0a1b f23d 3b07 9ebf b967 b8bf
000001b0: e2e8 a7bf 6755 3b3f b9cc 213f d471 6a3f
000001c0: 04a0 e53e 453f 7bbd 42e3 7bbd dc7c 133f
000001d0: 1327 113f bae8 523e 3edd f13e a681 a23e
000001e0: 6363 b7bd 88d6 2dbd 8e84 0f3e 302f db3d
000001f0: b8b5 063e 9ab2 1abe b620 213e ff1f 2bbe
00000200: 8431 ac3d 427f 363e 1e38 13be 3ae7 253e
00000210: c04e 8c3d 4c3b 11be 984a 153d 98b2 0d3e
00000220: a452 aabd 937e 1ebe 58dc bd3d c049 e63c
00000230: 584c 10bd 803d b93b 4002 583c a497 bd3d
00000240: ce66 163e cae5 0abe 6000 97bc d90f 38be
00000250: 5256 313e c847 abbc a31f b6bd dc5b f23d
00000260: 3be9 37be 00f9 613d f080 a03d 3a98 1fbe
00000270: 4444 2c3e 4e86 0a3e c839 62bd 80a2 393e
00000280: e439 1fbe 4a69 143e 80c6 00bc c061 29bd
00000290: 6a30 143e 485f 08bd 3aa8 a8bd e6f6 023e
000002a0: 8039 0cbd d0ff aabd b44d ae3d aaee c4bd
000002b0: b0de 3a3d 084c 2c3e b4f3 203e ace6 873d
000002c0: 48f8 fc3c 00df eebb d849 1d3e 18a1 9c3c
000002d0: 7706 1b3e 2300 74bf 53bc 523f 1ec1 a7bf
000002e0: f42e c63f 6ebf 2dbf 3c87 adbf e79a 4fbf
000002f0: 93db 143e d672 78bf cc81 89bf 8c54 9e3f
00000300: 6fd4 94bf d9e4 16bf 116f c2bf acee 703d
00000310: 194e 80bf b328 9cbf d029 65bf 4871 083f
00000320: aee9 d13e cd43 0b3f b0da de3d 8d81 4dbd
00000330: c0d3 31be aa8d a4bc 87ab b5bc d379 d93e
00000340: 1b51 033f eb20 09be 1d58 9f3d 94d1 493f
00000350: 374d 1cbf 02e0 6e3f dcfa 88bf 589b 5f3e
00000360: 7cfa 873f 073f 193f 1078 c93d 132a 763f
00000370: 2476 793f 655b 90bf c4df 8c3f f8cb 023f
00000380: a3ce a03f 62a1 113e e69d 723f bd28 313f
00000390: c81f 213f d31c 50be 0b79 01be 112c bebe
000003a0: 9a39 95be a306 30be bf44 a93e 36a0 b8bd
000003b0: 74bc 283d 8b17 8abe a158 24bf 50b4 083e
000003c0: f456 edbd 048a e03d b036 db3c 34a2 0bbd
000003d0: bc79 243d 14fa 0c3e 8468 6e3d 0064 8d3d
000003e0: 2aea 8ebd 9044 053d e222 163e dab5 f6bd
000003f0: 046f 203e f0b7 f53c 60ad d6bb 90de 993c
0.14392543 1.230689 -1.5502952 1.8542687 -1.9041201 0.9442676 1.6051292 1.3040785
-0.41913295 1.8381392 2.012277 -2.2070568 2.0682235 0.47141486 2.2043905 0.113467865
1.8539131 1.6307249 1.2850944 -0.88400394 -0.5872908 -0.7387943 -0.029721038 -0.092527434
0.39683652 -0.13936481 -0.43763041 -0.6111435 -0.5626735 -0.051405042 -0.12814939 0.0077088624
0.07763216 -0.012925386 0.062123746 0.13141009 0.09696612 -0.031069577 0.07386115 -0.09484635
0.17558631 -0.017546266 -0.14692396 -0.031491086 0.1162262 -0.13894987 -0.08049963 -0.13937654
-0.02617158 -0.101657026 -0.08331818 -0.02015914 -0.012671098 0.012535989 0.14709592 0.12014857
0.0029690713 0.04150611 -0.08678612 0.06693861 0.046267577 -1.2438109 1.4234406 -1.3895935
1.6345352 -0.9060138 -1.4076813 -1.1454183 0.3601869 -1.5376387 -1.6483884 1.8824097
-1.5771594 -0.36608186 -1.8636246 -0.13530049 -1.5139041 -1.5462283 -1.1787578 0.60607564
0.30596718 0.4065692 0.0002834372 0.10259893 -0.3820774 0.22435327 0.18447587 0.46083936
0.6395558 0.014379811 0.008488006 -1.3028296 1.5010282 -1.7611299 1.7697926 -1.1871791
-1.3773658 -1.8127632 1.0058267 -1.1821743 -1.8929983 1.7560803 -1.7534971 0.10691676
-2.027709 0.118215635 -1.2345957 -1.4406654 -1.3117945 0.7317719 0.63203007 0.9157994
0.44848645 -0.061339635 -0.061496027 0.57612395 0.5670025 0.2059659 0.47239107 0.3173954
-0.089545034 -0.04244092 0.1401541 0.1070236 0.13155258 -0.15107194 0.15735134 -0.16711424
0.08407882 0.17821983 -0.14376876 0.16201487 0.06850958 -0.14182776 0.03644809 0.1383766
-0.08316544 -0.15477972 0.09270543 0.028111339 -0.035229057 0.0056530833 0.01318413 0.09257439
0.14687654 -0.1356422 -0.018432796 -0.17974795 0.17318085 -0.020908251 -0.08892753 0.11833927
-0.17960064 0.055169106 0.07837093 -0.15585414 0.16822916 0.13527796 -0.055230886 0.18128395
-0.15549427 0.1449329 -0.007859826 -0.041352987 0.14471593 -0.033293992 -0.08235212 0.12789497
-0.034234524 -0.083495736 0.085109144 -0.09615834 0.045622528 0.16825879 0.15717965 0.06635794
0.030880108 -0.0072897673 0.153602 0.019119784 0.15139185 -0.9531271 0.8231861 -1.310581
1.5483079 -0.67870224 -1.3556895 -0.8109574 0.14536886 -0.97050226 -1.0742736 1.2369552
-1.162733 -0.58942944 -1.5190145 0.058821365 -1.0023834 -1.219992 -0.89516926 0.53297853
0.40998596 0.5440033 0.10881555 -0.050172377 -0.17365932 -0.020087082 -0.022176517 0.42475757
0.5129563 -0.13391463 0.07780478 0.78835416 -0.6105532 0.9331056 -1.0701556 0.21836603
1.0623317 0.598618 0.09837353 0.9615795 0.97445893 -1.1277891 1.1005788 0.5109248
1.256306 0.14221719 0.94772184 0.69202787 0.6293912 -0.20323496 -0.1264383 -0.37142995
-0.2914551 -0.17190032 0.33060262 -0.09014933 0.041195348 -0.26971087 -0.64197737 0.13350034
-0.115888506 0.109638244 0.026759475 -0.034090236 0.040155157 0.13767272 0.058205143 0.06903839
-0.06978257 0.03253609 0.14661744 -0.12046404 0.15667349 0.029994935 -0.0065514296 0.018782884

fc1.bias f4 [64]
00000000: 82c7 833d 263d 0abe dd48 9ebd 4c8a 103f
00000010: 3024 ba3d f634 0f3e 2987 7bbd 83b2 173e
00000020: 3c32 323e 589b c8bc f7cf 1fbe 5587 f13d
00000030: ff43 28bf 2f58 1e3c ecef f13d 070d 9abd
00000040: 6278 af3e e005 133c c4ba 03bd 64a8 1a3e
00000050: 4282 04be 9817 ed3d d67e 213e 50c9 39bc
00000060: c3e4 4d3e 7fb9 033d 3ef0 38be eb1a d5bd
00000070: f98b 193f 3aaf 09bf 508c 053d d3b1 99be
00000080: 7495 6b3d c45c 8cbd 284c 3fbe 53d8 4cbf
00000090: ddd5 2fbc 6f98 5a3e 2cd6 9a3d 4eeb 06be
000000a0: 0b41 8d3d 585e 693d a8e6 d83d fdc3 abbd
000000b0: f01e 58bc d66e b8bd d749 e33d 2fab 8fbc
000000c0: a41f 0e3e e403 c43d 10aa f83c 8536 17be
000000d0: 1796 05be eb2e 01be 043f 093d dc5f 7ebe
000000e0: d1a4 38be 517e ed3c 90c7 db39 3474 18bd
000000f0: 6834 673d 3c4c 1f3e ad11 673d 258a e93c
0.064345375 -0.13499889 -0.07728741 0.56461024 0.090889335 0.13985047 -0.061408196 0.1481419
0.17401975 -0.024488136 -0.15606676 0.11793391 -0.65728754 0.009664579 0.118133396 -0.07522016
0.34271532 0.008973569 -0.032160535 0.15103298 -0.12940314 0.11576766 0.1577104 -0.011339501
0.20106797 0.032159325 -0.18060395 -0.10405525 0.59979206 -0.53783 0.032604516 -0.30018482
0.057515576 -0.06853631 -0.18681395 -0.80017585 -0.010732141 0.21347211 0.07560381 -0.13175699
0.068971716 0.05697474 0.10590869 -0.08386991 -0.01319097 -0.09005515 0.11098068 -0.017537681
0.13879257 0.095710546 0.03035453 -0.14766891 -0.13045536 -0.12615554 0.033507362 -0.24841255
-0.18031622 0.028990896 0.0004191962 -0.037220195 0.056446463 0.15556425 0.05641334 0.028508255

fc2.weight f4 [6, 64]
00000000: ec92 acbd 401c 13bc 72b7 a23d 0ccb 973d
00000010: 8064 c3bb 5a2d d7bd 81d2 bb3c f771 b7bb
00000020: 60e4 c7bc 54b8 4abd 20eb 92bd d1db 733b
00000030: 43ca f0bc 3081 ebbd 34d2 ea3d 42d8 cd3d
00000040: 8a21 6c3d 5080 3b3d c813 3c3c e648 923d
00000050: db8a c53c 2087 1d3c 40ee d2bb d85e 20bd
00000060: 5b26 dabc 1d22 e53c 73d4 4b3d a13c bfbd
00000070: ab8f 033d 8880 60bd 2488 dabd 57f6 6abb
00000080: ccb2 e6bd acfb 943d 3074 e33d 8b94 49bd
00000090: 1f99 de3d 848a a13d f652 80bd 4eaf c63d
000000a0: a7dc c6bd 5a35 bb3c e85f a5bc a00e bcbd
000000b0: 4690 f93d a5c6 dc3d 5447 a23d 25af 9ebd
000000c0: 1ab2 923d 4017 663b 260a f8bd 5691 91bd
000000d0: 9481 a13d 505c 96bd 50dd 8e3c 4d34 393e
000000e0: 6c89 b6bd 70e2 a5bd be39 4abd 0b9d ebbd
000000f0: 48fe 3d3d 664a cbbd 0ec4 c73d ce30 06be
00000100: 06f7 b7bd 2817 e23c 5c74 bd3d 1a11 f3bd
00000110: 42f7 93bd 6249 cbbd e6dc f43d 1e65 90bd
00000120: 4805 9f3c 449b 143d a01f c7bd ba06 cfbd
00000130: 76c7 d2bd b87a 9fbd dcea 33bd a812 233d
00000140: b06a e2bd 3041 0abc 2ac1 84bd 0e59 fabd
00000150: 005c 80ba 7c37 933d 18c4 d13c 80bd be3b
00000160: 528b a0bd d013 e43c b8e9 48bd 4601 d6bd
00000170: fad7 873d 8ce4 423d 0097 ba3d c62f debd
00000180: d898 c3bd 2c36 0a3d 486e 783d 12ea d4bd
00000190: 007f 27bc d81e a2bc ec19 ba3d c080 a6bc
000001a0: 400b f6bd 8686 8b3d 1c81 67bd f0a2 e93c
000001b0: 6a35 e03d 20c1 50bd d02f fb3d fc4c 153d
000001c0: 2096 90bc e462 e2bd be23 853d e0bf 6f3d
000001d0: 02c2 ed3d 5040 cb3d 809d a13b c03c ddbb
000001e0: 90bc 233d f023 783c e0bd 62bd 98ab 1bbd
000001f0: c628 d43d f263 8bbd 4c87 123d d22e b1bd
00000200: e0a3 073d 5467 3cbd 80ae 42bd d41e bebd
00000210: 74af 43bd 0858 843d 628b 80bd e66f ddbd
00000220: 608d ac3d 1c63 24bd 0848 90bd 7a22 8bbd
00000230: a425 2b3d d0bf 833d 0674 c1bd d2cb e93d
00000240: 8237 cabd 4819 68bd cc0a 103d 169d 88bd
00000250: ec96 453d e8ec 9cbd 587c 6bbd 4875 e23d
00000260: e097 99bb 0090 a43a 2c99 90bd 540d 6b3d
00000270: ba5d f23d 2039 12bc 182d e7bd 4052 023d
00000280: 00f5 0bbd 2c30 5fbd f6a1 e5bd 8432 a0bd
00000290: 4a3d fa3d 3ec3 90bd 36e8 fe3d 84a2 4e3d
000002a0: c6d2 a1bd aca3 39bd 4098 483d c42e 87bd
000002b0: d0d8 64bd 40f7 a9bd 0490 c83d 708f 953c
000002c0: 6c05 bfbd 0087 2c3b 9486 063d 927f a13d
000002d0: 625d 8b3d fa37 c0bd 0e31 afbd aae7 ecbd
000002e0: 6047 76bc b059 9ebc 8447 713d 2424 ecbd
000002f0: 44ab 943d 9857 96bd 4c42 c83d fc29 b4bd
00000300: 16f3 81bd f4b4 b83d 00af c93a 8e8d 91bd
00000310: 06b5 b23d 7ed7 b33d 2c92 b3bd 72a7 c13d
00000320: 7ef2 a33d f072 a0bc fcbc d73d 60c7 71bd
00000330: 42fe 833d 18c5 ef3c 0027 2dbc 92f5 f43d
00000340: e4df 093d cc02 8cbd 9e48 fb3d 36bd febd
00000350: 84d3 7c3d 1a6e f23d 2cc9 2c3d 00df c53b
00000360: 2c70 a33d b45f 293d 9c6c 313d 2233 cc3d
00000370: 3860 7abd 0851 f9bd c068 083d 06e2 a8bd
00000380: 988c ea3c 1c2b 66bd 101c 4b3d d4e5 8abd
00000390: 041a b0bd 52dc b53d e8b2 303d fcd8 fc3d
000003a0: 8a74 f8bd 221d cebd 7882 3abd 42c3 fe3d
000003b0: e081 953d 76a1 f73d 2ade e4bd 0077 293c
000003c0: 40ed ddbc acea c8bd 9888 6e3d 90bb d83d
000003d0: 5020 f4bd a2f7 b33d 1e31 8ebd 0666 8fbd
000003e0: 3059 3ebc 0054 3739 8e37 a4bd fc28 073d
000003f0: 82c6 b4bd 80ab fc3d 806d 4f3d 70cc 75bc
-0.084264606 -0.008978903 0.07945146 0.07411775 -0.0059629083 -0.10506697 0.022927525 -0.0055983025
-0.02440089 -0.049492195 -0.07173753 0.0037209878 -0.02939332 -0.1149925 0.11465874 0.100510135
0.057649173 0.045776665 0.011479326 0.071428105 0.024114063 0.009614736 -0.006437093 -0.03915295
-0.026629617 0.027970368 0.049763154 -0.09337736 0.032119434 -0.054810077 -0.10670498 -0.0035852396
-0.112645715 0.07274565 0.111061454 -0.049213927 0.10869049 0.07887748 -0.062658235 0.097014055
-0.09710055 0.022852588 -0.020187333 -0.09182477 0.12185721 0.10780076 0.07923761 -0.0774825
0.071628764 0.0035109073 -0.12111311 -0.07107799 0.07886043 -0.07341826 0.017439514 0.18086357
-0.0891293 -0.0809983 -0.049371473 -0.11504563 0.04638508 -0.099263 0.09754191 -0.13104555
-0.08982663 0.027598932 0.092507094 -0.11868496 -0.07224895 -0.09926106 0.119561955 -0.070505366
0.019411698 0.036280885 -0.09722829 -0.10108705 -0.102919504 -0.077870786 -0.04392515 0.039812714
-0.11055505 -0.0084383935 -0.064821556 -0.12224017 -0.0009793043 0.07188317 0.0256062 0.00582093
-0.07839073 0.027841479 -0.049051017 -0.10449462 0.06632991 0.04758124 0.09110832 -0.10848956
-0.09550637 0.03374307 0.060652047 -0.10396208 -0.01022315 -0.019790098 0.090869755 -0.020325065
-0.120138645 0.06812768 -0.056519613 0.028520077 0.10947688 -0.05096543 0.12264979 0.03645037
-0.01764971 -0.11054018 0.06500958 0.058532596 0.1160927 0.09924376 0.0049321055 -0.0067516267
0.03997475 0.015145287 -0.05535686 -0.03800544 0.103593394 -0.068061724 0.03577356 -0.086515084
0.033115268 -0.04599698 -0.047529697 -0.09283224 -0.047774747 0.06462103 -0.06276585 -0.108123586
0.08425403 -0.04013358 -0.07044989 -0.06793685 0.041783944 0.0643307 -0.09445958 0.11415829
-0.098738685 -0.056664735 0.035166547 -0.06670587 0.048239633 -0.07662374 -0.05749163 0.11057526
-0.0046872944 0.0012555122 -0.07060465 0.057385758 0.11834283 -0.0089247525 -0.11287898 0.03181672
-0.034169197 -0.0544893 -0.11212532 -0.07822135 0.12218721 -0.070684895 0.124466345 0.050447956
-0.0790153 -0.045322105 0.048973322 -0.06600717 -0.05587083 -0.08299112 0.09793094 0.018256873
-0.09327206 0.0026325583 0.032843187 0.0788566 0.06804921 -0.09385677 -0.08554278 -0.11567624
-0.015031666 -0.019329876 0.058906093 -0.11530331 0.07259229 -0.07340926 0.0977827 -0.087970704
-0.06345193 0.09018889 0.0015387237 -0.071070775 0.08725934 0.08781336 -0.087681144 0.09455766
0.08005236 -0.019586056 0.10534093 -0.05902803 0.0644498 0.029268786 -0.01056838 0.11960901
0.033660784 -0.06836471 0.1226971 -0.12438433 0.061725155 0.118374065 0.04218404 0.0060385466
0.079803795 0.041351035 0.04331647 0.0997069 -0.061126918 -0.121736586 0.033303022 -0.082462355
0.028631493 -0.056193456 0.04958731 -0.067821175 -0.08598712 0.088799134 0.04313937 0.12346074
-0.12131603 -0.100641504 -0.04553458 0.12439586 0.07300162 0.12091343 -0.11175187 0.010343313
-0.027090669 -0.09810385 0.058235735 0.1058265 -0.119202256 0.087874666 -0.06942962 -0.07001881
-0.011617944 0.00017483532 -0.08018409 0.03299807 -0.08826925 0.123373985 0.050641537 -0.015002355

fc2.bias f4 [6]
00000000: e3ec 05be a0b1 ecbd 385d fcbd e097 debd
00000010: ebd5 653e 70ea ce3d
-0.13078646 -0.11557317 -0.123224676 -0.108688116 0.22444884 0.10103309

fc3.weight f4 [1, 6]
00000000: 724f 483d 7feb a4be ffc7 cbbe c05d 983e
00000010: 5a37 c7bc a1bc 9abe
0.04890389 -0.3221092 -0.39801022 0.29759026 -0.024318386 -0.30222037
