res/european/regular/models/regular_7.pt (torch, 12063 bytes, 5 tensors)

fc1.weight f4 [64, 30]
000000 00 1a 34 bc 76 36 12 3e 7c 9d ac 3d ee a2 12 3e
       -0.010992527 0.14278588 0.08428475 0.14319965
000010 34 a0 e9 3d b5 36 df bd e8 bd cb 3d ac 85 cb bd
       0.114075094 -0.108991064 0.09948331 -0.09937605
000020 54 b9 18 3d 54 b6 0d 3d 60 57 1b bd 18 df 12 3e
       0.037286118 0.03459771 -0.037925124 0.14342916
000030 2c 16 71 bd 32 8c 37 3e f0 dc 38 3d 14 50 55 3d
       -0.058859035 0.17924574 0.045132577 0.05207832
000040 8a 6d 11 be d2 f7 1a 3e b0 ef d5 bc 4c 20 75 bd
       -0.14201942 0.15133598 -0.026115268 -0.059845254
000050 d0 a0 92 3d d0 38 11 3e ec ff 93 bd 30 4b 9a 3d
       0.07159579 0.14181828 -0.072265476 0.07533872
000060 cc 03 85 bd fa 6f 84 3d b0 47 1f 3d b4 28 4d 3d
       -0.06494865 0.0646667 0.038886726 0.050087646
000070 6c 95 dd bd ec 4b 5b bd a6 fc c8 3d ab 7a 95 bf
       -0.108195156 -0.0535392 0.09813814 -1.167806
000080 c5 24 b7 3f 4d 78 d2 bf 86 a5 06 40 6c 02 e4 be
       1.4308096 -1.6442963 2.1038527 -0.44533098
000090 c9 b2 d8 bf 25 79 8f bf b0 38 88 bb b3 15 b4 bf
       -1.6929561 -1.1208845 -0.0041571483 -1.4069122
0000a0 b4 2f c9 bf 8b df 01 40 2c 7f f2 bf b8 28 88 bf
       -1.5717683 2.029269 -1.894506 -1.0637426
0000b0 3c 0d ff bf b0 6d ed bc 8e d0 ca bf ac bc 8e bf
       -1.9925914 -0.028982967 -1.5844896 -1.1151328
0000c0 d6 ba 4a bf f0 99 f8 3e 8b f3 ea 3e fd f6 0c 3f
       -0.7919134 0.48554945 0.45888934 0.55064374
0000d0 5a d9 5e 3e 53 98 54 be 79 ec d5 be e8 9e c6 3c
       0.217626 -0.20761232 -0.41781977 0.024245694
0000e0 ff 7f c9 3d 29 db 08 3f ee f9 49 3f c9 2d a3 bd
       0.098388664 0.5345941 0.7889699 -0.07967717
0000f0 62 ef bd 3a cb 70 5c bf 81 4f 8d 3f 57 73 b2 bf
       0.0014490897 -0.8610961 1.1039888 -1.3941449
000100 40 11 d1 3f 3d b5 bf be af 67 b3 bf 76 ae 83 bf
       1.6333389 -0.3744296 -1.4016017 -1.0287616
000110 44 8e 1d 3c 16 c7 a4 bf fc 90 ce bf 23 bf dc 3f
       0.009616438 -1.2873256 -1.6137996 1.724583
000120 2a 73 c6 bf a6 a4 31 bf a9 b8 da bf b2 da 21 be
       -1.5503895 -0.6939186 -1.7087604 -0.15806082
000130 7a f3 ae bf 41 ed 94 bf 37 66 25 bf 09 af 10 3f
       -1.3668053 -1.1634904 -0.6460909 0.5651708
000140 1e b8 6f 3e 2e d3 05 3f 63 6d 01 3d 0f b7 17 be
       0.23410079 0.5227536 0.03159846 -0.14815925
000150 64 5c a7 be fe 4b f2 3d 38 49 83 bd cf f5 c8 3e
       -0.32687676 0.118309006 -0.0641045 0.39250037
000160 3a 5e 29 3f 29 16 57 3d b2 b9 c5 bd 36 b4 5a 3d
       0.66159403 0.052511368 -0.09654559 0.05339452
000170 67 11 04 3d 6c 90 35 3d 90 fa 37 be 53 cb ee bc
       0.03224316 0.044327185 -0.17966676 -0.029149687
000180 c4 a7 e0 3d cf d8 12 be ab 63 7c 3e 12 d2 32 3e
       0.10969499 -0.14340518 0.24647395 0.17462948
000190 25 50 49 3d 43 1d 87 bd 0a 3c 09 3e 89 bf d4 3b
       0.049148697 -0.06597378 0.1340181 0.0064925593
0001a0 8d 9a 3c be 5a 71 4a be 37 2a 9b 3e e2 26 cd 3c
       -0.18418331 -0.19769803 0.30305645 0.025042955
0001b0 60 c0 68 3e 6c d5 f4 3c 5a 3d fb 3d 9b 96 3e 3e
       0.22729635 0.029886924 0.12267561 0.18612139
0001c0 7d b1 0d 3e f9 e8 e1 3d f9 24 23 3e 6d d7 3f 3e
       0.13837238 0.11030764 0.15932073 0.18734522
0001d0 0c d8 88 bd 3e 0d 56 be 2c 64 93 bd e7 a8 3b 3e
       -0.06681833 -0.20903489 -0.07196841 0.1832615
0001e0 5a ad f5 3c 29 c7 95 bf 9e 79 b2 3f 2c 45 a9 bf
       0.029989887 -1.1701404 1.3943365 -1.3224235
0001f0 60 01 03 40 d8 4d 16 bf 22 49 c3 bf a2 f2 80 bf
       2.046959 -0.5871253 -1.5256693 -1.0074046
000200 be 0d cd 3d 95 42 9d bf 4d 99 c5 bf a3 61 e1 3f
       0.10012387 -1.2285944 -1.5437409 1.7607921
000210 fa 51 bd bf e9 ae 30 bf 5d 56 e8 bf da e4 bf bd
       -1.4790642 -0.6901689 -1.8151356 -0.09369822
000220 89 8b b4 bf 77 64 8a bf b0 f2 5a bf 94 32 c6 3e
       -1.4105083 -1.081191 -0.8552656 0.38710463
000230 10 8d 79 3e f3 51 fb 3e 08 bf 82 3e a3 3f 04 be
       0.24370217 0.4908596 0.2553637 -0.129149
000240 4d 38 82 be 9f ab 3f 3e ec 1a 35 3d 66 0b 89 3e
       -0.2543358 0.18717812 0.044215128 0.2676651
000250 d8 36 36 3f e4 f0 96 bd b5 8e db bd 0f e5 c4 bd
       0.71177435 -0.07370165 -0.107205786 -0.09614002
000260 9c dd 40 3d 16 93 2c be d0 5d 00 3c 2a 76 0f 3e
       0.047086343 -0.16852984 0.007834867 0.1400992
000270 f8 3c 8d 3d 1f 0a d3 bd 68 03 f5 3d b0 36 a0 3c
       0.068963945 -0.10304665 0.1196354 0.019557327
000280 fc dc ff 3d 70 84 bd 3d 70 74 54 bd 28 a2 53 bd
       0.12493321 0.09253776 -0.051868856 -0.051668316
000290 10 05 bb 3d 1c 96 9b bd bc 24 d3 3d 44 22 1c be
       0.09131825 -0.075969905 0.10309741 -0.15247446
0002a0 c6 39 b7 bd f0 17 fe 3d 90 cc 4c bc c9 5c 27 be
       -0.08946566 0.124069095 -0.012499943 -0.16343988
0002b0 60 d7 62 3c f0 a2 97 3c b4 30 b6 3d 0b 65 c5 bd
       0.013845295 0.018510312 0.08896008 -0.09638413
0002c0 0a c0 1b 3e 08 e6 a8 bc 10 a7 a1 bd 00 60 eb 38
       0.15209976 -0.0206175 -0.07893193 0.000112235546
0002d0 76 ea e2 bd 00 3f 15 3b 92 f4 15 3e e4 94 a2 bd
       -0.11079876 0.0022773147 0.14644077 -0.07938555
0002e0 c0 14 da 3b 14 4c 0a 3d 84 bc 96 bd 0c e7 e9 bd
       0.0066553056 0.03376396 -0.07360175 -0.11421022
0002f0 44 4f 26 3e f0 f6 14 3d f0 74 9c 3d 08 3a e2 3d
       0.16241175 0.03636831 0.076394916 0.11046225
000300 34 d6 d9 3d 3b 91 84 bd 04 83 5a bd 4c ca 65 bd
       0.10636559 -0.06473013 -0.053347602 -0.05610113
000310 50 5b 2b 3c 24 2a 21 3e 18 b3 01 be 80 e5 e4 3b
       0.010458782 0.15738732 -0.12665975 0.0069853663
000320 47 a0 86 bd b6 ff 06 3e a4 5e 85 3d 0c c4 77 3d
       -0.06573539 0.13183483 0.06512192 0.0604897
000330 68 62 96 3c f0 e2 41 bd 48 f3 62 bd a4 91 af 3d
       0.01835747 -0.047335565 -0.055407792 0.085727006
000340 60 52 a2 3d 08 ad 8b bc bc b5 5d b7 58 63 05 c0
       0.07925868 -0.017050281 -1.321494e-05 -2.0841885
000350 47 d6 1c 40 28 30 44 c0 53 23 5d 40 2d e6 13 bf
       2.4505785 -3.0654392 3.455281 -0.57773095
000360 8f 9a 32 c0 6e 08 10 c0 33 51 57 3e bd 64 2f c0
       -2.7906835 -2.2505145 0.21027069 -2.7405236
000370 05 00 50 c0 09 45 49 40 10 4b 4c c0 0b 22 9b bf
       -3.2500012 3.1448386 -3.1920815 -1.2119764
000380 04 6f 58 c0 c8 ae c5 bd 23 c0 34 c0 c0 07 21 c0
       -3.3817759 -0.096524775 -2.824227 -2.516098
000390 9d 67 c5 bf 22 34 e2 3e 0a bf ec 3e 5d 73 9e 3f
       -1.5422245 0.441804 0.462395 1.2378956
0003a0 ae 55 24 3d 72 63 32 bc de 97 12 bf 12 91 6e 3e
       0.040120773 -0.010887967 -0.5726298 0.23297527
0003b0 27 fa 88 bd 8a c6 60 3f da 17 b6 3f 0c c6 a5 bd
       -0.06688338 0.87802947 1.4226029 -0.08094415
0003c0 a6 b9 d3 bb b1 98 de 3d 9a 9b 82 3c 50 be 6b 3c
       -0.00646134 0.10868967 0.015943337 0.014388636
0003d0 44 99 fe bd f9 db a2 bd 3f bf 7c bd cb 53 b3 3d
       -0.12431577 -0.07952113 -0.061705824 0.087562166
0003e0 e4 9d 3d be e6 b2 88 3b c7 d9 15 3e 3b 6b 06 3e
       -0.18517262 0.004171717 0.14633857 0.13126843
0003f0 ec b6 e6 3d 1b f5 1f 3e b9 1f 3e bb 43 6b 0c be
       0.11265358 0.15620844 -0.0029010607 -0.13712792

fc1.bias f4 [64]
000000 96 7a 29 3e 97 21 ec bc d7 f9 24 be 94 e3 08 3e
       0.16550669 -0.02882461 -0.16110931 0.13368064
000010 64 7a f3 bd 90 15 34 3c 98 78 a8 3c 55 7f f2 be
       -0.118885785 0.010991469 0.020565316 -0.47362772
000020 c5 d4 e8 3c 5c 42 2c 3d 70 ed dd 3c f4 aa 56 be
       0.028421769 0.042055473 0.027090758 -0.20963651
000030 d2 e3 8e bd 7c 05 54 bd 24 18 01 bd 3b 39 82 3e
       -0.06977047 -0.051763043 -0.031517163 0.25434288
000040 ac b4 b8 3d 64 71 e8 3d 70 7f a7 3e 1a 34 9b bd
       0.090188354 0.113497525 0.32714415 -0.07578297
000050 14 48 3d 3d 70 45 3b be 4a 20 bf be be 60 19 be
       0.046211317 -0.18288207 -0.37329322 -0.1497831
000060 cf 12 db bd 5d 1d 02 be bc 95 58 be a5 e7 85 3e
       -0.10696947 -0.12706514 -0.21150869 0.26153293
000070 5c 71 5a bd 57 13 00 bf 18 6e f4 bd 3b fe a8 3e
       -0.053330764 -0.5002951 -0.11935061 0.33006462
000080 64 70 e1 3d 7a e0 47 be b8 02 62 3e 11 92 a4 3e
       0.11007765 -0.19519225 0.2207135 0.3214269
000090 3d 05 b2 be c6 5a 83 3d e1 10 25 be 65 fd 30 3e
       -0.34769621 0.06413798 -0.1611972 0.17284162
0000a0 96 19 f0 be c3 20 01 be 8d 74 32 be 7d 00 90 bd
       -0.4689452 -0.12610154 -0.17427273 -0.07031343
0000b0 bd 00 a5 be 53 e8 22 3e 37 1e 9b bd 9e 54 55 be
       -0.32227126 0.15908937 -0.075741224 -0.2083306
0000c0 b4 b9 f8 bd 07 67 5d be 4f 70 c5 3d 1f 26 af 3d
       -0.12144795 -0.21621333 0.09640562 0.08552193
0000d0 ac be d8 3d 7e 77 a7 3d 10 24 1a bc af 56 9e 3d
       0.10583243 0.08177088 -0.009408012 0.07731377
0000e0 69 59 44 3e 4b c2 c8 be e3 72 ea bd cc d5 93 3d
       0.19174732 -0.39210734 -0.11447694 0.07218513
0000f0 f3 17 eb 3e e2 4f e8 3d 1a 1e 5d 3e 10 d3 3e bd
       0.4591671 0.113433614 0.21593514 -0.046588004

fc2.weight f4 [7, 64]
000000 60 ef 44 bd d9 07 f3 bd 3c b3 90 3c c9 e8 17 3e
       -0.04807985 -0.11866731 0.01766359 0.14834894
000010 b6 52 92 bd 6c 64 9a bd e8 73 16 bd 49 e7 e7 3d
       -0.07144682 -0.07538685 -0.03673163 0.11323411
000020 e1 21 6d 3d 0a 55 aa bd be 82 f3 bd 79 25 5f bc
       0.057893638 -0.08317001 -0.118901715 -0.013619774
000030 64 4d c4 3d 50 22 2a 3c 84 43 93 bd 53 76 ce 3d
       0.095850736 0.010384157 -0.07190612 0.10081162
000040 ac 31 2e bd 28 39 cc 3c 09 b7 e7 bd 14 39 3c 3d
       -0.04252784 0.024929598 -0.11314208 0.04595287
000050 04 e4 5d 3d ab 52 f3 3d cc 55 fb 3d 86 a5 d6 3d
       0.05417253 0.11881002 0.12272224 0.1048079
000060 20 ef 96 bd 44 b0 d2 3d c2 93 a2 bd ed db 11 bd
       -0.07369828 0.10287526 -0.07938339 -0.03561013
000070 54 44 eb bd ee 5f eb bd b0 18 37 bd f5 63 3c 3e
       -0.11487642 -0.114929065 -0.04470128 0.18397506
000080 34 e1 29 3d 6e 59 86 bd 16 39 b6 bb ce 6c ad bd
       0.041474536 -0.06560026 -0.0055610044 -0.084680185
000090 23 61 e9 bd 9b a0 a8 3c 60 30 f2 3b 95 42 d3 bd
       -0.113954805 0.020584395 0.0073910207 -0.10315434
0000a0 66 0f 06 3d 24 ad 35 bd 48 85 90 3c 74 ea ae 3d
       0.03272953 -0.044354573 0.017641678 0.08540812
0000b0 ab 00 b1 3d 7f f7 26 3e 32 6a ce bd a9 f8 a8 3d
       0.086427055 0.1630535 -0.10078849 0.08250553
0000c0 d6 14 83 bd 54 a7 af 3c 12 dd 21 3b a4 00 89 bd
       -0.064004585 0.021442093 0.0024698419 -0.06689575
0000d0 7c fa 57 3d 9d 4a 8a bd ad d1 49 3a 60 e3 eb bb
       0.052729115 -0.067525126 0.00076987856 -0.007198736
0000e0 d5 ab 8f 3c 9d a2 97 3d 71 20 df 3d e3 35 1f bd
       0.01753799 0.07404063 0.108948596 -0.03886975
0000f0 1e 5a 00 3e 0e ee db 3d e0 8c cc bd 2b 8c f4 bc
       0.12534377 0.10738765 -0.09987807 -0.029851994
000100 d6 81 97 3d 78 f4 11 3d 40 e1 8a bb 1e a9 a1 bd
       0.07397811 0.035633534 -0.0042382777 -0.07893585
000110 b6 4a df bd 92 af c9 3d 64 40 8d bd d0 16 3f 3c
       -0.10902922 0.098479405 -0.06897047 0.011663154
000120 8e b0 f7 bd a4 05 8a 3d 4c 6e e1 3d 98 ab 2d 3d
       -0.12094222 0.06739357 0.110073656 0.042399973
000130 30 ce ca 3d a8 66 e5 3c c0 80 d3 bc 54 15 34 bd
       0.099026084 0.028003052 -0.025818229 -0.043965653
000140 60 6a 88 bb 6c b1 26 3d 2a 0e 8e bd 80 03 3b bb
       -0.0041630715 0.040696546 -0.06936295 -0.0028536022
000150 66 8f 92 3d a2 84 bd bd 40 05 b2 3d ec 12 23 bd
       0.07156257 -0.09253813 0.086924076 -0.039812967
000160 5c 63 33 bd 10 27 af 3c c0 a0 82 3d f0 e3 92 bd
       -0.04379593 0.021380931 0.06378317 -0.07172382
000170 24 91 00 bd 30 b7 40 bd 90 05 58 3c f4 c2 fc bd
       -0.031388417 -0.0470497 0.01318492 -0.12341872
000180 80 d7 9f ba 00 dc 90 39 8c 42 44 3d c8 4d 94 bd
       -0.0012194961 0.00027629733 0.047915027 -0.07241398
000190 f0 af 40 3c 90 7d 84 3d ee ab 94 bd 2c 1a 6c bd
       0.011760697 0.06469262 -0.072593555 -0.057642147
0001a0 40 c7 4d 3b 14 df 43 3d a8 69 c9 3d f8 00 58 3d
       0.003139928 0.047820166 0.098346055 0.0527353
0001b0 b8 d3 35 bd a4 fa 96 3d da 68 df 3d 3c 4a 6b bd
       -0.044391364 0.07372025 0.10908671 -0.057443842
0001c0 fa 2c d1 bd ac ae aa bd 08 70 ea 3d 34 6d 12 bd
       -0.10213657 -0.08334097 0.114471495 -0.035748675
0001d0 44 af d8 bd 72 31 f4 bd 62 35 ac bd 5e 40 90 bd
       -0.10580304 -0.119234934 -0.084086195 -0.07043527
0001e0 04 bb fa bd 08 38 f8 bc 44 a8 86 3d 80 ba c3 bc
       -0.12242702 -0.030300155 0.06575063 -0.023892641
0001f0 7c 3c e9 bd 00 67 bf 3b 4e ab c4 bd c0 b6 ba bc
       -0.113884896 0.005841136 -0.09602986 -0.02279222
000200 7c dc 08 3d d5 39 9a bd 0b 35 b0 3d 48 8e 1a 3d
       0.033413395 -0.07530562 0.08603867 0.037733346
000210 68 fc ab 3d ee 90 9e bd 5a bf a7 bd 9f d0 8d 3d
       0.08397752 -0.07742487 -0.08190794 0.06924557
000220 46 c4 51 bd 60 06 e1 bc 94 c0 ba 3d b4 f0 52 bc
       -0.05121257 -0.02746886 0.091187626 -0.012874771
000230 cd 84 d0 bd 40 89 3a 3d 7c db 4f 3d b7 e9 c8 3b
       -0.1018158 0.045541048 0.050746426 0.0061313766
000240 70 a5 04 3d 80 aa 4c bc 4d 9e ad bb e6 70 e2 3d
       0.032384336 -0.012491822 -0.005298412 0.1105669
000250 90 90 8f 3c ab 7d 8e 3c 86 df a5 3d e0 70 1a 3a
       0.017524987 0.017393908 0.08099274 0.00058914535
000260 e1 4d df 3d f8 22 f1 3c 6c e4 8a bc 62 4d b5 3d
       0.10903526 0.02943562 -0.016954623 0.0885265
000270 8c eb 0d bd af d5 ef bd e0 3f b6 bb 55 89 ac bd
       -0.034648463 -0.11710679 -0.0055618137 -0.084246315
000280 72 68 b2 bd 87 78 d6 bd f7 1e 63 3d a7 a1 6d bc
       -0.087113276 -0.104722075 0.055449452 -0.014503873
000290 d7 14 b5 bd 60 6d 3c 3d 50 06 82 bd f4 6a 97 3c
       -0.088418655 0.046002746 -0.0634886 0.018483616
0002a0 b4 9a ef bd 4c db 74 bd 82 4e d5 bd 68 4e 1f bd
       -0.11699429 -0.05977945 -0.10415365 -0.038893133
0002b0 c9 66 d9 3d 73 23 e2 bd 50 38 8e 3d de c1 1c bc
       0.10615308 -0.11041918 0.069443345 -0.009567706
0002c0 e8 64 be 3c 16 58 9f bd be c4 57 bd d0 0e 6a 3d
       0.023241475 -0.07780473 -0.052677862 0.057143033
0002d0 22 43 b5 bd ce a2 24 bd 43 44 b6 bd 3a f9 e3 3d
       -0.08850695 -0.040194325 -0.08899739 0.111315206
0002e0 2f 03 51 bd 90 82 b0 3d b3 47 69 bc ba fb 41 bd
       -0.051028427 0.08618653 -0.014238286 -0.047359206
0002f0 c3 b6 27 bd 89 ed de 3d 83 b3 08 3d c6 09 81 3d
       -0.04094578 0.1088515 0.03337432 0.06300692
000300 20 03 97 bc eb 43 20 bd 12 a1 95 bd 09 b0 cb bc
       -0.018434107 -0.03912727 -0.07306112 -0.024864214
000310 35 fe c0 bb 5c 19 3a bd 50 85 0f bc 46 16 ed ba
       -0.005889679 -0.04543434 -0.0087598115 -0.0018088303
000320 8f 87 b3 bd 7e f9 88 bd 20 47 92 3c 9e a2 c4 3c
       -0.0876609 -0.06688212 0.01785618 0.024003323
000330 8e e1 8c 3d 7a 8b 93 bd 6a 1e 98 bd 2d 58 d6 3b
       0.06878959 -0.072043374 -0.07427676 0.006541273
000340 bc 9f bc 3d 28 67 6b 3d 00 87 e8 3d 8e 0a 87 3d
       0.092101544 0.057471424 0.11353874 0.0659381
000350 c0 6e f5 bb 45 52 8d bd 84 ac c9 bd 33 73 af 3b
       -0.007490009 -0.06900457 -0.09847358 0.005354309
000360 2c 5b d3 bd ec dd 53 bd 10 31 cc bd 9a 47 c3 3d
       -0.10320124 -0.051725313 -0.099702954 0.09535141
000370 b0 f1 e4 3d 05 c8 b8 bd a0 ba e0 bb f1 11 ab 3d
       0.11178911 -0.09022526 -0.006858185 0.083530314
000380 1a f1 cb bd b3 2a 9b 3c 17 af dc 3c fd 92 e5 3d
       -0.09958096 0.018941259 0.026938958 0.112096764
000390 05 67 e7 bd f1 e0 9c 3d f0 96 71 bc ac fd 27 3c
       -0.11298946 0.07660092 -0.014745459 0.010253351
0003a0 8b b9 56 bd 70 ae e6 3d 6c e9 12 3d bc bf cf bd
       -0.05242304 0.1126374 0.03586714 -0.10143992
0003b0 28 f3 e5 bd b2 ae 0f 3c d0 c2 e9 bc b7 56 c6 bd
       -0.11228019 0.008769678 -0.028535277 -0.09684508
0003c0 9e 30 f8 3d c2 29 3f bd 69 9a e3 bb b9 a0 37 3d
       0.12118648 -0.046670683 -0.0069458974 0.04483101
0003d0 02 39 b9 bd e4 31 8a 3d 39 9a f5 3c f6 21 96 3d
       -0.090440765 0.06747797 0.029980766 0.07330696
0003e0 05 62 f5 3c 5f 8f bd bc 5b 28 b4 3d 2a 7a db 3d
       0.029953966 -0.023139654 0.0879676 0.1071666
0003f0 89 dd a3 bd e7 d7 99 bc 03 24 89 3d 9a e6 bc bd
       -0.08001239 -0.018779708 0.06696322 -0.09223671

fc2.bias f4 [7]
000000 a8 3d 3b 3e 54 18 04 bd ba c7 01 bd 9f 77 81 3e
       0.18285239 -0.032249764 -0.031684615 0.25286576
000010 bc f9 ac bd 80 82 d1 bc e0 b4 c0 3c
       -0.084460706 -0.025574923 0.023523748

fc3.weight f4 [1, 7]
000000 f0 d3 9d 3c 00 d7 d8 3a 46 9e 02 ba 2c 34 46 bc
       0.019266099 0.0016543567 -0.0004982691 -0.0120974
000010 6f fb bf 3c 84 9e de bd 35 db 95 3e
       0.023435323 -0.10870078 0.29268804
