res/european/qnn/models/qnn_3.pt (torch, 11039 bytes, 5 tensors)

fc1.weight f4 [64, 30]
-0.12459517 -0.18193918 0.10513005 0.15598676 -0.13912894 0.11297354 -0.09755016 -0.09680486
-0.12240502 -0.050562963 -0.1677033 -0.06356475 0.084122986 -0.13892291 0.08516076 -0.006503269
-0.03912665 -0.11582761 0.18084374 0.013453096 0.0016155541 0.1806182 0.049616143 0.17017117
0.16214925 -0.15842268 -0.06852761 -0.15100434 -0.17453599 -0.17407441 -0.06717675 -0.0388401
-0.12864271 -0.16792293 -0.17532085 0.058973476 -0.088186234 0.022277549 -0.08577559 -0.051003635
0.113152 0.10810158 0.15742293 0.18225124 -0.013299063 -0.14176947 -0.060379267 -0.065950036
0.1284787 0.047432497 0.056582287 0.06849319 0.0069737732 -0.12990066 0.11560798 0.059127048
-0.16025828 0.16274366 0.08734858 -0.15560535 -0.056311935 0.1720362 0.07265526 0.0820615
-0.087409474 -0.16417207 -0.048704028 -0.02295275 0.17375225 0.13255304 0.13139454 -0.05976353
0.12419149 -0.11094548 0.030060709 -0.057412416 0.16657534 0.037897944 -0.00059197843 -0.14704984
0.05862759 0.13207266 0.05604671 0.12055898 -0.16514571 -0.090969935 0.033630505 0.11768994
-0.1128991 0.017812029 -0.06860692 -0.019156978 0.023304462 0.05867809 0.18083084 -0.075735174
-0.057596758 -0.13332303 0.13130343 0.049968272 -0.11146467 -0.017770618 0.16251853 0.008774459
-0.13667105 -0.068106964 -0.026117444 -0.021884054 -0.013209984 0.011204302 -0.16301182 0.10728508
-0.036808863 0.055984437 0.036392793 -0.08672605 0.07808334 -0.09582796 0.1530765 -0.037807614
-0.0865288 -0.080030404 0.068499684 0.07774192 -0.13844004 0.1526551 -0.042088896 0.1700364
0.16299844 0.006539345 -0.10998651 0.12633759 0.015176624 -0.0636946 0.02936028 -0.14120708
0.17051339 0.13886926 0.11672741 0.09038207 -0.015522331 -0.026375964 0.18215322 -0.11864566
0.125148 0.009777039 -0.031908885 -0.06216179 -0.17632362 -0.061625816 0.16547002 -0.07485237
0.047374774 -0.24032734 0.13169914 -0.09272182 3.4704863e-05 -0.028956588 0.08006769 -0.26410696
-0.09358122 0.13279279 -0.12992409 -0.044028018 -0.05092756 -0.16462122 0.02693058 -0.11792454
-0.2525211 -0.11162353 -0.07271895 0.105657496 -0.026726458 -0.20486256 0.033499863 0.08468814
-0.033089656 -0.04480081 0.08267383 0.04963896 0.05222543 0.24535725 -0.26560828 0.0879501
-0.22151439 -0.04149013 0.06583574 -0.026924865 0.09256046 0.018756658 0.08795904 -0.23786896
0.16101724 -0.0042890846 0.19388859 0.037492245 0.034505296 0.33159098 -0.020192346 -0.013434332
-0.03748545 -0.13591401 -0.10613812 0.039457787 -0.0057601836 -0.14340003 0.14419745 0.08145471
-0.060394417 0.05738071 -0.08921859 0.1649386 0.16943365 -0.029574722 0.015123293 0.0044137985
-0.07108094 0.165575 0.14910358 0.16399905 -0.10148387 -0.020589486 0.1309587 -0.15006371
-0.018641561 -0.124899745 0.031361833 -0.056678727 0.029172316 -0.09311736 -0.13844486 -0.13510069
-0.14239979 -0.16604358 -0.042922735 0.120791525 0.02014488 0.15146437 0.14660168 -0.16943567
0.04948407 0.017031582 0.26253664 0.026341086 -0.00013935614 -0.116871454 0.07390669 0.094060846
0.09327669 0.00036495493 -0.1059619 0.0674334 -0.08540235 -0.05399813 -0.023151806 0.042633865
00000000: c12b ffbd 444e 3abe 6c4e d73d feba 1f3e
00000010: d177 0ebe ac5e e73d 61c8 c7bd a041 c6bd
00000020: 7caf fabd 1c1b 4fbd 6aba 2bbe 3c2e 82bd
00000030: ac48 ac3d cf41 0ebe c468 ae3d 6019 d5bb
00000040: 4443 20bd 0737 edbd 1a2f 393e 606a 5c3c
00000050: 00c1 d33a faf3 383e 4c3a 4b3d 5a41 2e3e
00000060: 740a 263e 8e39 22be 3458 8cbd e2a0 1abe
00000070: 90b9 32be 9040 32be f793 89bd cc16 1fbd
00000080: eaba 03be fdf3 2bbe 4f87 33be 2c8e 713d
00000090: fc9a b4bd 687f b63c 1dab afbd 30e9 50bd
000000a0: 3cbc e73d 5c64 dd3d 7a33 213e 12a0 3a3e
000000b0: 50e4 59bc 042c 11be 4050 77bd d010 87bd
000000c0: ec8f 033e 9448 423d d4c2 673d 2846 8c3d
000000d0: 4084 e43b ae04 05be e0c3 ec3d 342f 723d
000000e0: bf1a 24be 46a6 263e d0e3 b23d 0257 1fbe
000000f0: 58a7 66bd 422a 303e 48cc 943d dc0f a83d
00000100: bd03 b3bd b91c 28be e07d 47bd 6807 bcbc
00000110: 1cec 313e fcbb 073e 4a8c 063e 9aca 74bd
00000120: 1c58 fe3d 6237 e3bd e041 f63c 4829 6bbd
00000130: ba92 2a3e e03a 1b3d 002f 1bba 3c94 16be
00000140: 7c23 703d 0e3e 073e 3c91 653d a0e7 f63d
00000150: f51b 29be 724e babd 24c0 093d 6c07 f13d
00000160: a537 e7bd 88ea 913c c981 8cbd 18ef 9cbc
00000170: 00e9 be3c 7058 703d b82b 393e 0b1b 9bbd
00000180: 94ea 6bbd d585 08be 6874 063e 88ab 4c3d
00000190: 9747 e4bd b093 91bc 426b 263e c0c2 0f3c
000001a0: 7ff3 0bbe aa7b 8bbd 40f4 d5bc 3046 b3bc
000001b0: b06e 58bc 4092 373c 92ec 26be 48b8 db3d
000001c0: e4c4 16bd f04f 653d 9c10 153d 6d9d b1bd
000001d0: 28ea 9f3d 7341 c4bd 16c0 1c3e 28dc 1abd
000001e0: 0336 b1bd fbe6 a3bd 9049 8c3d 2837 9f3d
000001f0: 3ac3 0dbe 9e51 1c3e 6865 2cbd 061e 2e3e
00000200: 10e9 263e 0048 d63b 9b40 e1bd a45e 013e
00000210: 60a7 783c 5072 82bd f884 f03c 9798 10be
00000220: 109b 2e3e be33 0e3e c80e ef3d 3c1a b93d
00000230: 6051 7ebc 6812 d8bc 6086 3a3e 7ffc f2bd
00000240: cc26 003e e02f 203c e4b2 02bd 5c9d 7ebd
00000250: 2e8e 34be 5a6b 7cbd f970 293e 334c 99bd
00000260: 0d0c 423d 5f18 76be 24dc 063e f0e4 bdbd
00000270: 1090 1138 5e36 edbc 87fa a33d 0739 87be
00000280: 83a7 bfbd d5fa 073e d20a 05be b956 34bd
00000290: 6b99 50bd 7792 28be 859d dc3c 6c82 f1bd
000002a0: 724a 81be e19a e4bd aced 94bd f562 d83d
000002b0: 72f1 dabc 7ec7 51be 2737 093d fa70 ad3d
000002c0: 0589 07bd 0e81 37bd e650 a93d 3952 4b3d
000002d0: 55ea 553d ee3e 7b3e cffd 87be 2f1f b43d
000002e0: abd4 62be 8ef1 29bd e3d4 863d 8991 dcbc
000002f0: 5790 bd3d 90a7 993c df23 b43d ec93 73be
00000300: b4e1 243e 738b 8cbb bb8a 463e 7891 193d
00000310: 6d55 0d3d 4bc6 a93e 6b6a a5bc ac1b 5cbc
00000320: 588a 19bd 0b2d 0bbe f15e d9bd 7d9e 213d
00000330: ecbf bcbb 75d7 12be 7fa8 133e bad1 a63d
00000340: 2360 77bd 0908 6b3d 3cb8 b6bd aae5 283e
00000350: 0480 2d3e b046 f2bc b0c7 773c a0a1 903b
00000360: e292 91bd 7e8c 293e 9cae 183e 5eef 273e
00000370: c6d6 cfbd 48ab a8bc 0a1a 063e 4daa 19be
00000380: 30b6 98bc 70cb ffbd 4475 003d f427 68bd
00000390: c8fa ee3c 50b4 bebd 7dc4 0dbe d657 0abe
000003a0: 40d1 11be 5407 2abe c0cf 2fbd 8c61 f73d
000003b0: e006 a53c 7a19 1b3e c01e 163e 8b80 2dbe
000003c0: cfaf 4a3d d185 8b3c 346b 863e 43c9 d73c
000003d0: 2120 12b9 4d5a efbd 645c 973d f9a2 c03d
000003e0: d907 bf3d 6c57 bf39 8d02 d9bd 861a 8a3d
000003f0: 6de7 aebd 252d 5dbd dba8 bdbc d9a0 2e3d

fc1.bias f4 [64]
-0.006743595 0.12850639 0.12310317 -0.008323237 0.031591833 0.054719523 -0.22612374 -0.05537297
0.10915859 -0.18213145 0.1784103 -0.05798626 -0.06047292 -0.012529914 0.012733668 0.008780658
0.063810736 -0.012161955 -0.06660369 -0.0046492163 -0.18126781 0.008900215 -0.0686358 -0.026151448
0.18260679 -0.3328937 0.10313925 -0.21063556 0.21797714 0.077337205 0.092716455 -0.08170144
-0.019261733 0.012566107 0.08161721 -0.021304693 0.123253584 -0.22605026 0.024910167 0.12536263
-0.12772413 -0.010449883 0.08903436 -0.12546247 -0.06455621 0.13680357 -0.2261668 0.23264733
-0.041133255 0.14790335 0.0071249306 -0.07684245 0.23034482 -0.09125643 0.17041972 -0.13325572
-0.11389753 -4.4971704e-05 -0.009406586 -0.025766162 0.07137725 -0.12635833 -0.060419787 0.12950647
00000000: 60f9 dcbb 2e97 033e 841d fc3d 305e 08bc
00000010: 7066 013d 9421 603d fb8c 67be c4ce 62bd
00000020: 8a8e df3d ab80 3abe 31b1 363e 0083 6dbd
00000030: 74b2 77bd 454a 4dbc e0a0 503c c0dc 0f3c
00000040: 34af 823d f042 47bc 8467 88bd 7458 98bb
00000050: 459e 39be 35d2 113c ed90 8cbd 903b d6bc
00000060: 46fd 3a3e 0b71 aabe ac3a d33d d9b0 57be
00000070: 6635 5f3e f862 9e3d 20e2 bd3d 1653 a7bd
00000080: c8ca 9dbc 13e2 4d3c ec26 a73d 2e87 aebc
00000090: 606c fc3d b879 67be 6810 cc3c 105f 003e
000000a0: 1dca 02be fc35 2bbc a657 b63d 3c79 00be
000000b0: 0c36 84bd 3c16 0c3e 4598 67be 1a3b 6e3e
000000c0: 587b 28bd fa73 173e 4078 e93b 935f 9dbd
000000d0: 83df 6b3e a7e4 babd 8282 2e3e 3074 08be
000000e0: 1c43 e9bd 00a0 3cb8 151e 1abc 8f13 d3bc
000000f0: 3c2e 923d 1464 01be bd7a 77bd 589d 043e

fc2.weight f4 [3, 64]
-0.06375061 0.115382835 0.019649714 0.026796833 0.01183407 0.034701936 -0.029287025 0.0008896291
0.016239453 -0.048982516 0.04763152 0.11861931 0.012837559 0.056062058 -0.10711302 0.10823129
-0.09266907 0.12431927 -0.06881872 0.011363091 -0.028607145 -0.00035914007 0.031048492 0.0006252229
-0.09607171 0.096104726 0.106824294 -0.09624743 0.15515675 -0.12273191 0.117125034 -0.0009108611
0.040005326 0.03736039 0.09822877 -0.04818124 0.00796099 -0.06891658 0.06956561 0.05513797
0.06989248 -0.038524885 -0.02628335 0.105109885 0.049076173 0.03586379 -0.08169062 0.107830346
0.08394547 0.012051217 0.007592559 0.061889097 -0.09513077 0.022526274 0.061257824 -0.116972625
0.006874025 -0.052975073 0.028738271 -0.026989045 0.11867413 -0.018076863 0.12937196 0.1059234
0.05164087 -0.015858173 0.08766125 0.049040362 0.07259242 -0.035208438 0.033497375 0.020516187
-0.02142879 -0.0016880184 -0.060312085 -0.118759096 0.057592645 -0.12478244 -0.07970652 0.055246457
0.08065288 -0.041544512 -0.07290213 0.011324902 -0.119409814 -0.01960826 -0.033423483 -0.10203865
-0.002261228 0.013487887 -0.07614283 -0.03040309 -0.105654635 -0.028777793 -0.13764153 0.03790723
-0.12042111 -0.019068062 0.10928449 -0.06684075 0.02683127 -0.01108543 0.10796481 -0.102447405
0.02214481 -0.014604315 -0.08314893 0.082400054 0.022631776 -0.040712845 0.020994408 -0.12521027
0.05241382 -0.10485264 0.07200521 0.03385149 0.12607239 0.02327071 -0.05223541 0.076201886
-0.023907945 -0.1220984 0.020870578 -0.04613851 0.061056525 0.034862686 -0.09322363 -0.030967653
-0.04229237 0.05575736 -0.076921895 0.10147719 0.09348017 0.057491064 -0.06477108 -0.089810655
0.09808342 0.045251727 0.07682412 0.046429187 0.04721859 -0.074191086 -0.027901888 0.049844608
-0.12162469 0.0526063 -0.08102165 -0.026598765 -0.04463896 -0.10339155 0.011522502 0.058190748
-0.02709718 0.0016859181 -0.025234684 0.055585787 -0.08471071 0.08649345 0.095449485 -0.00822279
-0.028450996 0.05988876 0.029691488 -0.07645463 0.07626873 0.014192845 0.04239042 0.04661753
0.06822574 0.07730055 0.017906511 0.0659782 0.016112063 0.077599525 0.08871749 0.066267036
-0.003761217 0.12622467 -0.08409689 0.078575864 0.044857502 0.12540849 -0.015602276 0.0456983
0.09577356 0.0912403 0.105348475 -0.017377213 -0.114064515 0.01859959 -0.06282546 -0.0022541136
00000000: ae8f 82bd d64d ec3d 70f8 a03c 0885 db3c
00000010: b0e3 413c 9e23 0e3d 58eb efbc 0036 693a
00000020: 9a08 853c e4a1 48bd 4519 433d aeee f23d
00000030: a054 523c 54a1 653d 125e dbbd 5ea8 dd3d
00000040: 48c9 bdbd 1a9b fe3d d4f0 8cbd 422c 3a3c
00000050: 8859 eabc f74a bcb9 6859 fe3c 00e6 233a
00000060: 3fc1 c4bd 8ed2 c43d b2c6 da3d 5f1d c5bd
00000070: 69e1 1e3e de5a fbbd 40df ef3d dbc6 6eba
00000080: a0dc 233d 3507 193d 2a2c c93d b159 45bd
00000090: d06e 023c 2324 8dbd 6a78 8e3d 5ad8 613d
000000a0: ca23 8f3d 45cc 1dbd 2e50 d7bc da43 d73d
000000b0: 1904 493d e9e5 123d 694d a7bd 28d6 dc3d
000000c0: 9aeb ab3d 7872 453c 00cb f83b 6c7f 7d3d
000000d0: ecd3 c2bd 0589 b83c 7ce9 7a3d 588f efbd
000000e0: 803f e13b 64fc 58bd 866c eb3c 2118 ddbc
000000f0: 6c0b f33d ee15 94bc 157a 043e 5eee d83d
00000100: 6085 533d 00e9 81bc be87 b33d 8cde 483d
00000110: 56ab 943d b936 10bd 8b34 093d 9011 a83c
00000120: 6e8b afbc 8040 ddba ce09 77bd f837 f3bd
00000130: 44e6 6b3d f08d ffbd 2c3d a3bd 1c4a 623d
00000140: 562d a53d 942a 2abd b64d 95bd 158c 393c
00000150: 228d f4bd 80a1 a0bc 10e7 08bd a4f9 d0bd
00000160: 1c31 14bb 4cfc 5c3c c6f0 9bbd e70f f9bc
00000170: 7561 d8bd 68bf ebbc e7f1 0cbe 9d44 1b3d
00000180: 589f f6bd a034 9cbc 8cd0 df3d cee3 88bd
00000190: 40cd db3c aa9f 35bc a81c dd3d f2cf d1bd
000001a0: 0869 b53c f046 6fbc fc49 aabd 5cc1 a83d
000001b0: 4666 b93c 83c2 26bd 77fc ab3c 1f37 00be
000001c0: e0af 563d fbbc d6bd 7877 933d dca7 0a3d
000001d0: 1f19 013e 37a2 be3c ccf4 55bd bc0f 9c3d
000001e0: 98da c3bc ba0e fabd c6f8 aa3c bcfb 3cbd
000001f0: 6816 7a3d 2dcc 0e3d 08ec bebd e0af fdbc
00000200: c43a 2dbd d461 643d 3a89 9dbd 46d3 cf3d
00000210: 8872 bf3d c07b 6b3d b3a6 84bd a6ee b7bd
00000220: f6df c83d e059 393d f755 9d3d 882c 3e3d
00000230: 4868 413d 7ff1 97bd 8092 e4bc dc29 4c3d
00000240: 5e16 f9bd b479 573d aeee a5bd a7e5 d9bc
00000250: 58d7 36bd f3be d3bd e0c8 3c3c 6c59 6e3d
00000260: e8fa ddbc 06fa dc3a f8b8 cebc ecad 633d
00000270: cf7c adbd 7a23 b13d 057b c33d e2b8 06bc
00000280: 1012 e9bc eb4d 753d 903b f33c 3f94 9cbd
00000290: c832 9c3d 1b89 683c 94a1 2d3d 06f2 3e3d
000002a0: f0b9 8b3d c04f 9e3d adb0 923c 941f 873d
000002b0: 72fd 833c 80ec 9e3d 84b1 b53d 03b7 873d
000002c0: c07e 76bb 0a41 013e fe3a acbd 62ec a03d
000002d0: 80bc 373d 156b 003e b0a0 7fbc 242e 3b3d
000002e0: ee24 c43d 32dc ba3d f1c0 d73d a85a 8ebc
000002f0: a89a e9bd 2b5e 983c a3aa 80bd c0b9 13bb

fc2.bias f4 [3]
-0.10577726 -0.0067420523 0.0577284
00000000: c0a1 d8bd 6fec dcbb 9d74 6c3d

fc3.weight f4 [1, 3]
-0.0024214745 -0.051516727 0.04107215
00000000: 9ab1 1ebb 3403 53bd 453b 283d
