res/european/qnn/models/qnn_2.pt (torch, 10783 bytes, 5 tensors)

fc1.weight f4 [64, 30]
-0.004785487 0.04032559 0.18934439 -0.038972154 -0.11541556 0.005771413 -0.13244027 0.05175582
0.01469811 0.08161377 0.12793072 0.095478415 -0.13196798 -0.052698717 -0.051994838 -0.17351583
0.1082313 0.13937862 0.015035243 0.16854917 -0.096362144 0.10932352 0.05261943 -0.14309086
0.17175283 -0.021438057 0.10552695 0.08836376 -0.10575376 -0.008240969 -0.075310744 -0.14286587
-0.14032137 0.009604797 0.017051533 0.15774176 -0.116740435 -0.012199715 -0.05764871 0.08251491
-0.15675643 0.097997606 -0.17406398 -0.07716831 0.16067886 -0.16508557 0.15659702 0.15275514
-0.0007559508 -0.18183045 0.014445752 0.016285077 0.17838919 0.043255195 -0.0120534 -0.00055348873
0.10170603 0.11680034 0.17723814 -0.046140254 -0.14066406 -0.15790212 0.07491642 0.1561878
0.038420662 -0.091703296 0.08863023 -0.13985081 -0.12557265 0.02870594 0.0124197155 -0.04958199
0.1784533 -0.073277436 -0.0034322739 0.18040714 -0.17430897 0.11807042 0.0803006 -0.11044759
0.14237028 -0.056702167 0.008145526 0.098089874 0.14781767 0.025587082 0.17222977 0.013936818
-0.013885573 0.17788547 -0.17411692 -0.17135881 -0.0058873743 -0.042968646 -0.12599981 0.089880645
0.05020371 0.14973643 0.16920078 -0.10175649 -0.09248602 0.15740183 0.16608584 0.14526758
0.014390841 0.069791704 -0.020668134 0.08808732 0.096250504 -0.06743557 0.05457528 0.005972907
0.0028863847 0.049665958 -0.041384533 -0.12924221 0.18149093 0.09217429 0.07506356 -0.11603533
-0.17614837 -0.007155046 0.083684325 -0.035098776 -0.023382574 0.12399 -0.14498545 0.16281992
-0.089623235 -0.023079753 -0.10941306 0.08217049 0.08525038 0.05240318 -0.022680983 -0.17194828
-0.043082103 0.0137295425 0.065908834 0.11736089 -0.12307964 -0.10371475 0.16790241 0.0800699
0.10532865 0.11714196 -0.16983141 0.012220085 -0.105589285 0.12299746 0.10548454 0.13198832
0.061213873 0.11100597 -0.22486286 -0.1507387 0.18556099 0.13974003 -0.007372182 0.056299824
0.06557734 0.00071804965 0.028900418 -0.114942156 0.14007661 0.018021664 -0.018943725 0.024123207
0.056712914 0.002214461 -0.25580037 -0.19369978 0.004951367 0.052399028 0.22891463 -0.14454716
0.059433937 -0.07525711 0.17452405 -0.1535377 0.18579479 0.021710327 0.074118346 0.24535504
-0.0988431 0.22497012 0.025627028 0.1073662 -0.100920126 0.0745009 0.16395219 -0.058166936
0.084986895 -0.2562314 -0.118538156 0.21413258 0.011071406 -0.050226223 0.13329089 0.07552696
0.00369654 0.07606155 -0.10287788 0.07014915 -0.04691707 0.15253182 0.075239 -0.040635347
0.4338562 0.12453928 0.10516815 -0.107115544 -0.12039582 0.13443445 0.11981683 0.10445275
0.18956271 0.07213567 -0.079402916 0.14307576 -0.053448323 -0.07612455 0.16758917 -0.18338391
0.04168757 0.19514549 0.13797972 0.046353806 0.044432282 -0.12757653 -0.13396282 0.0672536
-0.16600257 0.14470764 -0.18401887 0.13558635 0.117115416 0.14359468 0.16113949 0.12831925
0.12867998 -0.022727739 0.050273106 0.11348863 0.12311162 -0.07948529 -0.074702375 0.08260274
0.088721216 0.03643404 -0.055527397 0.049037483 0.07831911 -0.1006241 0.079884306 -0.09289109
00000000: 93cf 9cbb 722c 253d 7fe3 413e 44a1 1fbd
00000010: fe5e ecbd 1f1e bd3b 6c9e 07be e9fd 533d
00000020: 57d0 703c 1f25 a73d 4500 033e 308a c33d
00000030: 9d22 07be 9cda 57bd 8af8 54bd 22ae 31be
00000040: 5fa8 dd3d 45b9 0e3e 6156 763c 2798 2c3e
00000050: 8459 c5bd 02e5 df3d 7987 573d 6986 12be
00000060: f9df 2f3e dd9e afbc 831e d83d 0ff8 b43d
00000070: 6d95 d8bd 2105 07bc 853c 9abd 6e4b 12be
00000080: 68b0 0fbe 705d 1d3c a8af 8b3c 0e87 213e
00000090: 9c15 efbd 50e1 47bc 0e21 6cbd 94fd a83d
000000a0: c284 20be f8b2 c83d d43d 32be 6b0a 9ebd
000000b0: 0089 243e 310c 29be f85a 203e d86b 1c3e
000000c0: 002b 46ba c331 3abe e0ad 6c3c 4868 853c
000000d0: a8ab 363e 5c2c 313d a07b 45bc 0018 11ba
000000e0: 404b d03d 0435 ef3d ea7d 353e 90fd 3cbd
000000f0: 3d0a 10be 18b1 21be c86d 993d b2ef 1f3e
00000100: fc5e 1d3d f0ce bbbd c483 b53d 0d35 0fbe
00000110: 1e96 00be b828 eb3c 107c 4b3c 7c16 4bbd
00000120: 76bc 363e 7b12 96bd 00f0 60bb a6bc 383e
00000130: 0d7e 32be e8ce f13d a474 a43d 5932 e2bd
00000140: 84c9 113e 8840 68bd d074 053c 58e3 c83d
00000150: 845d 173e 009c d13c 005d 303e 4057 643c
00000160: 5080 63bc 9c27 363e b54b 32be af78 2fbe
00000170: e0ea c0bb e4ff 2fbd 1806 01be 5813 b83d
00000180: 68a2 4d3d 8254 193e f842 2d3e b565 d0bd
00000190: 4f69 bdbd f22d 213e 6812 2a3e 06c1 143e
000001a0: 90c7 6b3c f4ee 8e3d 3850 a9bc 2067 b43d
000001b0: fc1e c53d a91b 8abd 548a 5f3d 60b8 c33b
000001c0: 8029 3d3b 886e 4b3d d482 29bd 1258 04be
000001d0: c2d8 393e e0c5 bc3d ecba 993d eea3 edbd
000001e0: 3d60 34be e074 eabb b062 ab3d bcc3 0fbd
000001f0: d08c bfbc 78ee fd3d 1177 14be 44ba 263e
00000200: 638c b7bd c011 bdbc f413 e0bd 0049 a83d
00000210: c097 ae3d b8a4 563d 78cd b9bc 3613 30be
00000220: dc76 30bd e0f1 603c 36fb 863d e85a f03d
00000230: 2e11 fcbd 6668 d4bd 9cee 2b3e b0fb a33d
00000240: 8cb6 d73d 20e8 ef3d 49e8 2dbe c036 483c
00000250: 323f d8bd 18e6 fb3d 4708 d83d f227 073e
00000260: 66bb 7a3d 1957 e33d 7342 66be 3f5b 1abe
00000270: b303 3e3e 0318 0f3e 5892 f1bb a59a 663d
00000280: 6a4d 863d 7f3b 3c3a 92c0 ec3c cb66 ebbd
00000290: 3e70 0f3e 2ba2 933c df2f 9bbc 089e c53c
000002a0: cd4b 683d 7e20 113b 44f8 82be 3c59 46be
000002b0: 143f a23b 5da0 563d 9968 6a3e 2c04 14be
000002c0: 0071 733d 6620 9abd 6fb6 323e fd38 1dbe
000002d0: fd40 3e3e dbd9 b13c 5ccb 973d 5a3e 7b3e
000002e0: 406e cabd 915e 663e c6ef d13c cfe2 db3d
000002f0: 36af cebd ee93 983d 15e3 273e 7440 6ebd
00000300: 9c0d ae3d c330 83be 22c4 f2bd 9245 5b3e
00000310: d864 353c 03ba 4dbd 687d 083e e1ad 9a3d
00000320: a641 723b 28c6 9b3d a3b1 d2bd 5caa 8f3d
00000330: 1d2c 40bd 4d31 1c3e e816 9a3d 4071 26bd
00000340: 6622 de3e 730e ff3d 6662 d73d 655f dbbd
00000350: 1592 f6bd 2fa9 093e 8762 f53d 53eb d53d
00000360: ba1c 423e debb 933d ff9d a2bd 7482 123e
00000370: a1ec 5abd 30e7 9bbd 7f9c 2b3e fec8 3bbe
00000380: 96c0 2a3d 38d4 473e 8e4a 0d3e 7ddd 3d3d
00000390: a0fe 353d 6ca3 02be 8d2d 09be 41bc 893d
000003a0: 94fc 29be 3d2e 143e 716f 3cbe 26d7 0a3e
000003b0: 35da ef3d 7c0a 133e c001 253e 1f66 033e
000003c0: afc4 033e 862f babc 2ceb 4d3d ba6c e83d
000003d0: f221 fc3d 2fc9 a2bd 8ffd 98bd a02b a93d
000003e0: 78b3 b53d dc3b 153d b270 63bd 87db 483d
000003f0: c565 a03d 0214 cebd 629a a33d af3d bebd

fc1.bias f4 [64]
-0.025108999 0.01333268 -0.1054749 0.11256641 -0.17340785 0.005823681 0.0041728825 0.020676592
0.22539394 -0.02376452 0.042614743 -0.19145691 -0.22672482 0.15242377 -0.08880332 0.0064227674
-0.11998359 -0.16639745 -0.07370232 0.03102304 -0.14254038 0.15136093 -0.22457866 -0.051234275
0.008659169 -0.089296274 0.075999044 -0.08448149 -0.10508765 -0.07199085 -0.22474426 -0.21568915
-0.08735887 -0.06318376 0.14656776 -0.17495842 -0.054741487 0.12027851 0.09717965 -0.17622457
-0.18033199 -0.04180844 0.22270004 0.0437097 0.14085072 -0.10678708 0.12342761 0.016202753
-0.031945378 -0.022398524 -0.23231165 0.032764867 0.17438269 -0.040856823 -0.07353332 0.18060258
-0.15899655 0.031928215 0.0007137954 -0.09236363 0.05415997 0.015561685 -0.049437076 -0.12784846
00000000: 63b1 cdbc 5071 5a3c 3903 d8bd 3889 e63d
00000010: d491 31be 94d4 be3b adbc 883b f561 a93c
00000020: abcd 663e d0ad c2bc cc8c 2e3d 480d 44be
00000030: 8d2a 68be fa14 1c3e 84de b5bd 1476 d23b
00000040: f5b9 f5bd 1864 2abe 3ef1 96bd 0824 fe3c
00000050: 1bf6 11be 5cfe 1a3e f3f7 65be 08db 51bd
00000060: 30df 0d3c f7e0 b6bd 63a5 9b3d a204 adbd
00000070: 3238 d7bd f06f 93bd 5c23 66be 9edd 5cbe
00000080: 35e9 b2bd 7d66 81bd dc15 163e 4d28 33be
00000090: 9c38 60bd 9454 f63d 2006 c73d 3774 34be
000000a0: f3a8 38be 543f 2bbd 7b0b 643e f108 333d
000000b0: 2c3b 103e 2fb3 dabd 9dc7 fc3d a3bb 843c
000000c0: 28d9 02bd 1c7d b7bc 1be3 6dbe 7434 063d
000000d0: 6091 323e 7c59 27bd a398 96bd e2ef 383e
000000e0: fecf 22be 29c7 023d 001e 3b3a 2529 bdbd
000000f0: d8d6 5d3d 70f6 7e3c 887e 4abd b5ea 02be

fc2.weight f4 [2, 64]
0.025118232 -0.08108343 0.112253055 -0.08742955 0.066791505 -0.026843077 0.074042484 0.0592546
0.10383648 0.11813241 0.08755866 -0.0033275676 -0.080096304 -0.06728628 -0.02652824 -0.108939305
0.08029629 0.09538847 0.11450616 0.12154271 -0.07320668 0.10580232 0.0147421425 0.064395316
0.115239814 0.040815223 -0.0097193085 -0.101741925 0.044510063 -0.04893265 0.07181443 -0.02295037
0.05241081 -0.032899812 0.083854556 -0.052963316 0.1015424 0.10232465 0.034884587 0.009201542
0.02045766 -0.10156646 0.109320454 -0.03942478 0.027697876 -0.027921692 0.0295531 0.089879505
0.048794314 -0.0008553523 0.0027807183 0.04097029 0.041472122 -0.027738826 -0.121400714 0.092851155
-0.012610406 -0.040629793 -0.0065465868 -0.11150323 -0.06482512 0.043438807 -0.018328343 -0.006994862
-0.07003623 0.10311794 -0.027268022 0.122768804 -0.101367965 0.07718081 0.1662547 0.1350156
0.21807285 -0.08259374 -0.008272603 0.059612688 -0.08224252 -0.08635579 0.08565092 -0.03846528
-0.049110234 0.02607973 0.10721495 0.04602161 0.11632839 0.10798277 0.11813723 0.06538398
0.11578937 0.18748987 0.13600087 0.10913339 0.24661954 0.06959293 -0.08750926 0.07942256
-0.08902772 0.045039028 -0.01989144 0.0014620572 0.07229392 0.0714197 0.029555753 -0.00022168458
0.15519209 0.10297476 0.23056124 0.19491526 -0.08304343 -0.04859492 0.07110788 0.20633759
-0.014007881 0.06353964 0.0011808958 0.14678064 -0.12145971 0.013572747 -0.052074477 -0.021981543
-0.055871174 0.25536674 0.06254396 0.018695354 -0.05710408 0.058046818 0.039917912 0.0054381853
00000000: c0c4 cd3c 120f a6bd eee4 e53d 440e b3bd
00000010: fcc9 883d 03e6 dbbc 96a3 973d f4b4 723d
00000020: 38a8 d43d 68ef f13d f451 b33d 5213 5abb
00000030: 8809 a4bd 64cd 89bd c051 d9bc 921b dfbd
00000040: 6272 a43d 085b c33d 3582 ea3d 62eb f83d
00000050: 62ed 95bd e3ae d83d 0789 713c b1e1 833d
00000060: da02 ec3d dd2d 273d bc3d 1fbc 125e d0bd
00000070: 2f50 363d 9a6d 48bd 7213 933d 6a02 bcbc
00000080: b8ac 563d f4c1 06bd f0bb ab3d 10f0 58bd
00000090: 76f5 cf3d 968f d13d 24e3 0e3d 10c2 163c
000000a0: d396 a73c 1402 d0bd 67e3 df3d e17b 21bd
000000b0: a8e6 e23c 08bc e4bc 5819 f23c bf12 b83d
000000c0: 8cdc 473d b939 60ba b63c 363b 76d0 273d
000000d0: acde 293d 893c e3bc f0a0 f8bd bf28 be3d
000000e0: e09b 4ebc 6d6b 26bd c084 d6bb ce5b e4bd
000000f0: 08c3 84bd e4ec 313d 5225 96bc 2835 e5bb
00000100: 286f 8fbd 802f d33d 3061 dfbc 366e fb3d
00000110: 029a cfbd f910 9e3d ac3e 2a3e 8841 0a3e
00000120: 7d4e 5f3e e826 a9bd d089 07bc 6f2c 743d
00000130: c46e a8bd 4edb b0bd c069 af3d c58d 1dbd
00000140: d027 49bd 28a5 d53c 8393 db3d 2881 3c3d
00000150: 943d ee3d 1226 dd3d eff1 f13d 09e8 853d
00000160: fa22 ed3d 58fd 3f3e d043 0b3e 5481 df3d
00000170: d589 7c3e bd86 8e3d 0e38 b3bd 4ca8 a23d
00000180: 2a54 b6bd d87a 383d 60f3 a2bc 80a2 bf3a
00000190: d60e 943d 7e44 923d e81e f23c 0074 68b9
000001a0: adea 1e3e 6ee4 d23d 3f18 6c3e de97 473e
000001b0: ac12 aabd 780b 47bd 02a1 913d 294a 533e
000001c0: 5081 65bc 1221 823d 4ac8 9a3a aa4d 163e
000001d0: debf f8bd 3a60 5e3c 0c4c 55bd a312 b4bc
000001e0: 2cd9 64bd 6ebf 823e 0c17 803d 0027 993c
000001f0: f8e5 69bd 80c2 6d3d f780 233d ce32 b23b

fc2.bias f4 [2]
0.195531 0.12651266
00000000: 4739 483e 898c 013e

fc3.weight f4 [1, 2]
-0.07761715 -0.07142384
00000000: bef5 9ebd aa46 92bd
