res/european/qnn/models/qnn_7.pt (torch, 12063 bytes, 5 tensors)

fc1.weight f4 [64, 30]
00000000: ced9 0c3e 1321 f43b 8ab9 dfbd e680 593e
00000010: 1373 e6bd 5c2a fa3d b283 9e3e b9a0 273d
00000020: 52f9 ca3d 4597 603e 9fcd a8bc 5c1d 39be
00000030: a09d 773e 2c33 803d a471 87bd c4fc 693e
00000040: 315f 463e d75d 003e e644 983d 59a3 a33c
00000050: aab3 3cbe 7b1b 7cbd c1a1 36be ddea ecbd
00000060: fe46 16be 038f 0fbe d464 0f3e e4b6 0e3e
00000070: cf44 f63d b5f2 883a 2ec1 533e 1a70 823d
00000080: 8590 0fbe b112 d9bc 8793 6c3c ad26 94bd
00000090: 0308 8a3e c5c0 ecbc ece6 e8bd 4b58 e93d
000000a0: f00a 21be 2131 ff3d e177 d93d aacb 5abd
000000b0: 60f8 8c3d a31a 8c3e 93c4 123d 04b2 14be
000000c0: 5a86 da3d db45 6e3c 91a0 d2bd 5436 c33d
000000d0: 856d 153e 3b95 f5bd ca9c 30be 3248 243d
000000e0: e5ad 1ebd 95d1 253e 868c 063e 13fb 5e3d
000000f0: 0dba 48bb 9fbb 84bd 7844 10be e895 233e
00000100: 08b4 68be 892f fc3c 38b0 acbd 59e4 bfbd
00000110: 2628 673e 3baf 423b 263e 373e 7aa3 92bd
00000120: ced8 963d 34cd 0fbd 4a8f 873d e9f1 223e
00000130: 26c4 983e 9314 393d e16e 383d 237f 84be
00000140: 3676 fa3d 5138 90bd ccdd 4cbd 6579 91be
00000150: a6bf 223d 029c cf3c 09a3 10be 2dc7 063e
00000160: d6a0 89bc af71 cebd c226 093e ded5 2b3d
00000170: b562 d13d eb58 0a3e d873 2d3e 2a36 1b3e
00000180: 4921 dc3c 7523 15bd c87a 9d3d e5e1 36be
00000190: 8c53 e93d 9b70 5d3e 7861 2d3e c40a 25be
000001a0: 7e84 9bbd 215d 383e 30d2 56be cdbc 9abd
000001b0: 761a 0b3e 1f3e fe3d 88b1 36bd 7668 083e
000001c0: 76a8 a3bd a7be 083e 6fcc 01be 7c8c ad3d
000001d0: b82e 233e b45c 2c3e 0f1f 583e 3a1a 013e
000001e0: c440 853e 3876 ec3d c017 8dba 259f 8ebc
000001f0: d532 1cbe 82d5 dc3b 384c 2d3d 2882 d2bd
00000200: 800b b73d 05be 163d d480 d9bd 320d 1fbd
00000210: ace8 383a d474 b83d fe8c 1f3e 64b5 613c
00000220: fc6e f73d 737d b03d 8501 db3d 1954 fe3d
00000230: 97e9 46bd 963c ecbd 5ac4 88bd a0e1 1e3e
00000240: 21cf b0bd 033f 4c3d e0fd 0dbe c21a 9fbd
00000250: ca13 093e 12da a43e 647c b4bd f039 443c
00000260: 07a4 0abe 7eb8 313e 385e 093e 1801 933c
00000270: e84d f23d a575 19be 8595 99bd 744f e73d
00000280: ec21 33be 11c3 38be ac2b febd 7c3b b93d
00000290: 0034 72bb 3c94 383e 3011 eabd 6e88 123e
000002a0: ee72 333e 3c90 0cbe 2d86 16be fc0b 6a3d
000002b0: 5c6b 133d b6c0 0bbe 1024 f4bd 4054 e33c
000002c0: b488 123e 20a3 803d e062 933d c065 a7bb
000002d0: e836 5dbd b4d4 353e fac4 c6bd 00b8 8a39
000002e0: 9f60 e3bd 32cd fbbd 822f 6ebd c258 ffbd
000002f0: 6efe 113e 62a2 2e3e 3295 e1bd 4d80 33be
00000300: f890 a93d 91a9 e9bd f839 0c3e a428 983d
00000310: 4640 333e a05a 2e3e 5440 01bd ac9a aa3d
00000320: 70b8 013e 356e b4bd 3d08 f3bd e5ef 92bd
00000330: 92a3 1c3e b4ad 7a3d f0d1 693c b809 c13c
00000340: dc77 123e bcd6 0dbe 0627 14be f443 1dbd
00000350: 4c42 f7bd a4b0 833d 400f 4e3d 3d6d 1dbe
00000360: d6b4 283e 7485 b33d 24c0 b33d 5165 1ebe
00000370: 6092 0f3c 08cc e7bc 209d 053e fc34 71bd
00000380: 38d9 51bd 8ed3 123e cc67 3abd 3884 80bc
00000390: 1803 863c 142b 1a3d 9ef5 29be f004 34bd
000003a0: 2039 54bd a8c0 143d 4616 07be 1db0 33be
000003b0: a4d8 17be 5e25 1e3e 58f5 243e bebf 223e
000003c0: 60b8 103e b4d6 bf3c 4401 f9bc 90db ca3d
000003d0: 7f2f 80bd fac2 d4bc 8d63 94bd 0ab2 27bd
000003e0: e13a 8abd 8ef6 22be 9441 d2bd 5033 2abe
000003f0: e34a a7bd 7eb8 0b3e 9da9 5d3e 8c39 d93c
0.13754961 0.007450232 -0.10924061 0.21240577 -0.112524174 0.12215111 0.3095985 0.04092476
0.09910835 0.21932705 -0.02060586 -0.18077606 0.24181223 0.0625976 -0.06613472 0.22850329
0.1937225 0.12535797 0.07435016 0.019975351 -0.18427911 -0.061549645 -0.17835142 -0.11568234
-0.14675519 -0.14019398 0.14003307 0.13936955 0.12024843 0.0010448309 0.20679161 0.06369038
-0.14019974 -0.02649817 0.01443947 -0.07233939 0.26959237 -0.028900513 -0.1137217 0.11393794
-0.15726829 0.124605425 0.10618568 -0.053416885 0.06883311 0.27364072 0.035832 -0.14521033
0.10670157 0.014543022 -0.10284532 0.09531847 0.1459256 -0.11991354 -0.1724731 0.040107913
-0.038740057 0.1619323 0.13139543 0.05443866 -0.0030628473 -0.064810984 -0.14088619 0.15975153
-0.22724926 0.030784385 -0.084320486 -0.09369726 0.22573909 0.0029706496 0.17894801 -0.07160087
0.07365571 -0.035107806 0.06619127 0.15912594 0.2983715 0.045185637 0.045027617 -0.25878248
0.12229578 -0.070419915 -0.05001621 -0.2841293 0.03973355 0.025342945 -0.14124693 0.13161917
-0.016800325 -0.10080277 0.13393691 0.041952007 0.10223905 0.13510482 0.16938722 0.1515738
0.02687134 -0.036410768 0.07689434 -0.1785961 0.113928884 0.21624987 0.16931713 -0.16117388
-0.0759363 0.18004276 -0.20978618 -0.07555542 0.13584313 0.124141924 -0.0446029 0.13321099
-0.07991116 0.13353978 -0.12675641 0.08474061 0.1593579 0.16832238 0.21105598 0.12607661
0.26025975 0.11545986 -0.0010764524 -0.01740987 -0.15253766 0.0067393193 0.042309016 -0.102787316
0.0893774 0.03680231 -0.10620275 -0.038830943 0.0007053714 0.09006658 0.15581128 0.013776157
0.120817155 0.086176775 0.10693649 0.12418384 -0.048562612 -0.11534993 -0.06678076 0.15515757
-0.08633257 0.04986478 -0.13866377 -0.077687755 0.13386455 0.32197624 -0.08812788 0.011976704
-0.13539134 0.17355534 0.13414848 0.017944857 0.11831266 -0.14986284 -0.07499222 0.11294451
-0.17493409 -0.18043162 -0.124106735 0.09044549 -0.0036957264 0.18025297 -0.114290595 0.14309856
0.17524311 -0.13726896 -0.14699621 0.057140335 0.035991058 -0.13647732 -0.11920941 0.027750134
0.1430996 0.062811136 0.07196593 -0.005108565 -0.05400744 0.17756921 -0.09705539 0.00026458502
-0.111024134 -0.12294997 -0.058150776 -0.12468101 0.14257213 0.17054132 -0.11014785 -0.17529412
0.08279604 -0.11409295 0.13693988 0.074296266 0.17504987 0.17026758 -0.03155549 0.083302826
0.12668014 -0.08810083 -0.11866806 -0.071746625 0.15296772 0.061200812 0.014271244 0.023564205
0.14303535 -0.13851446 -0.14468011 -0.038394883 -0.12073192 0.06430176 0.050307512 -0.15373702
0.16475233 0.087656885 0.08776882 -0.15468337 0.008762926 -0.028295532 0.1304822 -0.05888842
-0.051232547 0.14338514 -0.045509145 -0.015688047 0.016358897 0.03763874 -0.16597602 -0.04395002
-0.05181229 0.036316544 -0.1319209 -0.1754765 -0.14828736 0.15443942 0.16109216 0.15893456
0.14132833 0.023417808 -0.030396111 0.099051595 -0.06259059 -0.025971878 -0.0724555 -0.040941276
-0.067495115 -0.15914366 -0.10266414 -0.16621137 -0.081685804 0.13644597 0.21646734 0.026516698

fc1.bias f4 [64]
00000000: 5112 913d 118b 9b3e 15b3 e4bc e710 053e
00000010: ed77 8d3e 8c73 d0bd 4b77 29be 3a71 0e3e
00000020: 0b18 043d 5488 273d 942b 21bd 1811 553d
00000030: 28bf 8f3d d8a9 0fbe d925 41be fd77 733c
00000040: 16e1 f5bd 2c85 69bd 9e2c 2a3e ce37 133e
00000050: 52c0 f6bd db16 bcbd d7e6 213d 1763 00be
00000060: c261 933d 5145 bdbd b13e 153e 13af 8d3c
00000070: 007d 313e adf1 8fbd 584e bf3c eaac 643e
00000080: 70a6 b0bd 57d8 9c3a 177b b4bd 5ac1 313e
00000090: b4d1 45be b5b3 d53d b0de 0abe efc7 d53d
000000a0: 4256 033e e067 47bc 15cb 143e c9a0 843e
000000b0: ac4b 143e ca4a 49bd 7791 8a3e 9b27 88bd
000000c0: a26f 7abd 3f25 6a3d 1ef1 603d 1ea4 353e
000000d0: de86 513e 9734 4cbe 9147 31be 1c17 adbd
000000e0: f080 503d 9eab 22be 5669 2e3e 6df7 02be
000000f0: 9a35 e2bd 4b53 2dbe 1d2f 31be 8502 2cbe
0.07083572 0.30379537 -0.027917424 0.12994729 0.2763056 -0.10178289 -0.16549413 0.1391038
0.03224949 0.040901497 -0.0393482 0.052018255 0.07018882 -0.14029634 -0.18862094 0.01486015
-0.12005822 -0.05701177 0.16618583 0.14376757 -0.12048401 -0.09184047 0.039526787 -0.125378
0.0719638 -0.09241737 0.14574696 0.017295396 0.1733284 -0.07028518 0.023352787 0.22331586
-0.086254954 0.001196633 -0.0881254 0.17358914 -0.19318277 0.10434667 -0.13561511 0.10438525
0.12825873 -0.012170762 0.14530595 0.2590392 0.14481992 -0.04914359 0.27064106 -0.06648179
-0.061141618 0.057164427 0.054917447 0.17738387 0.20461604 -0.19941936 -0.17312457 -0.084516734
0.050904214 -0.1588578 0.1703237 -0.12789698 -0.1104538 -0.16926305 -0.17303129 -0.16797836

fc2.weight f4 [7, 64]
00000000: e440 d83d c3b8 d53d 1e83 a5bd fdaf 823d
00000010: 3331 163e 883b 9fbc 585b 7cbd 6ecb 803d
00000020: a2b4 80bb 8532 39bd c058 96bb 7a1b a2bd
00000030: 7884 8cbd d654 923d 3462 26bc e5ba e03d
00000040: fa13 fd3c c2d6 843d ccdc c13d 7f50 ed3d
00000050: c61f 93bd d00d 343d 431a 853d a535 bc3c
00000060: f88c 293d cd95 4abd 71bc 21bd 2227 8fbd
00000070: 1409 2dbc 1082 8bbc 4037 ae3c 5dac 963d
00000080: 48c4 15bd 95e3 9a3c d018 d33d c84d 84bc
00000090: b457 0cbe bcc9 103d c418 01bd 94ec 3e3d
000000a0: f20c de3d 7009 cbbc f7db ec3c 0e73 873d
000000b0: 1d69 c23d 2836 833d a422 903d 9614 0bbd
000000c0: 8c45 a63d 3fea 26bd 7c68 8b3d e8d9 f8bc
000000d0: ffbe 123e 6114 e3bd d06b c23c 42ce d23d
000000e0: b61b 193e c85b fe3d 601f eb3d 820e 7c3d
000000f0: d35b a7bd ac57 8cbd e647 f83d b3c6 f63d
00000100: 574b 8b3d e06e dc3d 2688 823b 5ee9 f7bb
00000110: 5fdd 283e cc2c 71bd 0e5f cf3d 0c98 70bd
00000120: c340 6a3d 65fe 703b a2a0 fe3d b049 713d
00000130: f0cd 59bc 9230 bcbd ea8f cdbd 5156 ab3b
00000140: 6a1d 9a3d 4ced 673b c0da 04bc 7e5e 563c
00000150: 2c33 00be 5851 70bc f4df c33d ab5e e13c
00000160: 17e0 553d 9855 a83d 7c90 edbc 1050 cc3d
00000170: 65df 80bd e0d3 d5bb e88c aabc c719 c23c
00000180: 9ade f6bd 2ad4 ba3d 00c0 2d3a 9c43 fe3d
00000190: ae21 493c 116f a13c 8e9a e8bd 0671 eb3d
000001a0: fe52 f0bd f7ce 56bc 7ad2 053e 3dda 3fbd
000001b0: 7567 5b3d f883 133d d03d 0bbd 2a87 a5bd
000001c0: c21e 80bd ef5c 8dbd 32bc 6c3b e88d a9bd
000001d0: 3b90 f83d f29e f2bb 1c18 8e3d d078 cc3d
000001e0: 296e f23d 9c2b 8c3d 3f95 9a3d 624c bd3d
000001f0: fca1 be3d 9a20 ae3d 6003 5c3c 12fa dc3d
00000200: 86dd 88bd cea5 afbd c743 913c e2b8 90be
00000210: 32ef 9ebd bcec e13d 3c5b 3ebd f402 aabd
00000220: 4b56 d6bd 01f9 87bd 4022 b73c 145b c23d
00000230: 5a78 97bd 08a2 c83d c673 863d 02cf 1abe
00000240: 62a9 d13d 3743 ae3d 04fc e0bd 5003 bebc
00000250: 26a1 c73d eb7e 10be bed3 893d d25a 84be
00000260: 9773 2fbd 9376 bd3d 8ad1 0bbe 099d 8bbe
00000270: e1f7 90bd ee8c 9a3d 724d f93d d382 f9bd
00000280: 6045 bebb 5e09 4ebe 2207 f3bd 067d cebd
00000290: 6a2d 853d 7a87 68be 8884 753d ac50 91be
000002a0: d000 d23c b665 acbd c65f f6bd fcb9 76be
000002b0: 7d99 04be e29f 56bc 3dc0 04be fdbc dd3d
000002c0: f872 fd3c 6c06 43bd b62e 77be 30c9 49bc
000002d0: 378a 64bd 5777 6abd 808b 15bc 5cda 37bd
000002e0: bbaa 61be 2a10 93bd 6f04 cabd 8f27 c0bc
000002f0: d24d 163d 26d1 93bd 6abf da3d fa53 9cbd
00000300: 1cb6 e3bd 9dec 7abd 3e9a e3bb cacb adbc
00000310: ef31 45bc 0470 4cbd dacc c93d 2cfb a5bd
00000320: 930f 07bd 9a66 12bd 4057 b23d ecf6 6ebd
00000330: 4e12 8ebd fc79 d23d 5d23 193d c53a 9fbd
00000340: a471 eebd 467b 33bd 6089 ad3c 045b b6bd
00000350: 411f c6bd 4b4e 82ba bb20 5bbd ace9 113d
00000360: f5f0 adbd ba85 ba3d a3c6 833d d456 bbbd
00000370: 4610 73bc 0cca 76bd 9046 533c 87ea 49bc
00000380: b0fc 8bbc 3e14 283d 0cf5 0c3d 9800 c53c
00000390: d5d9 043a 09ec e53b 68db f6bd db71 92bd
000003a0: a8b4 f93d bafb 57bd b263 d8bd 12fd 5a3d
000003b0: a0dd 533c 607b a2bc 8946 01be 802e c4bb
000003c0: e048 8cbd a202 8e3d f4c2 aebc 10e5 dbbc
000003d0: eabb 2d3d 3c91 88bc 6a11 c9bd 9e55 9ebd
000003e0: 110d 913d f815 243d 3187 79bd cb81 14bd
000003f0: 4b50 ecba 409b ae3b 08ef f2bd c99b 2a3d
0.10559252 0.10435631 -0.08081649 0.06381223 0.14667206 -0.019437566 -0.06161055 0.06288801
-0.003927783 -0.045214195 -0.0045882165 -0.07915397 -0.06861204 0.071450874 -0.010155249 0.10973147
0.030893315 0.06486274 0.09465942 0.11587619 -0.07183795 0.043958485 0.0649915 0.022974798
0.041394204 -0.049459267 -0.039486352 -0.06989886 -0.010561246 -0.017029792 0.02126658 0.073570944
-0.03656414 0.018907348 0.10307467 -0.01615037 -0.13705331 0.03534864 -0.03151776 0.046612337
0.10842313 -0.024784774 0.028913481 0.06613742 0.09492705 0.06406814 0.07037857 -0.03395518
0.08118734 -0.04075074 0.06807038 -0.030377343 0.14330672 -0.11087871 0.02373305 0.10293247
0.14951977 0.1241985 0.11480594 0.061537273 -0.08171811 -0.068526596 0.121230885 0.120496176
0.06801479 0.10763335 0.0039835153 -0.0075656613 0.16490696 -0.058880612 0.10125552 -0.058738753
0.057190668 0.0036772725 0.12432982 0.058908165 -0.013293728 -0.091889516 -0.10037215 0.0052287956
0.075251415 0.0035389243 -0.008108795 0.013084052 -0.1251952 -0.014667831 0.095642 0.027510962
0.05221566 0.08219451 -0.02899956 0.09976208 -0.06292609 -0.0065255016 -0.020819142 0.023693932
-0.12054177 0.09122498 0.00066280365 0.12415239 0.012276096 0.01970628 -0.11357604 0.11496167
-0.117345795 -0.013110868 0.13068572 -0.046838988 0.05356546 0.036014527 -0.033994496 -0.08082421
-0.062558666 -0.06902491 0.0036122915 -0.082790196 0.12136885 -0.0074042017 0.06938192 0.09983981
0.11837418 0.06844255 0.07547998 0.092430845 0.0930824 0.08502312 0.013428539 0.107898846
-0.06682877 -0.085765466 0.017732514 -0.28266054 -0.07760467 0.110314816 -0.046473727 -0.083013445
-0.10465678 -0.066392906 0.022355199 0.09490028 -0.07396002 0.0979653 0.06565051 -0.1511803
0.10237385 0.08508914 -0.10985568 -0.023194939 0.097475335 -0.14110915 0.0672984 -0.2585054
-0.042834844 0.09251132 -0.13654152 -0.27268246 -0.07078529 0.075464115 0.12172975 -0.12183156
-0.00580661 -0.20120761 -0.11866595 -0.1008244 0.06502803 -0.2270793 0.059940845 -0.2838186
0.025635153 -0.08417837 -0.12029986 -0.24094385 -0.12949176 -0.0130996425 -0.12963958 0.10827062
0.03093861 -0.047613546 -0.24138913 -0.012316033 -0.055795874 -0.057242718 -0.009127498 -0.044885978
-0.22037785 -0.071808174 -0.09864127 -0.023456363 0.03669531 -0.07217626 0.106810406 -0.07633205
-0.11118719 -0.06126081 -0.0069458773 -0.021215338 -0.012035831 -0.049911514 0.098535255 -0.08104548
-0.032973837 -0.03574238 0.08708048 -0.05834095 -0.06937085 0.10277173 0.03738724 -0.07774881
-0.11642769 -0.043818735 0.02118367 -0.089040786 -0.0967393 -0.0009941546 -0.05349801 0.035623237
-0.084932245 0.091075376 0.06434371 -0.091474205 -0.014835423 -0.06025128 0.012895241 -0.012323982
-0.017088264 0.04103493 0.034413382 0.024048135 0.000506786 0.007016663 -0.12053567 -0.071506225
0.121926606 -0.0527303 -0.1056589 0.053464003 0.0129312575 -0.01983422 -0.12624563 -0.0059869885
-0.06849837 0.06934096 -0.021333195 -0.026842624 0.042415537 -0.016670816 -0.098177746 -0.07731174
0.0708257 0.040060014 -0.060919944 -0.036256593 -0.00180293 0.005328566 -0.11861998 0.041652475

fc2.bias f4 [7]
00000000: 6899 413e 15a0 07be 1ea6 12be c9cc dfbd
00000010: 13b6 0f3e 9e6e 87bd 231d 1f3a
0.18906176 -0.1324466 -0.14321181 -0.109277315 0.140343 -0.066128954 0.00060697104

fc3.weight f4 [1, 7]
00000000: 117c 2abd 4385 09bc 9277 ba3c 54b5 473c
00000010: 5076 763d 5c7a 773d 3118 57bb
-0.041622225 -0.0083935885 0.022762094 0.012189228 0.060171425 0.060419425 -0.0032820816
