res/european/qnn/models/qnn_8.pt (torch, 12319 bytes, 5 tensors)

fc1.weight f4 [64, 30]
0	0x3e0f657e	0.1400356
1	0x3e6585d1	0.22414328
2	0x3e0dbde2	0.13841966
3	0x3e0396a0	0.12850428
4	0xbdf3b365	-0.11899451
5	0xbd5b1e39	-0.05349562
6	0x3e5172a3	0.20453887
7	0x3e3a486f	0.18191694
8	0xbd5c9df4	-0.053861573
9	0x3ab7b6b9	0.0014016248
10	0xbdcc6269	-0.09979708
11	0xbdb3b2d8	-0.08774346
12	0xbdc3c8f9	-0.09559817
13	0xbe01be1c	-0.12670177
14	0x3d3ded5f	0.046368953
15	0x3e5cf9ab	0.21579616
16	0x3df8a3b1	0.12140597
17	0xbdd4073c	-0.10352942
18	0xbd29e1a2	-0.041474946
19	0xbcaad15a	-0.02085178
20	0xbe7173f5	-0.2357939
21	0x3d81e012	0.06341566
22	0xbe1ccff5	-0.15313704
23	0x3e333cce	0.17503664
24	0xbe542fca	-0.20721355
25	0x3d362092	0.044464655
26	0xbc802732	-0.01564369
27	0x3d95aa62	0.073078886
28	0xbdffecef	-0.12496363
29	0xbe262f0a	-0.16228881
30	0xbde69680	-0.11259174
31	0xbd0dbe4c	-0.03460531
32	0xbe301df8	-0.17198932
33	0xbdeb0e74	-0.11477366
34	0x3e1d88d8	0.15384233
35	0x3d8d1088	0.06887919
36	0x3e22840e	0.15870687
37	0xbc942ed0	-0.018088728
38	0xbb388c40	-0.0028159767
39	0x3d178c60	0.036999106
40	0xbdd803c8	-0.10547596
41	0xbe249d4d	-0.1607563
42	0xbc565e20	-0.013083965
43	0x3da044b8	0.07825607
44	0x3dd923d4	0.10602537
45	0xbd926362	-0.07147862
46	0x3d917ee0	0.071042776
47	0xbdc4c2cd	-0.09607468
48	0xbc07a380	-0.0082787275
49	0x3db23a64	0.087025434
50	0xbdd25834	-0.1027073
51	0xbda338cb	-0.07969817
52	0xbdec10c9	-0.11526639
53	0xbe028fea	-0.12750211
54	0x3dae403c	0.085083455
55	0xbe179aee	-0.14805195
56	0xbcc5bce0	-0.024137914
57	0x3dac8d88	0.084254324
58	0x3dcddff0	0.10052478
59	0x3e0798e4	0.13241917
60	0xbcbfc85c	-0.023410968
61	0xbd33572f	-0.043784317
62	0x3c84860a	0.016177196
63	0xbd92dc43	-0.07170918
64	0x3e12d476	0.1433886
65	0xbe2723ba	-0.16322222
66	0xbdaaee67	-0.08346253
67	0x3d1f559f	0.038900014
68	0xbca00d0f	-0.019537477
69	0xbd4760e0	-0.04867637
70	0xbd378b3d	-0.044810522
71	0x3e12b855	0.1432813
72	0x3af18d97	0.0018429038
73	0xbe39c335	-0.18140872
74	0x3e163cdb	0.14671652
75	0xbe24c1ba	-0.16089526
76	0xbe0fdded	-0.14049502
77	0xbdc5588c	-0.096360296
78	0xbe1497d7	-0.14511047
79	0x3cd5686d	0.02605077
80	0x3de7a1ef	0.11310183
81	0x3cfc0f0d	0.030768896
82	0x3cb32c30	0.021871656
83	0x3dc2e200	0.09515762
84	0x3c3e4d9d	0.011615184
85	0xbdd4f7e3	-0.10398843
86	0x3daf3740	0.0855546
87	0x3c2c1527	0.01050309
88	0x3de1063b	0.109875165
89	0x3de9aa70	0.114094615
90	0xbd226648	-0.039648324
91	0x3dcd2444	0.10016683
92	0xbd06494c	-0.032784745
93	0x3cb3e480	0.021959543
94	0xbd6b21a4	-0.05740513
95	0xbe0812ec	-0.13288468
96	0x3df1bef0	0.118039966
97	0x3d9f7c48	0.07787377
98	0xbd5f504c	-0.054519936
99	0xbe383aec	-0.17991227
100	0xbe1bea2f	-0.15226053
101	0xbde6b8c7	-0.11265712
102	0xbd9ce531	-0.07660902
103	0xbdfe1534	-0.12406388
104	0x3e13e9fc	0.14444727
105	0xbdb1b3dc	-0.086768836
106	0x3d8b94c4	0.06815484
107	0x3dc5a704	0.09650996
108	0x3d7525fc	0.059850678
109	0xbe106cc3	-0.1410399
110	0xbdac90f6	-0.084260866
111	0xbd794a76	-0.060862027
112	0x3d156f84	0.036483303
113	0xbe1b09cf	-0.1514046
114	0xbe0449fe	-0.12918851
115	0xbd1213e4	-0.0356635
116	0xbd1478c4	-0.036247984
117	0x3d4a0288	0.04931882
118	0x3e13f0f0	0.14447379
119	0x3d6e65a4	0.0582024
120	0xbd20901c	-0.039199933
121	0xbdb89b25	-0.090139665
122	0x3e2f827a	0.17139617
123	0x3e138f98	0.14410245
124	0xbdb44e01	-0.088039406
125	0x3df3d0c4	0.11905053
126	0xbe2b20d3	-0.1671174
127	0xbe286627	-0.16445218
128	0x3df4be70	0.119503856
129	0x3e166884	0.14688307
130	0x3dcf75cc	0.1012989
131	0x3d2de0cc	0.04245071
132	0x3d6019a0	0.054711938
133	0x3e261f46	0.16222867
134	0x3e34a79a	0.1764206
135	0xbd96264d	-0.07331524
136	0xbd83ded8	-0.064389884
137	0x3e2b8142	0.16748527
138	0xbe18fad7	-0.14939438
139	0xbce654a0	-0.028116524
140	0x3df919d8	0.121631324
141	0xbe21b57e	-0.1579189
142	0xbe348a4d	-0.17630883
143	0xbd094f30	-0.033522785
144	0x3cc1bfc8	0.023651019
145	0xbdb352ce	-0.08756028
146	0x3c603da0	0.013686568
147	0xbbb61b00	-0.005557418
148	0xbe272510	-0.16322732
149	0xbe0c7a2b	-0.13718478
150	0x3e00e253	0.12586336
151	0x3d9dc2dd	0.07703183
152	0xbd638215	-0.055543978
153	0x3d8ca1ec	0.06866822
154	0xbdca4e5d	-0.09878228
155	0xbddf1fa3	-0.10894706
156	0x3c0ea550	0.008706406
157	0x3d589554	0.052876785
158	0x3e34e963	0.17667155
159	0xbd3ef217	-0.046617594
160	0x3e31167d	0.17293735
161	0x3d81cbe1	0.06337715
162	0x3e1ce312	0.15320995
163	0xbe0c032b	-0.13673083
164	0x3da35565	0.07975272
165	0x3e6d2eed	0.23162432
166	0x3e0cb2c0	0.13740063
167	0x3d987866	0.07444839
168	0x3e01766f	0.12642835
169	0x3d126087	0.035736587
170	0xbe280d21	-0.16411258
171	0xbe5933d0	-0.21211171
172	0x3ca40d5b	0.0200259
173	0x3e3e9b31	0.18613888
174	0xbe90ac26	-0.2825634
175	0xbdf07348	-0.11740738
176	0x3e4b12bb	0.19831364
177	0x3dacb9f2	0.08433904
178	0xbd0139f5	-0.031549413
179	0xbc5690fb	-0.0130960895
180	0xbb784412	-0.003788237
181	0x3d864518	0.06556147
182	0x3e6725d8	0.2257303
183	0x3d00c63c	0.03143905
184	0xbdd71b51	-0.10503257
185	0x3d87684c	0.0661169
186	0x3cedcea2	0.029029194
187	0x3da0d79a	0.07853623
188	0xbd364574	-0.04449983
189	0x3d07e5e7	0.033178236
190	0x3c9be473	0.019029832
191	0x3d49b959	0.049249027
192	0x3d7e1ad7	0.062037315
193	0xbe2ada8f	-0.16684936
194	0xbe4c6f3b	-0.19964306
195	0x3e4f518a	0.20245948
196	0xbba1f486	-0.0049424795
197	0xbdbd8837	-0.092544965
198	0xbe01a2b8	-0.12659729
199	0x3d8b8466	0.068123624
200	0x3c769813	0.015050906
201	0x3e99c39f	0.3003206
202	0xbdd55574	-0.104166895
203	0x3d82295b	0.06355544
204	0xbe56d7c0	-0.2098074
205	0x3dbd37f7	0.0923919
206	0x3d7c9034	0.06166096
207	0x3e2d01fa	0.16895285
208	0x3e105b9f	0.1409745
209	0xbd9aaba4	-0.07552269
210	0xbd8f8bc1	-0.07009078
211	0xbe0aba20	-0.13547564
212	0x3d223d94	0.039609507
213	0x3e1260b8	0.14294708
214	0xbe0f6876	-0.14004692
215	0xbd645028	-0.055740505
216	0xbe293be4	-0.16526753
217	0x3dbeb55c	0.09311935
218	0x3da99528	0.082804024
219	0x3da36788	0.079787314
220	0x3ce92b40	0.028463006
221	0xbd4fb3e0	-0.05070865
222	0xbe2a4f5f	-0.1663184
223	0x3e057c9e	0.13035819
224	0xbe2f570d	-0.17123051
225	0xbde1c8e0	-0.11024642
226	0x3e1ddcc0	0.1541624
227	0x3d477500	0.048695564
228	0x3d215e48	0.039396554
229	0xbe0fcde3	-0.14043383
230	0xbdd9f3a7	-0.10642176
231	0xbcc81e38	-0.024428472
232	0xbd5c1d3c	-0.053738818
233	0x3e28e554	0.16493732
234	0xbe01e28a	-0.12684074
235	0xbe2f93e3	-0.17146258
236	0xbe1fb3ef	-0.15595983
237	0x3dde9844	0.10868886
238	0xbe17d704	-0.14828116
239	0xbc715270	-0.014729127
240	0xbbe049e8	-0.006844748
241	0xbd859ccf	-0.065240495
242	0xbe653d64	-0.223867
243	0x3ddf97af	0.10917603
244	0xbdacdae1	-0.08440185
245	0x3dd12237	0.10211604
246	0x3e670f97	0.22564541
247	0x3e819464	0.25308526
248	0x3d177b33	0.036982726
249	0x3d8738de	0.066026434
250	0x3e06d395	0.1316665
251	0x3c8c7fea	0.017150838
252	0x3e346c4b	0.17619435
253	0x3de890f4	0.113557726
254	0x3e39350d	0.18086644
255	0xbdc3f6fa	-0.095685914

fc1.bias f4 [64]
0	0x3e30a721	0.17251255
1	0xbe15e6a0	-0.14638758
2	0x3dded658	0.108807266
3	0xbc8c7bc0	-0.017148852
4	0x3d28bd64	0.041196242
5	0x3bddd538	0.0067698024
6	0xbdf6e8f9	-0.12056155
7	0xbda9995d	-0.08281205
8	0xbe464a53	-0.1936429
9	0x3e94a88e	0.29034847
10	0xbde0fca4	-0.109856874
11	0xbe23faff	-0.16013716
12	0xbdfbbf92	-0.122923985
13	0xbd907701	-0.07053948
14	0x3dd73df0	0.105098605
15	0xbdd64211	-0.1046182
16	0xbc12ad20	-0.008952409
17	0x3d77fc44	0.060543314
18	0x3e24fe54	0.16112643
19	0xbdf00413	-0.11719527
20	0xbd50918e	-0.05092006
21	0x3e5c9d64	0.21544415
22	0xbe323df8	-0.17406452
23	0xbe23ee8c	-0.16008967
24	0xbddb74dc	-0.107156485
25	0xbcf0856a	-0.029360492
26	0xbd3fa6e4	-0.04679002
27	0xbd21310d	-0.03935342
28	0xbe1b358f	-0.1515715
29	0xbd959fa6	-0.07305841
30	0xbe5f6b87	-0.21818362
31	0x3d75461c	0.059881315
32	0xbe8ba0be	-0.27271074
33	0x3da59698	0.08085364
34	0xbe1ad9da	-0.15122166
35	0x3dd38f6d	0.10330091
36	0xbe5f7792	-0.21822956
37	0x3d56d2bb	0.052447062
38	0x3c3cf910	0.0115339905
39	0x3dc3a0d1	0.09552158
40	0xbe1b4a66	-0.151651
41	0x3e353aba	0.17698184
42	0x3d66dca1	0.056362752
43	0x3d0cbcac	0.03435962
44	0xbdab630a	-0.083684996
45	0xbd8dc7cb	-0.06922873
46	0xbde3993e	-0.11113213
47	0xbdadbe83	-0.08483603
48	0xbdb48a61	-0.08815456
49	0xbd619c2c	-0.055080578
50	0x3dbec38c	0.09314641
51	0xbe2e26d0	-0.17006993
52	0x3e1151ab	0.1419131
53	0xbe1f37e9	-0.15548672
54	0xbe232c69	-0.1593491
55	0x3d62fe88	0.05541852
56	0x3dacbba8	0.0843423
57	0x3e293db2	0.16527441
58	0xbcab9c2f	-0.020948498
59	0xbd80af2f	-0.062834136
60	0x3d033c17	0.032039728
61	0x3d3d7c4f	0.046261128
62	0x3df8e264	0.121525556
63	0x3d04dedd	0.0324391

fc2.weight f4 [8, 64]
0	0x3e1fe76f	0.15615629
1	0x3d94c28c	0.07263669
2	0x3cb860c9	0.022507088
3	0xbdb58018	-0.088623226
4	0x3df223b4	0.11823216
5	0x3d766c8e	0.06016212
6	0xbd88d181	-0.06680585
7	0x3c974218	0.018464133
8	0xbd02f12a	-0.031968273
9	0x3e04a721	0.1295438
10	0x3cb00176	0.021485072
11	0x3c8d9c88	0.017286554
12	0x3df920dc	0.121644706
13	0xbd736f70	-0.059432447
14	0x3d9156db	0.070966445
15	0x3d8a3a26	0.06749372
16	0x3de8ef84	0.11373809
17	0xbb8ea940	-0.0043536723
18	0x3de5401c	0.111938685
19	0x3b8dad3a	0.0043236287
20	0xbd8d545d	-0.06900857
21	0x3e5c6629	0.21523346
22	0x3d16bafc	0.036799416
23	0x3d887b0c	0.06664094
24	0x3e588367	0.21143876
25	0x3deb31cb	0.11484107
26	0x3db24610	0.087047696
27	0x3e2f31b4	0.17108804
28	0xbb8ee679	-0.0043609706
29	0x3e4d1b57	0.2002996
30	0x3d20f56e	0.03929656
31	0x3ccba240	0.02485764
32	0x3dfa3671	0.12217415
33	0x3afd4400	0.0019322634
34	0x3ca085c0	0.019595027
35	0x3cac184a	0.021007676
36	0x3e014774	0.12624913
37	0xbd4d00ee	-0.050049715
38	0x3dd8e22a	0.10590012
39	0x3cb908ac	0.022587143
40	0x3dec36c2	0.11533882
41	0x3dca692c	0.09883341
42	0x3d85daf0	0.065359
43	0xbc071790	-0.008245364
44	0xbdc6327c	-0.09677598
45	0x3de15086	0.11001687
46	0x3cba49af	0.022740213
47	0x3e1c1c59	0.15245189
48	0xbdb6de08	-0.08929068
49	0x3cb63888	0.022243753
50	0xbd2e56ac	-0.042563125
51	0xbc8de9e7	-0.017323447
52	0x3e59b9d0	0.21262288
53	0xbd79cfc8	-0.06098917
54	0x3cfccd1a	0.030859519
55	0x3c9b57b8	0.018962726
56	0xbb996a94	-0.0046818946
57	0x3c8dd380	0.017312765
58	0x3d938019	0.07202167
59	0x3ccb3d78	0.024809584
60	0x3e1097f7	0.1412047
61	0x3dc555f9	0.096355386
62	0x3d125f24	0.035735264
63	0x3e3b2727	0.18276654
64	0xbe505739	-0.20345773
65	0xbda0dc12	-0.07854475
66	0x3ca7335a	0.020410229
67	0xbd1dd334	-0.038531497
68	0x3cfe3cc8	0.031034842
69	0xbd94157a	-0.07230659
70	0xbd6e471a	-0.058173276
71	0xbdf6614c	-0.12030277
72	0xbb2e3cb9	-0.0026586486
73	0x3df2b39e	0.118506655
74	0xbe872aba	-0.26399785
75	0xbbd9bda0	-0.0066449195
76	0xbd64effc	-0.05589293
77	0xbd6a016c	-0.057130262
78	0xbdddc4e1	-0.10828567
79	0xbdc14536	-0.09437029
80	0xbdd4ee08	-0.10396963
81	0x3d8ea8d6	0.06965797
82	0x3bd91c60	0.006625697
83	0x3d7e10f2	0.06202788
84	0xbe118e28	-0.14214385
85	0xbe2e11f6	-0.16999039
86	0xbe0783c5	-0.1323386
87	0xbd477060	-0.048691154
88	0xbe6f3833	-0.23361282
89	0xbe580fb6	-0.21099743
90	0x3dd1113a	0.10208364
91	0xbe577b68	-0.2104317
92	0xbd638f4f	-0.05555659
93	0xbd956a08	-0.072956145
94	0xbd9ea445	-0.07746176
95	0xbda88fee	-0.082305774
96	0xbd349a65	-0.044092555
97	0xbd5bded0	-0.053679287
98	0xbd32a574	-0.04361482
99	0xbe2ff91b	-0.1718487
100	0xbe7becf9	-0.24602117
101	0xbe35aab8	-0.17740905
102	0x3de70278	0.11279768
103	0xbddb0c53	-0.1069571
104	0x3d5509c8	0.05201128
105	0x3db1445a	0.08655615
106	0x3d0ef2e2	0.0348996
107	0xbcfb0290	-0.03064087
108	0xbdcaf488	-0.09909922
109	0xbdb47ed6	-0.088132545
110	0xbe828695	-0.25493303
111	0xbd22a047	-0.039703634
112	0xbd2efdd0	-0.042722523
113	0xbc41ad60	-0.011821121
114	0xbd1c2738	-0.03812334
115	0x3d277cd7	0.04089054
116	0xbe3ca1f2	-0.18421152
117	0x3ce72040	0.02821362
118	0xbd96c90d	-0.07362566
119	0xbdd2c67c	-0.10291764
120	0x3cc58005	0.024108896
121	0xbd878f76	-0.0661916
122	0xbd05a9ed	-0.032632757
123	0x3ac34480	0.0014897734
124	0xbdce3731	-0.10069121
125	0xbe16901d	-0.14703412
126	0x3c722f80	0.014781833
127	0xbe755a6b	-0.23960273
128	0xbd85e9d2	-0.06538738
129	0x3d61d8ac	0.055138275
130	0x3e0f9216	0.14020571
131	0x3d66944c	0.05629377
132	0xbd94a362	-0.07257725
133	0xbe270875	-0.1631182
134	0x3d997b93	0.07494273
135	0x3d7d37c8	0.061820775
136	0x3d762c38	0.060100764
137	0x3d97cfa4	0.07412651
138	0xbe1b3beb	-0.15159576
139	0xbd45ca20	-0.048288465
140	0xbe2c7e07	-0.1684495
141	0x3cf69de8	0.030104592
142	0xbd256707	-0.040381458
143	0x3dca7304	0.09885219
144	0x3d7e2efc	0.062056527
145	0x3ccc3e00	0.024931908
146	0x3d64e5d8	0.05588326
147	0xbd2d02fc	-0.042239174
148	0xbd7690e0	-0.060196757
149	0xbdea24ec	-0.114328235
150	0x3c8ead84	0.017416723
151	0x3d45dc2c	0.048305675
152	0xbdf4244a	-0.11920984
153	0xbe320ce7	-0.17387734
154	0xbcdd6460	-0.027025402
155	0xbcfeb9ec	-0.031094514
156	0xbd94eef3	-0.072721384
157	0xbdbf5490	-0.09342301
158	0xbd8c8459	-0.06861181
159	0xbd90c2fa	-0.07068439
160	0xbd2438ba	-0.04009316
161	0xbde802d0	-0.113286614
162	0x3cae08a0	0.021244347
163	0xbd997ddb	-0.07494708
164	0x3cfa08b7	0.030521734
165	0x3bd2447a	0.0064168544
166	0x3dc5c3fa	0.0965652
167	0x3ce698f9	0.028149115
168	0x3df6fc8e	0.1205989
169	0xbd9e98b0	-0.077439666
170	0x3df96b81	0.12178708
171	0xbd076590	-0.033055842
172	0x3c0d13e0	0.008610696
173	0x3de5b716	0.112165615
174	0x3bb1f051	0.0054302593
175	0x3d1d53b2	0.038409896
176	0x3d850956	0.06495921
177	0x3c609500	0.013707399
178	0xbdb3c902	-0.087785736
179	0x3c0ce5d2	0.008599715
180	0xbc6de6a2	-0.014520319
181	0xbdcf3d96	-0.101191685
182	0xbdfd7519	-0.1237585
183	0xbd4b372c	-0.049613163
184	0xbdffc13a	-0.12488027
185	0x3d58081c	0.05274211
186	0xbe00d74b	-0.12582128
187	0x3c12ca40	0.008959353
188	0x3d04bf44	0.032408968
189	0xbe224046	-0.15844831
190	0xbde14218	-0.109989345
191	0xbe38faa2	-0.18064359
192	0xbdcf85ca	-0.1013294
193	0x3dce28d4	0.10066381
194	0xbd29c856	-0.04145082
195	0x3dc61bd2	0.09673275
196	0xbd69d2e8	-0.0570859
197	0xbd44f97d	-0.048089493
198	0x3e18aa7a	0.14908782
199	0xbdbcc290	-0.09216797
200	0x3be47aad	0.006972632
201	0x3d6d3b39	0.057917807
202	0xbd8a6216	-0.0675699
203	0xbde385f4	-0.11109534
204	0xbce1ca04	-0.027562149
205	0x3d9a7bac	0.0754312
206	0x3de00310	0.10938084
207	0xbd7ec950	-0.062203705
208	0xbbdcfaa0	-0.006743744
209	0xbd4bd9dc	-0.049768314
210	0xbd4d045c	-0.050052986
211	0x3df849b4	0.12123433
212	0xbcd13db1	-0.025542112
213	0xbda455e8	-0.08024198
214	0xbd9f4896	-0.077775165
215	0xbc5eb230	-0.013592288
216	0xbd3543ca	-0.0442541
217	0xbd805ccc	-0.062676996
218	0x3df7508c	0.1207591
219	0x3c9732a4	0.018456765
220	0x3c597b62	0.013274046
221	0xbe4b46c1	-0.19851209
222	0xbd16abae	-0.03678482
223	0xbc830ce8	-0.015997365
224	0xbda46931	-0.08027876
225	0x3b0e1500	0.0021679997
226	0xbb28a400	-0.0025732517
227	0x3c363b95	0.011122604
228	0xbe2be41c	-0.16786236
229	0xbdf02287	-0.117253356
230	0xbdd8d306	-0.105871245
231	0x3de7cac1	0.11317969
232	0x3d73230c	0.059359595
233	0x3dc373f2	0.09543599
234	0x3d9891b5	0.074496664
235	0x3dd4cba8	0.10390407
236	0x3dc74c26	0.09731321
237	0x3db72e6c	0.08944401
238	0x3d8b091c	0.06788847
239	0x3d52f2c8	0.051501065
240	0x3d80123a	0.062534764
241	0x3bc5d500	0.0060373545
242	0xbdfca2b2	-0.12335719
243	0x3d2bd76e	0.041953497
244	0xbe166eda	-0.14690724
245	0x3dd257c6	0.10270648
246	0xbe0153b7	-0.12629591
247	0xbdaf59d4	-0.08562055
248	0x3c8971a5	0.016777823
249	0xbd65b9f8	-0.056085557
250	0x3c499b29	0.0123050595
251	0xbd029b90	-0.031886637
252	0xbdcfec91	-0.10152543
253	0xbd40665c	-0.046972618
254	0x3cf07070	0.02935049
255	0xbe10c591	-0.14137866

fc2.bias f4 [8]
0	0x3dab3a69	0.0836075
1	0xbe518e6b	-0.20464484
2	0x3c3a9976	0.011389127
3	0xbddc68e4	-0.10762194
4	0xbd502d4b	-0.050824445
5	0x3e2c137c	0.16804308
6	0xbd331f67	-0.04373112
7	0xbd384337	-0.044985976

fc3.weight f4 [1, 8]
0	0x3bfc7c1f	0.007705226
1	0xbccd9397	-0.02509479
2	0x3cee63f3	0.029100394
3	0xbaa9379e	-0.0012910252
4	0xbdcf40ef	-0.10119807
5	0xbd4dd338	-0.050250262
6	0xbae17ac5	-0.0017202726
7	0xbd6accbf	-0.057324167
