res/european/qnn/models/qnn_1.pt (torch, 10527 bytes, 3 tensors)

fc1.weight f4 [64, 30]
0.18427885 0.10210374 0.10239927 0.13657652 0.09743477 -0.039539494 -0.06341869 -0.11714955
-0.005852063 -0.1962973 -0.20650768 0.12195931 -0.14981273 0.20668031 0.051687643 0.12085022
0.037682608 0.1632129 0.049735695 0.10409322 -0.14716247 -0.10820701 0.22824752 -0.17018765
-0.0925818 -0.044194542 0.24218409 0.13751675 0.012127861 -0.0057013747 0.025542159 0.2368313
-0.16215064 0.1715164 -0.112771824 0.20477603 -0.027702376 0.015357032 0.08943892 0.3001855
0.12653849 -0.14735056 0.1958596 0.060948372 0.30852592 0.15436791 -0.017321937 0.020399306
0.2437065 0.0035338353 -0.049449865 -0.10800536 0.12539689 -0.0049786577 -0.03724956 -0.06413311
0.23133093 0.12956625 0.046973944 -0.20049526 -0.025083631 -0.16526414 -0.14954275 0.091211885
-0.083174944 -0.11414349 0.04889749 0.06317416 0.05519317 -0.03981714 -0.055283338 0.16005468
0.14196685 0.1391289 0.15656379 -0.060551338 0.07503596 0.10018122 -0.18193054 -0.12647173
0.14537016 -0.015148774 0.08801073 0.08211213 0.0040786564 0.02757597 0.105074495 -0.045946494
-0.03140086 -0.13820843 -0.055897884 -0.06833894 0.10990457 0.11909948 -0.08772289 -0.011481481
-0.19650657 0.00042856304 0.121524684 0.04855745 -0.0034087354 -0.022035507 0.042700373 -0.075481504
-0.13331477 0.12291391 0.17959161 0.15481126 0.116792165 0.03467929 -0.09978416 -0.06230089
0.16924268 0.11755845 0.03478147 0.054428935 -0.12613563 0.04155285 -0.12507764 0.10583877
-0.005247439 0.10183626 0.12437486 -0.22002605 0.21198659 0.093949534 0.07960179 -0.08791906
-0.09937821 0.12342137 -0.21176942 -0.048792984 0.030883642 -0.08811926 -0.08970286 0.16793099
-0.17623408 -0.024970846 -0.20028768 0.088116966 -0.064403854 -0.16074485 0.049424943 -0.06149782
0.018520262 -0.09629711 0.07840438 0.20868823 -0.0958223 -0.011689698 -0.00079431385 0.115835175
-0.013454546 0.21109448 -0.09452059 0.068217464 0.04683637 -0.07420406 -0.12769805 0.16745926
0.23580633 -0.0011918066 0.21916956 -0.057425596 0.1308964 -0.045118604 -0.031610698 -0.0719342
0.15127413 -0.22102271 0.029449966 0.18281783 0.13633053 -0.028653271 -0.20501703 -0.022688344
-0.013744312 0.10818102 -0.029577527 0.11485182 -1.618039e-05 0.020487484 -0.056002595 0.30627587
0.0020174102 0.09490788 -0.061872203 0.1331196 0.1034792 -0.0003603522 0.13009378 -0.29449382
0.23459616 -0.04754012 0.051985692 -0.18929274 -0.033478934 0.21736614 -0.08833726 -0.08587693
0.13328171 0.01744142 0.26802504 -0.040278144 0.053090032 -0.17658491 0.1998803 -0.06987153
-0.16557829 -0.25003147 -0.00066506764 0.168814 -0.030104063 0.17887275 -0.058303475 0.062536426
0.007246565 0.25728956 -0.07232058 0.27766216 0.26763132 -0.13805078 0.21444523 0.08894819
0.012852423 -0.0043816892 0.115249984 -0.039487954 0.089799665 -0.222328 -0.09898614 0.10758889
0.0816782 0.22931825 -0.058650527 0.14046445 -0.052341893 -0.18883921 0.13828136 -0.14108062
-0.0034463021 0.14232385 -0.0668565 -0.16347817 -0.105762005 -0.029550526 0.027626947 0.00022800987
-0.16278614 0.15050279 -0.039801143 0.010847515 0.13352916 0.034135893 -0.047462594 0.16229182
00000000: 98b3 3c3e c41b d13d b5b6 d13d b7da 0b3e
00000010: e18b c73d 2af4 21bd a8e1 81bd 1aec efbd
00000020: aac2 bfbb 2902 49be c076 53be cdc5 f93d
00000030: 8268 19be 01a4 533e 6cb6 533d 5280 f73d
00000040: 1459 1a3d 4821 273e a8b7 4b3d d32e d53d
00000050: c2b1 16be a39b ddbd b8b9 693e ac45 2ebe
00000060: 879b bdbd 5605 35bd 1bff 773e 31d1 0c3e
00000070: f0b3 463c 99d2 babb ca3d d13c e883 723e
00000080: d10a 26be ffa1 2f3e eaf4 e6bd cfb0 513e
00000090: 18f0 e2bc 109c 7b3c c12b b73d eab1 993e
000000a0: 4e93 013e 11e3 16be 6b8f 483e 00a5 793d
000000b0: 1cf7 9d3e 9f12 1e3e bce6 8dbc 721c a73c
000000c0: 328e 793e eb97 673b f18b 4abd ea31 ddbd
000000d0: 0b68 003e 0224 a3bb ff92 18bd 3858 83bd
000000e0: 04e2 6c3e 04ad 043e c067 403d a14e 4dbe
000000f0: 307c cdbc 013b 29be bc21 19be 4ccd ba3d
00000100: a057 aabd 10c4 e9bd bc48 483d 7461 813d
00000110: 3c12 623d 4c17 23bd c870 62bd 60e5 233e
00000120: c25f 113e ce77 0e3e 4252 203e ae04 78bd
00000130: 74ac 993d d02b cd3d 004c 3abe ce81 01be
00000140: eadb 143e 9032 78bc f83e b43d 682a a83d
00000150: 40a6 853b 00e7 e13c 4c31 d73d 6432 3cbd
00000160: 309e 00bd 8386 0dbe 2ef5 64bd 49f5 8bbd
00000170: a615 e13d 6eea f33d 0fa8 b3bd d21c 3cbc
00000180: 0539 49be c2b0 e039 efe1 f83d 2de4 463d
00000190: 1765 5fbb cf83 b4bc 96e6 2e3d 0c96 9abd
000001a0: ab83 08be 4aba fb3d dde6 373e d886 1e3e
000001b0: bb30 ef3d df0b 0e3d a35b ccbd 382f 7fbd
000001c0: f44d 2d3e 7cc2 f03d 0477 0e3d e0f0 5e3d
000001d0: b329 01be 5233 2a3d 5a14 00be ffc1 d83d
000001e0: b5f2 abbb 878f d03d 3fb8 fe3d 824e 61be
000001f0: 0313 593e 9d68 c03d 4306 a33d e80e b4bd
00000200: ce86 cbbd 58c4 fc3d 15da 58be 27db 47bd
00000210: b1ff fc3c df77 b4bd 22b6 b7bd 1af6 2b3e
00000220: b576 34be a98f ccbc 3718 4dbe ab76 b43d
00000230: 2be6 83bd 4c9a 24be cf71 4a3d 23e5 7bbd
00000240: ceb7 973c 6b37 c5bd 7a92 a03d 5eb2 553e
00000250: 7b3e c4bd 2686 3fbc 8039 50ba fe3a ed3d
00000260: 7570 5cbc 2729 583e 0394 c1bd 99b5 8b3d
00000270: 7ed7 3f3d 4cf8 97bd 47c3 02be 717a 2b3e
00000280: 3777 713e 6536 9cba fc6d 603e 1a37 6bbd
00000290: b509 063e 49ce 38bd 387a 01bd 3d52 93bd
000002a0: 9be7 1a3e c753 62be 0e41 f13c 9934 3b3e
000002b0: 3b9a 0b3e 44ba eabc fcef 51be e8dc b9bc
000002c0: d32f 61bc 038e dd3d 924c f2bc 6e37 eb3d
000002d0: 1fbb 87b7 5ed5 a73c fa62 65bd 31d0 9c3e
000002e0: 8736 043b 105f c23d b56d 7dbd 8150 083e
000002f0: e7ec d33d a7ed bcb9 4e37 053e e5c7 96be
00000300: fa39 703e 6eb9 42bd f3ee 543d f5d5 41be
00000310: 3521 09bd 3b95 5e3e 2aea b4bd 3ee0 afbd
00000320: 007b 083e 4fe1 8e3c 943a 893e b2fa 24bd
00000330: ef74 593d add2 34be 6cad 4c3e ce18 8fbd
00000340: 5b8d 29be 2004 80be ef57 2eba 94dd 2c3e
00000350: cc9c f6bc 6b2a 373e a0cf 6ebd 1913 803d
00000360: 9874 ed3b 75bb 833e d01c 94bd bc29 8e3e
00000370: f906 893e 2f5d 0dbe 8897 5b3e 782a b63d
00000380: f892 523c 4694 8fbb 2f08 ec3d 1fbe 21bd
00000390: e3e8 b73d f4a9 63be 3fb9 cabd 9057 dc3d
000003a0: e646 a73d 67d2 6a3e 893b 70bd ead5 0f3e
000003b0: 7464 56bd 115f 41be a199 0d3e 7077 10be
000003c0: 5bdb 61bb 58bd 113e 10ec 88bd d266 27be
000003d0: c099 d8bd f213 f2bc e851 e23c ef15 6f39
000003e0: 69b1 26be 671d 1a3e 8606 23bd c7b9 313c
000003f0: debb 083e 14d2 0b3d 2368 42bd d42f 263e

fc1.bias f4 [64]
-0.058751922 -0.13814408 0.10227889 -0.116538756 0.14044084 -0.14534663 -0.11685566 0.090882346
0.08103194 -0.0998884 0.08556914 -0.11129995 0.021970166 0.12894814 0.12311318 -0.12172561
0.095054805 -0.22669461 -0.057238445 -0.15191048 -0.0116992 -0.14756617 0.11189438 -0.12716527
0.11173224 -0.13882928 -0.076207705 -0.075838156 -0.15429004 0.14422378 -0.0036135588 -0.227154
-0.028607741 0.053600494 0.021954238 -0.1288779 0.12582782 0.1538504 -0.12018146 0.049689904
-0.09620197 0.04775016 0.04105869 0.090250164 -0.20209193 -0.117947236 0.068586804 0.14817697
0.10369402 -0.049987227 -0.20470057 -0.098399386 0.092651956 0.14656615 -0.23506778 0.119609654
0.12136981 -0.17907768 0.13821344 -0.21581395 -0.0925769 -0.11947561 -0.1042589 0.02228635
00000000: dba5 70bd a475 0dbe 9877 d13d dfab eebd
00000010: b9cf 0f3e bfd5 14be 0552 efbd 8620 ba3d
00000020: 13f4 a53d 4a92 ccbd e03e af3d 3af1 e3bd
00000030: c7fa b33c fb0a 043e c322 fc3d 474b f9bd
00000040: 18ac c23d a222 68be dc72 6abd 6c8e 1bbe
00000050: 00ae 3fbc 961b 17be e128 e53d 9d37 02be
00000060: dfd3 e43d 4329 0ebe c912 9cbd 0951 9bbd
00000070: 35fe 1dbe 66af 133e 75d1 6cbb 0f9b 68be
00000080: c85a eabc 318c 5b3d 60d9 b33c 91f8 03be
00000090: 02d9 003e f68a 1d3e b321 f6bd a487 4b3d
000000a0: 8a05 c5bd ac95 433d 282d 283d 14d5 b83d
000000b0: 30f1 4ebe 528e f1bd 3d77 8c3d b4bb 173e
000000c0: 885d d43d 68bf 4cbd 079d 51be 9e85 c9bd
000000d0: 4fc0 bd3d 7015 163e 9cb5 70be e8f5 f43d
000000e0: bc90 f83d 2460 37be d387 0d3e 55fe 5cbe
000000f0: f598 bdbd a1af f4bd b185 d5bd dd91 b63c

fc2.weight f4 [1, 64]
-0.09108927 -0.007819671 0.03360313 0.014075987 -0.082460634 0.000218333 4.4966146e-05 0.0063536037
0.061070614 -0.053880226 0.08812021 -0.0150441 0.04989994 0.044851713 0.050688438 0.007871286
-0.13673705 -0.019515676 -0.070158854 0.000423625 0.005005598 -0.14612837 0.02879071 -0.13901268
0.004630694 -0.001361768 0.025457725 -0.016738096 -0.0030701635 0.0035443604 -0.14790115 0.03487445
0.0032372177 0.08055425 -0.11565423 0.08319223 0.036784843 -0.008622035 0.021974467 -0.14848231
-0.0006399934 0.10297875 0.11698528 -0.025092235 -0.15732096 -0.10750561 -0.11210089 0.02069626
0.012031719 0.02700752 -0.18185239 4.911896e-05 -0.037369024 0.018873438 -0.007950409 -0.081097186
-0.022670329 -0.017358024 -0.1395511 -0.0013211531 -0.033074945 -0.00019206232 -0.10623571 0.055348277
00000000: 038d babd 141e 00bc 70a3 093d f89e 663c
00000010: 1fe1 a8bd 52f0 6439 089a 3c38 e431 d03b
00000020: 2e25 7a3d 83b1 5cbd 5e78 b43d 877b 76bc
00000030: e163 4c3d 6eb6 373d ae9e 4f3d 91f6 003c
00000040: cc04 0cbe 57df 9fbc 72af 8fbd fc19 de39
00000050: 0006 a43b ada2 15be 7fda eb3c 5759 0ebe
00000060: 14bd 973b 5a7d b2ba b88c d03c 551e 89bc
00000070: cc34 49bb 8048 683b 6673 17be 83d8 0e3d
00000080: 8027 543b a0f9 a43d 20dc ecbd b060 aa3d
00000090: b4ab 163d 7043 0dbc cc03 b43c bf0b 18be
000000a0: 3bc5 27ba 86e6 d23d fa95 ef3d 3b8e cdbc
000000b0: bf18 21be e72b dcbd 2795 e5bd 348b a93c
000000c0: b020 453c e03e dd3c 8337 3abe 1505 4e38
000000d0: 4310 19bd 789c 9a3c 6f42 02bc 4816 a6bd
000000e0: 20b7 b9bc 6a32 8ebc 7ce6 0ebe 8b2a adba
000000f0: 9879 07bd 5664 49b9 1c92 d9bd e0b4 623d
