res/european/qnn/models/qnn_4.pt (torch, 11295 bytes, 5 tensors)

fc1.weight f4 [64, 30]
0	0xbb8b253d	-0.0042463825
1	0xbe084c6c	-0.13310403
2	0x3de71cf0	0.11284816
3	0x3b93327d	0.0044921027
4	0x3da38e85	0.07986168
5	0x3d8fad6e	0.07015501
6	0xbd5f237b	-0.054477196
7	0xbd65c528	-0.056096226
8	0x3e10cb1c	0.1413998
9	0xbdf03460	-0.1172874
10	0x3bc059f5	0.0058700987
11	0x3da71dd2	0.08159985
12	0x3d948282	0.07251455
13	0x3c71dca9	0.014762082
14	0x3ca40efa	0.020026673
15	0xbd0cefcf	-0.034408387
16	0x3c44ff1b	0.0120237125
17	0x3cc1b22c	0.02364453
18	0x3d963df7	0.073360376
19	0x3dd4fcb5	0.103997625
20	0x3e10832b	0.14112537
21	0x3d8b1dfa	0.06792827
22	0x3cee9c7d	0.029127354
23	0xbe0972ef	-0.1342275
24	0x3ded2e55	0.11581103
25	0xbe14beb6	-0.14525875
26	0x3e07d03d	0.1326303
27	0x3dc449eb	0.09584411
28	0x3cdbad95	0.026816169
29	0xbe22848e	-0.15870878
30	0x3eb8c824	0.36090195
31	0xbe99c431	-0.30032495
32	0x3e7d5a55	0.2474149
33	0xbe8af0eb	-0.2713693
34	0x3e834b01	0.2564316
35	0xbcdcf8a9	-0.02697404
36	0x3dd2e09a	0.102967456
37	0xbd77ca82	-0.06049586
38	0xbe051868	-0.12997591
39	0xbe26cf32	-0.16289976
40	0xbe388685	-0.18020065
41	0x3df5db74	0.12004748
42	0x3d72368d	0.059134055
43	0x3d85001e	0.06494163
44	0xbc055248	-0.008137293
45	0xbe5dd489	-0.21663107
46	0x3ce0f352	0.027459774
47	0x3daf8b9b	0.085715495
48	0x3de50b08	0.11183745
49	0x3cfa0a65	0.030522535
50	0x3e059698	0.13045728
51	0xbe3e245c	-0.18568558
52	0x3e79a00d	0.24377461
53	0xbe14d36e	-0.14533779
54	0x3c01786d	0.007902247
55	0xbcb6e4a3	-0.02232582
56	0x3deaa46e	0.11457144
57	0xbd7df5c1	-0.062001947
58	0xbe88843e	-0.26663393
59	0x3e5cd782	0.21566585
60	0xbd362fec	-0.044479296
61	0xbe12fa40	-0.14353275
62	0xbdd6a5a3	-0.104808114
63	0x3e2a719a	0.16644898
64	0x3bcd2da0	0.0062615424
65	0xbd582184	-0.052766338
66	0xbdb9f6ea	-0.09080298
67	0xbe070c34	-0.13188249
68	0x3d1a0494	0.037602022
69	0xbdac6f84	-0.084197074
70	0x3d785118	0.060624212
71	0x3d6eda44	0.058313623
72	0xbbfddac0	-0.0077470243
73	0x3ded4b40	0.115866184
74	0xbccca8a0	-0.02498275
75	0x3dee28a8	0.11628848
76	0x3e02f6dc	0.12789482
77	0xbe1453d0	-0.14485097
78	0xbde50788	-0.11183077
79	0xbc7180c0	-0.014740169
80	0xbd66f618	-0.056387037
81	0x3e07bb2c	0.13254994
82	0x3c348d80	0.011020064
83	0xbe2b96ba	-0.16756716
84	0x3dacc394	0.08435741
85	0x3e02499c	0.12723392
86	0xbd887532	-0.06662978
87	0x3e066e28	0.13127959
88	0x3e100e72	0.1406801
89	0xbe39431b	-0.18092005
90	0xbaac5ebb	-0.001315079
91	0x3e17b26f	0.14814161
92	0x3cb3825e	0.02191275
93	0x3e49d364	0.19709545
94	0xbe7d5a52	-0.24741486
95	0x3e26240b	0.16224687
96	0x3de5c3fe	0.11219023
97	0x3dfbb344	0.122900516
98	0x3c836e81	0.016043903
99	0x3dd2fb4f	0.103018396
100	0x3ceeab4b	0.029134413
101	0x3dd5dd9d	0.1044266
102	0x3c7a21e7	0.015266872
103	0xbdbfb238	-0.093601644
104	0x3d784414	0.0606118
105	0xbd6d3c99	-0.05791912
106	0x3c32a2af	0.010903045
107	0x3ca883ca	0.020570654
108	0x3cc5c6f2	0.024142716
109	0x3de4ec68	0.111779034
110	0xbe1267f5	-0.14297469
111	0xbbe26a5b	-0.006909651
112	0x3dc5af22	0.096525446
113	0xbe499c38	-0.19688499
114	0x3e3c76de	0.18404719
115	0x3da4825c	0.080326766
116	0x3e4581d3	0.19287805
117	0x3c873a9c	0.01650744
118	0x3dfc9bb9	0.12334389
119	0xbdd005d8	-0.101573646
120	0x3e801d6e	0.25022453
121	0xbd7f5c3d	-0.062343825
122	0x3e6ce79c	0.23135227
123	0xbe1d8eb0	-0.15386462
124	0xbd940c70	-0.07228935
125	0xbe229b7f	-0.1587963
126	0x3c545d9f	0.012961774
127	0x3ad3c943	0.0016158003
128	0xbc3e6ce6	-0.011622643
129	0x3bd33435	0.0064454325
130	0xbe0ceb09	-0.13761534
131	0x3e5e498d	0.21707745
132	0xbd980e30	-0.07424581
133	0x3e69f7eb	0.2284848
134	0x3deac96c	0.114641994
135	0x3d071e02	0.032987602
136	0xbdbe45ab	-0.09290632
137	0x3dd17849	0.10228021
138	0x3c00b105	0.007854705
139	0xbe8432a4	-0.25819886
140	0x3e0608b1	0.13089253
141	0xbd6e85eb	-0.058233183
142	0x3e0fd01e	0.14044234
143	0xbe2b77d5	-0.16744931
144	0xbde895d5	-0.11356703
145	0x3b3a12fd	0.0028392666
146	0x3d9cf0f0	0.07663143
147	0xbe2dfa79	-0.16990079
148	0xbe896e6c	-0.26842058
149	0x3e1faa83	0.15592389
150	0xbdc0c584	-0.09412673
151	0xbd784040	-0.06060815
152	0xbd8ef4ff	-0.06980323
153	0xbd6d8aec	-0.057993814
154	0x3d8a7718	0.067609966
155	0xbd7e259c	-0.062047586
156	0xbe15ca5d	-0.14627977
157	0xbdee6b73	-0.11641588
158	0xbdd95d0d	-0.10613451
159	0xbc821428	-0.015878752
160	0xbe36f02e	-0.17865059
161	0x3e10c5d8	0.14137971
162	0x3e1ba0d4	0.1519807
163	0x3dffad88	0.1248427
164	0xbe26dc68	-0.16295016
165	0x3e126312	0.14295605
166	0xbc36d9a0	-0.011160284
167	0x3d9cf100	0.076631546
168	0xbc27ec40	-0.0102491975
169	0xbcf80af8	-0.030278668
170	0x3d13b008	0.03605655
171	0xbe1bf1d5	-0.1522897
172	0xbe12c991	-0.14334704
173	0xba05f100	-0.0005109459
174	0x3e18fcbe	0.14940163
175	0x3e262ea4	0.1622873
176	0xbbcc1f80	-0.006229341
177	0xbe2594d2	-0.16170052
178	0x3e121628	0.14266264
179	0xbaafc180	-0.0013409108
180	0xbce108a0	-0.027469933
181	0xbe1f3806	-0.15548715
182	0x3def76e4	0.116925985
183	0xbdb0c25c	-0.08630821
184	0x3c29d130	0.010364816
185	0x3d9b3534	0.07578507
186	0xbcf69a38	-0.030102834
187	0xbe38b24c	-0.18036765
188	0x3d6d4aa0	0.057932496
189	0x3a938f80	0.0011257976
190	0x3e188960	0.14896154
191	0x3d45f36c	0.04832785
192	0x3e17c3ce	0.14820787
193	0xbcecfc58	-0.02892892
194	0x3e2c9b08	0.16856015
195	0xbdd07f2d	-0.10180507
196	0xbd21e7c8	-0.039527684
197	0x3dd2e7d8	0.10298127
198	0xbdd177a8	-0.10227901
199	0x3e21dcfc	0.15806955
200	0xbd994ddc	-0.074855536
201	0x3da4af80	0.080412865
202	0xbc2056a0	-0.009786278
203	0xbe059e84	-0.1304875
204	0x3d10bbdc	0.035335407
205	0x3d05df64	0.032683745
206	0x3da6bad0	0.081411004
207	0xbd732aa2	-0.05936683
208	0xbdf51aac	-0.11967978
209	0xbe23cb3e	-0.159955
210	0xbdb98c50	-0.090599656
211	0xbd30a8ee	-0.043129854
212	0xbd859a9d	-0.06523631
213	0x3da706f1	0.08155621
214	0xbd7aceef	-0.061232504
215	0xbcceb211	-0.025231393
216	0xbe2037c9	-0.1564628
217	0xbcc56269	-0.024094777
218	0x3d1cca2b	0.03827874
219	0xbdcd09e5	-0.10011653
220	0xbe0549ec	-0.1301648
221	0x3d4729d2	0.048623867
222	0xbe4d5d1a	-0.20055047
223	0x3c37d7b7	0.011220864
224	0x3d60afde	0.05485522
225	0xbc29fcb2	-0.010375189
226	0x3d0825ec	0.03323929
227	0xbe1564a4	-0.14589173
228	0x3e0e9cdd	0.13927026
229	0xbe089735	-0.13338931
230	0x3c98053f	0.018557189
231	0x3cbd0b90	0.023076802
232	0xbd944a02	-0.07240678
233	0x3e5380e9	0.20654644
234	0xbcb9b579	-0.02266954
235	0xbe1be695	-0.15224679
236	0x3e3833ed	0.17988558
237	0xbe20c9b9	-0.15701951
238	0xbdfdd805	-0.12394718
239	0x3e036513	0.12831526
240	0xba7b5321	-0.00095872773
241	0x3d938485	0.072030105
242	0x3c7acad0	0.015307143
243	0x3d931b1d	0.07182906
244	0xbb4fbd6c	-0.0031698598
245	0xbe412cea	-0.1886479
246	0x3d1d28dd	0.03836905
247	0x3cc8aa42	0.024495248
248	0x3d3daaf6	0.04630562
249	0x3da4b5f6	0.08042519
250	0xbddea5fd	-0.108715035
251	0xbda110ea	-0.07864554
252	0x3dd2316d	0.102633335
253	0xbe35c5f4	-0.17751294
254	0xbe21bcd6	-0.15794691
255	0xbb8c6493	-0.0042844503

fc1.bias f4 [64]
0	0x3db04982	0.086077705
1	0x3dd46c1b	0.10372182
2	0xbca94d00	-0.0206666
3	0x3d4e86bb	0.050421458
4	0x3cdd3d71	0.027006837
5	0x3e1f4e82	0.15557292
6	0x3d3d8458	0.04626879
7	0x3d17d8df	0.03707206
8	0x3d1e353c	0.038624987
9	0xbb10ccdc	-0.0022094762
10	0xbe1f4443	-0.15553384
11	0xbcf31dc0	-0.029677272
12	0x3dfb3375	0.12265674
13	0x39bc1b75	0.0003587861
14	0xbd22d9b2	-0.03975839
15	0x3dfb84d8	0.12281197
16	0x3c8a250e	0.016863372
17	0x3ddc140c	0.10746011
18	0xbc081927	-0.008306778
19	0x3e359d40	0.17735767
20	0x3dee74d2	0.116433755
21	0x3dfc9494	0.123330265
22	0x3e7af46b	0.245073
23	0x3d80d184	0.06289962
24	0xbe8c5f20	-0.27416325
25	0xbd9859eb	-0.074390255
26	0x3e390e73	0.18071918
27	0xbcb0dc10	-0.021589309
28	0xbd33915d	-0.0438398
29	0x3dffd304	0.1249142
30	0x3cec5fd8	0.028854296
31	0xbd265244	-0.0406058
32	0x3d640284	0.05566646
33	0xbe2b05c9	-0.16701426
34	0x3d32e702	0.043677337
35	0xbe0ab732	-0.13546446
36	0xbe43a0e8	-0.1910435
37	0xbe1df3e8	-0.15425074
38	0xbc1b1bb0	-0.00946705
39	0xbd9910cd	-0.074739076
40	0x3db31730	0.08744657
41	0xbe053c32	-0.13011244
42	0x3d18a1c8	0.03726366
43	0x3d52ed58	0.05149588
44	0x3d0dbaf2	0.034602113
45	0x3d4aaef4	0.049483255
46	0xbe3294d9	-0.17439593
47	0x3d73a620	0.0594846
48	0x3df15220	0.11783242
49	0xbc92a2b4	-0.017899849
50	0x3e7cd2c0	0.2468977
51	0x3de65fe1	0.11248756
52	0xbe3cee4c	-0.18450278
53	0xbd2f7a9e	-0.042841546
54	0x3d4b4718	0.049628347
55	0xbdd2fc6e	-0.103020534
56	0x3e049769	0.12948383
57	0x3dbcc515	0.09217278
58	0x3d297bcc	0.041377828
59	0x3e2f15ad	0.17098112
60	0xbe56ee3f	-0.20989321
61	0xbd6f96da	-0.058493473
62	0xbdaebfed	-0.08532701
63	0xbd00482b	-0.031318825

fc2.weight f4 [4, 64]
0	0x3d0868e9	0.033303175
1	0x3e8835bc	0.26603496
2	0x3d1bb838	0.03801748
3	0xbcdb7a0d	-0.026791597
4	0x3e66843d	0.22511382
5	0x3d41f7a8	0.047355324
6	0xbd685498	-0.0567213
7	0x3c86615f	0.016403852
8	0xbd735cbe	-0.059414618
9	0x3cdce5ec	0.026965104
10	0x3d62cb6c	0.05536978
11	0xbd706d64	-0.058698073
12	0x3e95217b	0.29127106
13	0x3d21b6b5	0.039480884
14	0x3dc0d505	0.0941563
15	0xbdc769fa	-0.0973701
16	0x3e4f5eb8	0.20250976
17	0x3c628260	0.013825029
18	0x3d3df2c9	0.046374116
19	0x3e794122	0.24341252
20	0x3e3c3add	0.1838183
21	0x3d3005f1	0.042974416
22	0x3e828e7a	0.25499326
23	0x3c951757	0.018199606
24	0x3c4e1d70	0.012580261
25	0xbd87b2a8	-0.06625873
26	0x3e27bbc2	0.16380218
27	0xbd06dee8	-0.032927424
28	0x3d1c2706	0.038123153
29	0x3d82eff0	0.06393421
30	0xbdf2a534	-0.11847916
31	0x3d497468	0.04918328
32	0xbd8cbdf2	-0.06872167
33	0xbd4f293c	-0.050576434
34	0x3d4d06ff	0.0500555
35	0x3c6fc1c0	0.014633596
36	0x3dbcb9dc	0.09215137
37	0xbd88f948	-0.066881716
38	0xbdd109ee	-0.10206972
39	0x3d1a8104	0.037720695
40	0xbd66381a	-0.056205846
41	0x3dd5efe3	0.104461454
42	0xbd7eaf64	-0.062178984
43	0xbb80e500	-0.003933549
44	0xbd50ce48	-0.050977975
45	0x3e818473	0.25296363
46	0xbd25cfa8	-0.04048124
47	0xbd0ecd73	-0.0348639
48	0xbde30066	-0.1108406
49	0x3e11ba22	0.1423116
50	0x3eaf6c61	0.34262374
51	0x3e2fccea	0.17168012
52	0xbc6286ac	-0.013826054
53	0x3d24c1ec	0.040224
54	0x3d9d4028	0.076782525
55	0xbe08d02b	-0.1336066
56	0x3d9e1367	0.077185445
57	0x3d880c0c	0.06642923
58	0x3d234f24	0.039870396
59	0x3e02c3ea	0.12770048
60	0xbde9ad13	-0.114099644
61	0x3d9218b1	0.07133616
62	0x3c6c68a1	0.014429242
63	0x3bbbd937	0.005732681
64	0xbca6ac8a	-0.020345945
65	0x3e5fccc4	0.21855456
66	0xbd3cba18	-0.04607591
67	0xbbe5695b	-0.0070010847
68	0x3d4c3713	0.04985721
69	0xbde24a26	-0.11049299
70	0xbd026060	-0.03183019
71	0x3db42450	0.087959886
72	0x3d81fbe1	0.0634687
73	0xbc529af7	-0.012854329
74	0x3e35db4f	0.17759441
75	0xbdaafacc	-0.08348617
76	0x3e7db3c2	0.24775603
77	0x3ddd609a	0.10809441
78	0x3df34f5a	0.118803695
79	0x3db45f58	0.08807248
80	0x3e093c4f	0.13401912
81	0xbd00b6cc	-0.03142433
82	0xbc9ef212	-0.019402537
83	0x3e8cde45	0.27513328
84	0x3e89014c	0.26758802
85	0xbba86ab5	-0.0051396736
86	0x3e91ad09	0.28452328
87	0xbdbee5ff	-0.09321212
88	0x3d29721c	0.04136859
89	0xbde1da90	-0.110280156
90	0x3e7606ce	0.24026033
91	0x3dd29a76	0.10283367
92	0x3cd14b61	0.025548639
93	0x3cad25b0	0.021136135
94	0x3da7f712	0.08201422
95	0xba6c8a00	-0.0009023249
96	0x3dacad37	0.084314756
97	0x3da6024a	0.08105905
98	0xbd59c58e	-0.05316692
99	0xbda8dffa	-0.08245845
100	0x3d826fae	0.063689575
101	0xbd7f9240	-0.062395334
102	0x3cc4dc78	0.024030909
103	0xbd1afc64	-0.037838355
104	0xbd0d1b4b	-0.034449857
105	0x3e0c25d3	0.13686304
106	0x3da016ca	0.07816847
107	0x3dbf299c	0.09334108
108	0x3c256f23	0.010097298
109	0x3e0fb875	0.14035209
110	0xbcd18998	-0.025578305
111	0xbd7987ae	-0.06092041
112	0xbd4581b4	-0.048219398
113	0x3d545309	0.051837
114	0x3eaca26b	0.33717665
115	0x3e559f6b	0.20861594
116	0x3d7cbe3a	0.06170485
117	0x3d82a8e5	0.0637987
118	0x3cf3dac0	0.029767394
119	0x3d2ade83	0.04171611
120	0x3e33944d	0.17537041
121	0xbcbd7aa3	-0.023129767
122	0xbd9e339c	-0.077246875
123	0x3dba41be	0.090945706
124	0xbd520f1c	-0.05128394
125	0x3df2c799	0.118544765
126	0x3d4ab226	0.0494863
127	0x3e81e8e1	0.25372985
128	0xbda57faf	-0.08080994
129	0x3df12f51	0.11776603
130	0x3dcaed5e	0.099085554
131	0x3b69e638	0.00356902
132	0x3e3d03b6	0.18458447
133	0xbdba8b24	-0.0910857
134	0xba33a100	-0.0006852299
135	0xbdf0b805	-0.11753849
136	0x3cc137a6	0.023586106
137	0xbd29e98b	-0.04148249
138	0x3c07c117	0.008285782
139	0x3dba7632	0.09104575
140	0x3d238878	0.03992507
141	0xbdab4e38	-0.083645284
142	0xbdedef58	-0.11617917
143	0xbde966ce	-0.113965616
144	0x3db79aca	0.089650705
145	0x3dbe25b2	0.092845336
146	0x3bd5a4f7	0.0065199095
147	0x3e25a683	0.161768
148	0x3d156782	0.036475666
149	0xbd51d446	-0.05122783
150	0x3e3d9631	0.18514325
151	0xbd91bd21	-0.071161516
152	0xbd8043cc	-0.06262931
153	0x3d6bd020	0.05757153
154	0x3cd3d846	0.025859963
155	0x3d98871a	0.074476436
156	0x3d88092e	0.06642376
157	0x3d5b0ef0	0.053481042
158	0x3bbf2040	0.005832702
159	0xbdef7ed8	-0.116941154
160	0xbd10d3b4	-0.035358146
161	0xbb9bc8c0	-0.004754156
162	0xbdad114f	-0.08450567
163	0x3cbab398	0.022790715
164	0xbd39c225	-0.045351166
165	0x3c53b530	0.012921616
166	0xbd0d28e0	-0.03446281
167	0xbdd34346	-0.10315566
168	0xbd73dd96	-0.059537493
169	0x3e362c04	0.17790228
170	0x3d65a6b8	0.0560672
171	0xbd6db300	-0.058032036
172	0xbbd561e8	-0.0065119155
173	0xbce8e6b4	-0.02843032
174	0xbdb05692	-0.08610262
175	0x3e057433	0.13032608
176	0x3daa6a04	0.08321002
177	0xbd2e4c7e	-0.042553417
178	0x3d673203	0.05644418
179	0x3dd75887	0.10514932
180	0xbc0a3344	-0.008435074
181	0x3d5b9123	0.05360521
182	0x3d37e554	0.04489644
183	0x3da5d0ec	0.08096489
184	0x3db499df	0.08818411
185	0x3d4a5cb1	0.049404804
186	0x3cbc74f8	0.023004994
187	0xbcee79ae	-0.029110756
188	0x3dc2df4c	0.09515247
189	0xbdd97db6	-0.106196806
190	0xbd57f0fd	-0.05272006
191	0x3e34c25f	0.17652272
192	0x3c77aa8f	0.015116348
193	0xbd920976	-0.07130711
194	0xbdc70806	-0.09718327
195	0x3d388a74	0.045053914
196	0x3d2ccf5b	0.042189937
197	0x3a651b00	0.000873968
198	0xbde70f48	-0.112822115
199	0x3d28346d	0.041065622
200	0xbc83622b	-0.016038021
201	0x3d6df009	0.058090243
202	0xbd8a0e06	-0.06740956
203	0x3dade482	0.0849085
204	0xbc0a9c07	-0.008460051
205	0x3cd95a89	0.026532428
206	0x3c9168b4	0.017750122
207	0x3d15be1c	0.036558256
208	0xbca55285	-0.02018095
209	0x3da1f900	0.07908821
210	0x3cd32d0a	0.025778312
211	0xbd3f217a	-0.046662785
212	0xbc0b280a	-0.008493433
213	0xbc25dbe3	-0.010123226
214	0x3ccbe967	0.024891568
215	0xbc47f798	-0.012205027
216	0xbe023833	-0.12716751
217	0x3d87040e	0.0659257
218	0x3aff0222	0.0019455592
219	0x3deb328a	0.11484249
220	0xbc18bfaa	-0.00932304
221	0x3dad3bf8	0.08458704
222	0xbd7f2db8	-0.06229946
223	0xbd48e0e8	-0.049042612
224	0x3d95ae83	0.07308676
225	0x3c03e130	0.008049294
226	0xbb802b58	-0.003911417
227	0x3c696c80	0.01424706
228	0x3d0d04fa	0.034428574
229	0xbdfbaa54	-0.12288347
230	0x3dbc69b8	0.09199852
231	0x3d26bf70	0.040709913
232	0xbd04ebb7	-0.032451358
233	0x3dc8346d	0.097756244
234	0x3d9b5a74	0.07585612
235	0xbdb56f3e	-0.088591084
236	0x3bd43a78	0.0064766966
237	0xbc937c36	-0.018003564
238	0x3d173b58	0.03692183
239	0xbdc78a52	-0.097431794
240	0xbc5b18f0	-0.013372645
241	0x3b9b39f4	0.004737133
242	0x3dd19f9e	0.10235523
243	0xbd09abc0	-0.03361106
244	0x3dc9c18e	0.09851371
245	0xbdf446b7	-0.1192755
246	0x3d9396cc	0.072064966
247	0x3d187107	0.037217166
248	0xbdbf6ed2	-0.09347309
249	0x3e4e8745	0.20168789
250	0x3dea11c0	0.11429167
251	0xbc5f7598	-0.013638876
252	0x3bcd517e	0.006265818
253	0xbddf39ed	-0.1089972
254	0x3db14702	0.08656122
255	0x3c367fe6	0.011138892

fc2.bias f4 [4]
0	0x3d246135	0.040131766
1	0x3e646b28	0.22306502
2	0x3d1acd21	0.037793282
3	0x3d9e5143	0.07730343

fc3.weight f4 [1, 4]
0	0x3d787418	0.06065759
1	0x3cfd8e1b	0.03095155
2	0x3bb4ddd1	0.0055196066
3	0x3da01af9	0.078176446
