res/european/qnn/models/qnn_12.pt (torch, 13343 bytes, 5 tensors)

fc1.weight f4 [64, 30]
000000 91 00 49 3e 54 51 87 bb 80 df 17 be b6 97 03 3e
       0.19629122 -0.004129568 -0.14831352 0.12850842
000010 7a 3a 6c 3e 65 3f fb bc 49 9e 2a be ec ee 99 3d
       0.23069182 -0.030669877 -0.16661943 0.07516274
000020 f9 c8 9f 3e 7c a4 17 be 0c d8 56 3d 21 b4 a3 3e
       0.31208017 -0.1480884 0.052452132 0.31973365
000030 f2 b1 be 3b 88 84 80 bd 9b ed 0d bd 1a 9f 53 3e
       0.0058195526 -0.06275278 -0.034650426 0.20666161
000040 d0 22 03 be 28 3e 13 be a1 08 59 bd 88 58 6f 3e
       -0.12806249 -0.1437918 -0.052986745 0.23373616
000050 08 7c ac bd a8 90 89 bd 91 89 1f bd 16 00 27 be
       -0.084220946 -0.06717044 -0.038949553 -0.16308627
000060 5a 8d 13 be bc e7 ac 3c 82 d5 3e 3e ef c6 cb 3d
       -0.1440939 0.021106593 0.18636134 0.09950053
000070 67 39 81 bd c7 9b 2c 3d 7d 30 07 be 90 21 b2 3c
       -0.06309777 0.04214075 -0.1320209 0.02174452
000080 dc f3 2f bd b0 5f e5 bc 14 c4 f6 3d f4 b9 dd 3d
       -0.04295717 -0.027999729 0.12049118 0.10826483
000090 34 4a 5c 3d d6 e3 04 3e 48 b0 95 bc 48 64 39 3e
       0.053781703 0.12977538 -0.018272534 0.1810466
0000a0 44 2e 14 3d 15 05 c3 bd 7e 1f d7 bd dc 47 33 bd
       0.036176935 -0.09522454 -0.105040535 -0.043769702
0000b0 66 39 12 3e d8 65 13 3e 2c 7e df 3d e4 f0 46 bd
       0.14279708 0.14394319 0.10912737 -0.048569575
0000c0 8c d8 31 3e 60 16 5b 3d 28 b7 0d 3d a7 84 bf bd
       0.17367762 0.053488135 0.0345985 -0.09351473
0000d0 80 cb 2b 3e 7c a5 10 be bc fa 99 3d 7c 4f 04 3d
       0.16776848 -0.14125627 0.07518527 0.032302365
0000e0 88 69 bf 3c 78 92 09 3d dc 0f 31 3e 6d 0a e8 bd
       0.02336575 0.03358695 0.17291206 -0.113301136
0000f0 d3 4c 39 be 31 e4 15 be 38 4a 4b 3d 4c 4d 60 3d
       -0.18095712 -0.1463783 0.049631327 0.054761216
000100 8e 08 ef bd 80 4a 67 bd 50 70 cf bd 7c 6e 3a be
       -0.116715536 -0.056467533 -0.10128844 -0.18206209
000110 58 44 00 be 00 05 0e bc 52 39 31 be 2c 89 ee 3d
       -0.12526071 -0.008668184 -0.17307022 0.11647257
000120 9f 7c df bd a0 90 d8 3c 8a 6b c3 bd 25 f5 e3 bd
       -0.109124415 0.02643615 -0.09541996 -0.11130742
000130 76 85 11 be a4 90 4f bd ae b2 0d be 00 62 33 3d
       -0.14211068 -0.05067505 -0.13837692 0.043794632
000140 6e 75 bf bd 93 8a d4 bd 5c ff 6f bd ea 48 b3 bd
       -0.0934857 -0.103779934 -0.05859314 -0.08754142
000150 c0 79 10 3e 28 1a 22 3e 44 fa 94 3d 8b 0f fb bd
       0.14108944 0.1583029 0.07274297 -0.12258824
000160 bf 52 d5 bd 6a 97 29 3e 6b 59 8e bd d4 88 27 be
       -0.10416173 0.16561666 -0.06950649 -0.1636079
000170 89 30 17 be e4 ef 0e 3e 40 33 f2 3d 1e e9 08 3e
       -0.14764608 0.13958699 0.118261814 0.13370177
000180 50 1d b6 bc 74 7f b5 3d 28 38 99 bc 68 d8 d4 bc
       -0.022230774 0.088622004 -0.018703535 -0.025982097
000190 74 82 fa 3d 40 0e f6 3b 58 77 cd 3d 54 61 0e be
       0.12231913 0.007509023 0.10032529 -0.13904315
0001a0 c0 bf e7 3d 02 87 ce bd f8 5d 85 3c 4e c1 14 be
       0.1131587 -0.100843444 0.01628016 -0.14526865
0001b0 40 fa 23 3b 29 db 8e bd 0d 91 96 bd e2 9f 02 be
       0.0025020987 -0.06975395 -0.07351885 -0.12756303
0001c0 a4 36 67 bd aa ad 0c 3e e4 3a 1c be 00 92 02 3b
       -0.056448594 0.13738123 -0.1525684 0.0019923449
0001d0 08 33 2a bd df 5c 23 be 00 18 54 bb 15 d7 b7 bd
       -0.041552573 -0.15953396 -0.0032362938 -0.089765705
0001e0 56 1f d3 ba 8e 93 d4 bc 85 1c 38 be 3e 2e 4e 3e
       -0.0016107361 -0.025949266 -0.1797963 0.20134827
0001f0 9f e3 59 3c d6 11 e8 3d 27 9f 1d 3e 6f 80 ef 3d
       0.013298898 0.11331527 0.15392743 0.11694419
000200 f8 97 63 bd de 71 07 be ae 64 04 3e ad fd 5d be
       -0.05556485 -0.1322703 0.12929031 -0.21678801
000210 e3 fe f4 bd 15 d7 e5 bc 6d 37 47 bb 0b dc aa 3c
       -0.11962678 -0.02805666 -0.0030398027 0.020856878
000220 af ca bf 3d af 13 eb 3c c2 e9 b5 3d 14 9b 13 3e
       0.09364831 0.02869591 0.088824764 0.14414626
000230 9e a2 76 bd f9 ec ad bd 37 14 c8 bd 25 5e 47 bc
       -0.060213678 -0.084924646 -0.09769481 -0.012168442
000240 09 a8 dc 3d d3 78 fe bd d2 c9 07 be db db 8e bd
       0.10774238 -0.12425389 -0.13260582 -0.06975528
000250 a5 63 6e 3a 87 3f cc bd f7 9a 1f 3e 3a 1b a1 bd
       0.00090938277 -0.099730544 0.15586458 -0.07866521
000260 77 bf a2 bc 2a 1c 44 be 5b 7c bd 3c 01 a3 96 3c
       -0.019866688 -0.19151369 0.023130586 0.018388273
000270 9f 95 01 be ac 62 3c be e6 99 f7 bd 3d ae a8 bc
       -0.12654732 -0.18397015 -0.12089901 -0.020590896
000280 59 5c 94 bb ef 21 22 3e b1 1f 4d be a6 08 0c be
       -0.0045276103 0.15833257 -0.2003162 -0.13675174
000290 21 9b 71 bd 7a 66 9f 3d b1 32 5d bd c7 41 53 be
       -0.058985833 0.07783218 -0.05400342 -0.20630561
0002a0 fd 7b a8 bd 8d 7c fe bd bb 06 a6 3c 86 23 48 3d
       -0.08226774 -0.124261 0.020266881 0.048862003
0002b0 67 16 35 3e 22 81 1a be 41 aa d5 3d b3 f9 96 3d
       0.17684327 -0.15088323 0.10432864 0.07371845
0002c0 9c 37 b4 bd 15 ae 94 3d 83 10 8b bd c9 7e c5 3d
       -0.08799669 0.07259766 -0.06790259 0.09643323
0002d0 73 85 41 bc 74 04 85 3d e6 70 9f 3c 65 69 c5 3d
       -0.011811602 0.0649499 0.019463014 0.09639243
0002e0 3e c5 df 3d 72 13 28 be 5a 41 3c 3e 4a 95 f5 bd
       0.10926293 -0.16413668 0.18384305 -0.11991365
0002f0 f5 0a 30 be 89 d6 cb bc fb 92 65 3d b0 b7 d1 bd
       -0.1719168 -0.024882572 0.056048375 -0.10240114
000300 01 5c a2 bd cf 0e 04 3d da 9e 37 3e ec a3 94 3c
       -0.079277046 0.032240685 0.17931691 0.01814457
000310 72 5b fb bd 50 d9 f9 bd 8b e9 2c 3e 57 e0 29 be
       -0.12273301 -0.12199652 0.16885965 -0.16589485
000320 94 15 30 3e 62 3d 13 bd 0e df e6 3d c8 fc 0b 3e
       0.17195731 -0.03594721 0.11273013 0.13670647
000330 15 8b 5b be 1d 82 71 3e be 97 03 3c 4e 76 ac 3d
       -0.21439774 0.2358479 0.008031784 0.08421002
000340 1b 3e 16 be 32 29 dd 3d f8 7d 2e be 78 6a 72 bd
       -0.14672129 0.10798873 -0.17040241 -0.059183568
000350 1c 45 ae 3d 50 9e fe 3c 44 9b 2e 3d 48 2c 38 be
       0.08509275 0.031081349 0.04262854 -0.17985642
000360 c3 3e d1 bd 40 b1 c8 3c 70 23 89 3d 85 4c 1c be
       -0.10217049 0.024498582 0.06696212 -0.15263565
000370 20 98 b5 3d 48 60 e8 3c 8c 82 ca 3d 20 bf 8a bc
       0.08866906 0.028366223 0.09888181 -0.016936839
000380 97 7c a8 bd 40 cf 2b be 20 7f 92 3c 66 75 6d bd
       -0.082268886 -0.16778278 0.017882884 -0.057973288
000390 a8 7c 3d 3d 9f 3d fb bd 10 f3 d9 3d c0 c4 51 bc
       0.04626146 -0.12267613 0.106420636 -0.0128032565
0003a0 08 57 16 be d8 fb bc 3d c0 6e 6d 3d 97 db ba bd
       -0.14681637 0.09227723 0.057966948 -0.09123915
0003b0 42 58 33 3e 2c f0 32 be fb 21 90 bd b9 8e 96 bd
       0.17514136 -0.17474431 -0.07037731 -0.07351441
0003c0 32 c0 7e 3e bd ea 13 3d 2c e0 cf bd 36 50 90 bd
       0.24878004 0.036112536 -0.10150179 -0.07046549
0003d0 8b 58 0f 3e 35 66 9e bd d2 85 67 3c f0 be 7d 3d
       0.1399862 -0.07734338 0.014131026 0.06194967
0003e0 1a c3 74 3d da 94 9f bd 99 78 8a bd ec 7f 75 3e
       0.059756376 -0.07792063 -0.067612834 0.2397458
0003f0 af 37 bd bd 7b 99 0b be cf e3 3f bb e5 4b e4 bd
       -0.092391364 -0.13632767 -0.0029280072 -0.11147288

fc1.bias f4 [64]
000000 bb 30 59 3d 7d 62 f4 bd e8 72 c5 3d 84 17 0c 3e
       0.05302499 -0.11932848 0.09641057 0.13680845
000010 41 cf 9c bd e8 8d 66 3e 23 2d 1a bc c2 00 35 be
       -0.07656718 0.2251507 -0.0094101755 -0.1767607
000020 41 41 9c 3d 1f 3c b9 3d 62 0a 57 3e c9 70 3c 3e
       0.07629634 0.0904467 0.21000054 0.18402399
000030 c6 66 1f be 70 f3 3e 3d 1c 63 07 3e 0c 8b 17 be
       -0.15566549 0.04661888 0.13221401 -0.14799136
000040 62 c5 ab bb ca 92 29 be 77 58 b2 3d a0 17 2b 3e
       -0.0052420357 -0.16559902 0.087082796 0.16708231
000050 78 19 96 3d be 49 bf bc 0c 5e f4 3d 46 2b b9 bc
       0.073290765 -0.023350593 0.119320005 -0.022603642
000060 7d f7 4b bc b9 1f 00 bd 30 55 2d be 0b d9 f2 3d
       -0.0124491425 -0.031280253 -0.16927028 0.11857804
000070 a8 7c 04 3e 54 c3 e0 bd f7 1d fa bd dc a0 86 3d
       0.12938178 -0.10974756 -0.122127466 0.0657365
000080 6d 70 b8 3d 3d cc ac 3d 49 fc ac 3d 40 a9 98 3b
       0.090058185 0.08437393 0.08446557 0.004658848
000090 c1 04 28 be b8 2a e1 bc 24 c5 94 3d f8 cc c7 bd
       -0.16408063 -0.02748619 0.07264164 -0.097558916
0000a0 ad db 8d 3c 68 bf 92 3d c2 e2 80 3d 7a 1a 74 3e
       0.017316664 0.07165414 0.062932506 0.23838225
0000b0 89 05 0b be df 94 44 3d 6f da d6 3d 04 00 24 3d
       -0.1357633 0.047993537 0.10490882 0.040039077
0000c0 3b 1f 8b bc 29 83 50 be 8b f4 1d 3e f0 ca 1e 3e
       -0.016982665 -0.20362534 0.15425317 0.15507102
0000d0 f3 c5 00 be d8 aa a1 bd 0f 26 3a be cb 88 45 3e
       -0.12575512 -0.07893914 -0.1817858 0.19290464
0000e0 93 5d 8b be 4d 06 07 be 52 1c c2 bc 09 7f e2 3d
       -0.2721983 -0.13185997 -0.023695145 0.11059386
0000f0 8f 8b 97 bd 03 b5 26 3d fa 6d 65 bd bc 5a 31 3d
       -0.073996656 0.04069997 -0.056013085 0.04329942

fc2.weight f4 [12, 64]
000000 4c b9 16 be e6 00 9d bd 00 f0 c3 b8 da 05 85 3d
       -0.14719123 -0.07666187 -9.343028e-05 0.06495257
000010 d9 04 b6 3d 36 6f 2e be a1 a3 b2 3d e6 ea fc bd
       0.08887643 -0.17034611 0.08722616 -0.12349491
000020 02 c3 49 be c1 de cc bc c2 76 45 3d 6e 97 35 3d
       -0.19703296 -0.025008561 0.04820896 0.044333868
000030 04 04 94 ba 0e 15 bf 3d 60 fd 33 3c be a5 dd bd
       -0.0011292701 0.09330188 0.010985702 -0.108226284
000040 34 48 53 bd 05 db ee bd d1 69 31 bd 1e d9 90 3d
       -0.05158253 -0.116628684 -0.043313805 0.07072662
000050 cc 6f 02 3d 5a bd 7a bc f0 14 fa bd 0b ad 5b be
       0.0318449 -0.015303934 -0.12211025 -0.2145273
000060 6f a8 1a be 80 d1 79 3d fa 40 79 bd 0a 5c ee bd
       -0.15103315 0.06099081 -0.060852982 -0.11638649
000070 0e de 76 be 98 09 d5 bc 44 36 6f 3d fc fe c4 3d
       -0.24108145 -0.026005551 0.05840136 0.09618947
000080 01 40 a7 3c 66 60 1b bc ae 6c 17 bc 68 f9 2b bd
       0.020416262 -0.009483432 -0.00924222 -0.0419859
000090 c8 d1 55 bd f0 4a a3 bc b8 22 b2 bd a1 38 fa bd
       -0.052202016 -0.019933194 -0.08698028 -0.12217832
0000a0 57 07 38 be 46 9c 9b bd 65 80 b2 3d 3e a1 a0 bd
       -0.1797155 -0.07598166 0.087158956 -0.078432545
0000b0 79 db 9a 3d d3 b4 43 be 6a 6d bb bd 81 be 54 be
       0.07561392 -0.19111948 -0.091517285 -0.20775796
0000c0 43 28 59 be 85 9b 17 bc c5 4e 08 be 9e 46 11 be
       -0.21206765 -0.009253387 -0.13311298 -0.14187095
0000d0 44 62 68 bd 71 09 24 be 65 33 3d bc db 80 24 be
       -0.05673434 -0.16019227 -0.011547898 -0.1606478
0000e0 39 ef 28 3b 02 88 04 be b1 9d 28 bd cb c6 74 be
       0.0025777353 -0.12942508 -0.04116601 -0.23903958
0000f0 70 f4 e1 bd 34 16 5b be 07 3b 41 bd 0d 69 04 bd
       -0.11032951 -0.21395189 -0.047175433 -0.032326747
000100 a8 7b 0d be 3c d7 08 bd 18 0c dc 3c 50 fe 31 3d
       -0.13816702 -0.03340839 0.026861235 0.043455422
000110 2b 5a c6 bc 44 ef 9f bd dd 5a 95 bd e2 2c e3 3d
       -0.024212917 -0.07809308 -0.072927214 0.11092545
000120 e9 50 05 bd 94 68 47 3d bc 0f 44 3e 17 27 5d 3d
       -0.032547865 0.048683718 0.19146627 0.053992357
000130 1d 35 92 3d b0 ad 5b 3d f2 f9 db 3d 7a 4e ce bd
       0.07139037 0.05363244 0.10741033 -0.10073562
000140 f5 93 95 3d e6 46 9f 3d 51 dc 33 3d 28 23 2c bd
       0.07303611 0.07777195 0.043911282 -0.042025715
000150 5a 7a 82 bd d0 c1 dd bc a0 d8 9f 3d de c2 20 be
       -0.06370993 -0.027069956 0.0780499 -0.15699336
000160 e3 49 4e bc f0 36 a5 bd 05 31 10 be f4 fd 70 bb
       -0.012590858 -0.08067119 -0.140812 -0.0036772462
000170 e2 4f bb bd 68 70 e8 3c 04 20 c3 bd 08 6e 30 bd
       -0.09146096 0.028373912 -0.09527591 -0.043073684
000180 a5 81 9f 3c b3 bc c8 3d a2 9e ea 3c 88 b3 02 3d
       0.019470999 0.098016165 0.028640095 0.031909496
000190 00 39 17 3d 18 0a c1 bc 2c 2e 7f bd 4b 81 0a 3c
       0.036919594 -0.023564383 -0.062299892 0.008453677
0001a0 a0 b5 22 be f8 89 8c bc a3 f2 a9 bd ba cb 35 be
       -0.15889597 -0.017155632 -0.082982324 -0.17753497
0001b0 9f ba c3 3d 75 75 3d be 26 6f 71 3d f3 2f 27 bd
       0.095570795 -0.18501838 0.05894389 -0.040817212
0001c0 81 20 d5 bd 1c f2 96 bd e5 b5 b9 bd b7 cd 17 be
       -0.1040659 -0.073703974 -0.09067897 -0.14824568
0001d0 f4 e6 01 bd eb e4 28 be 66 40 ba bc 2c d8 25 be
       -0.031714395 -0.16493575 -0.022735786 -0.16195744
0001e0 02 5a 76 bc 02 bd ac bd 40 44 04 be 0c 41 03 be
       -0.015036108 -0.08434488 -0.1291666 -0.12817782
0001f0 02 8f 1f bc 01 de 86 3c d8 a4 1c 3c 77 b2 7c 3c
       -0.009738686 0.016463282 0.009560786 0.015423409
000200 95 db 60 3e a0 ea 95 3c 58 ad 27 bd c8 47 c0 bc
       0.21958764 0.018300354 -0.040936798 -0.023471728
000210 95 cc c9 3d c0 25 72 3d 23 3d 64 bd a8 92 df bc
       0.09853474 0.059118032 -0.055722367 -0.02729161
000220 82 88 85 3e 72 18 de 3d 95 d0 4e 3e fc dc ad bd
       0.2608071 0.10844506 0.20196755 -0.08489415
000230 27 07 72 bc dc 5d 39 bd c0 d8 ab 3d 96 9a 71 bd
       -0.014772213 -0.045255527 0.08390951 -0.058985315
000240 08 3f f1 3d 06 84 d0 3d df a7 e5 bc c0 1c cc 3d
       0.117796004 0.101814315 -0.028034149 0.09966421
000250 80 39 f4 3b e0 48 46 3e 00 d4 83 b9 0e 95 67 3e
       0.0074531436 0.19363737 -0.0002514422 0.22615454
000260 c8 45 73 3e 81 e2 28 bd 4b ee 60 3e 38 e5 8f 3e
       0.23757088 -0.041231636 0.21965902 0.28104568
000270 01 9a 54 3e d8 2e 13 3d 32 f7 a1 3d 1c c0 76 3d
       0.20761873 0.035933346 0.07908477 0.060241804
000280 06 19 e5 3d d5 90 fb 3d 97 c2 3e 3e 76 91 c3 3d
       0.111864135 0.12283484 0.18628918 0.09549229
000290 c8 cb bf 3d 92 e3 91 3d b6 d1 f5 bd ed 00 75 3b
       0.0936504 0.07123484 -0.1200289 0.0037384585
0002a0 0a f7 7d 3e 80 de bc bd 94 e2 97 bd 94 0f 44 3e
       0.24801269 -0.09222126 -0.07416263 0.19146568
0002b0 bf c4 e9 bc bc 57 68 3e 4c d7 8a 3c e6 aa 36 3e
       -0.028536199 0.22689718 0.016948365 0.1783863
0002c0 d1 ea 63 3e b5 8c 2e 3e 3f f5 12 3e b9 b5 10 3e
       0.22257544 0.17045863 0.14351366 0.14131822
0002d0 98 f7 9a 3d 5a 64 8e 3d de 14 1d 3e 41 f6 33 3e
       0.07566756 0.06952734 0.15339991 0.17574407
0002e0 48 ab 00 bd ec 97 20 3e c8 88 88 3e 18 ba 1e 3e
       -0.031413347 0.15682954 0.26666856 0.15500677
0002f0 8c ce a4 3d 2c 9d 56 3d 24 2b 18 be f1 60 8c bb
       0.08047208 0.052395985 -0.14860207 -0.0042840173
000300 86 e4 6f be fc 6c 55 bd 84 5e d8 3d b8 45 96 3d
       -0.23427019 -0.05210589 0.105649024 0.073375165
000310 a9 17 fd bd 7d 5a 77 bd ce dc 1b be 10 df 3f 3c
       -0.123580284 -0.06038903 -0.15220949 0.011710897
000320 1a 2d 09 be 87 4e 1d be 35 aa 1b 3e 64 87 6c bd
       -0.13396111 -0.15361987 0.15201648 -0.057746306
000330 bd 7e 07 be 48 2f 4f 3d 7c e8 54 bd 6d cc 4d bd
       -0.1323194 0.0505822 -0.051979527 -0.050243784
000340 8d 55 30 bd b6 98 2b bd 82 08 13 3e e0 42 99 3d
       -0.043050338 -0.041893683 0.14358714 0.074834585
000350 fc 7a e3 3d b8 53 20 be 4c 28 a7 3d bd 80 30 be
       0.11107442 -0.15656936 0.08161983 -0.1723661
000360 a1 f2 1d be 5b 56 2f bc 59 3d 1a be e0 25 aa bd
       -0.15424587 -0.010701741 -0.15062465 -0.08308005
000370 1c d7 8f bd 42 93 ae bd ae 7c d3 bd 80 e9 dd 3a
       -0.07023451 -0.08524181 -0.10326515 0.001693055
000380 dd 93 92 bd 8c 0d 2c bd 8c a4 8b be a0 ac bc 3b
       -0.07157109 -0.042005107 -0.27273977 0.005757883
000390 16 82 e4 bd ee 84 f0 3d 34 a1 e7 bd 44 77 67 3e
       -0.111576244 0.11744104 -0.11310044 0.2260409
0003a0 70 67 c3 bd d0 b2 36 bd 50 09 c7 bd 17 b6 09 be
       -0.095412135 -0.044604123 -0.09718573 -0.13448368
0003b0 71 03 ac 3d d3 f0 8b be f7 43 fd 3c f4 f8 59 be
       0.08399094 -0.27332172 0.030916197 -0.21286374
0003c0 4f 9f 80 bd fb 87 69 bd a7 51 5d bd 13 40 13 be
       -0.06280386 -0.057014447 -0.054032948 -0.14379911
0003d0 f0 35 4f bd 58 f9 b0 bd 2e 08 04 be 49 7c bd bc
       -0.05058855 -0.086413085 -0.12893745 -0.023130553
0003e0 78 cd 04 be 89 fb 8a bd 3a 2d 6a be dd 66 72 be
       -0.12969005 -0.06786258 -0.22868815 -0.23672052
0003f0 07 f6 57 bd 22 96 80 be bd 67 50 3d 3d 1d 2e 3d
       -0.052724864 -0.25114542 0.050880183 0.042508353

fc2.bias f4 [12]
000000 71 76 35 be ae 60 b7 bd eb d3 fb 3d 42 a9 9e bc
       -0.17720963 -0.08953987 0.122962795 -0.019367818
000010 fe 7f 19 3e f7 99 ff bb 88 0d ca 3d 7e a7 8d 3c
       0.14990231 -0.0078003365 0.09865862 0.01729178
000020 e4 3f a6 3d bf 0f 16 3d ea f9 9e 3d 39 66 4c 3d
       0.08117655 0.03663611 0.07762511 0.049902175

fc3.weight f4 [1, 12]
000000 e9 1d 6e bc 26 39 7c 3c 5c 61 da 3c 88 b1 72 3a
       -0.014533498 0.015394485 0.026657753 0.00092580216
000010 7a 9e 1f bd a8 81 9c bb d3 0a 31 3c d6 4a 87 bd
       -0.038969494 -0.0047761984 0.010805803 -0.06606071
000020 56 00 bd 3c e6 95 2f bb 76 91 79 bb ac 96 eb 3c
       0.02307145 -0.0026792227 -0.0038081086 0.02875837
