res/european/qnn/models/qnn_10.pt (torch, 12831 bytes, 5 tensors)

fc1.weight f4 [64, 30]
000000 50 21 df bd 98 b2 25 3e 28 3e c4 3c 50 45 8e bc
       -0.10895026 0.1618141 0.02395542 -0.017367035
000010 70 78 c3 3d 14 b8 3e 3d b8 9b 1b be ec 19 07 be
       0.09544456 0.04656227 -0.1519612 -0.13193482
000020 10 b3 cb bc a0 88 38 3c d6 c4 13 3e b4 7d e9 bd
       -0.024865657 0.011263043 0.14430556 -0.11400929
000030 b0 05 11 3e e4 47 cf 3d 40 28 01 bc 04 75 3c bd
       0.14162326 0.10121134 -0.0078831315 -0.046010032
000040 98 0a d1 bc 08 3d a9 3c b4 3e 37 bd 0c 59 7f 3d
       -0.025517747 0.020658985 -0.044737533 0.06234078
000050 94 04 29 3e 50 be b1 bd dc 35 ec bd 6b 14 d1 bd
       0.16505653 -0.08678877 -0.1153371 -0.102089725
000060 70 e5 09 3e 8c 64 53 bd 5c bd 0e be 60 11 92 3b
       0.1346643 -0.05160956 -0.13939422 0.0044576377
000070 e8 51 3e bd 54 ad 35 3d 05 5c 1c be ae f5 83 bd
       -0.04646483 0.04435475 -0.15269478 -0.06443344
000080 4c 20 7e 3d ac 1c cb bd ba e8 12 3e 0e 64 2e 3e
       0.06204252 -0.09917578 0.1434659 0.17030355
000090 10 55 3e bd 16 b4 22 be 76 a3 e9 bd 4a 07 86 3d
       -0.04646784 -0.1588901 -0.11408131 0.06544359
0000a0 b8 67 08 be d8 ac 7f 3d 16 84 27 3e 9e 07 fc bd
       -0.13320816 0.062420696 0.1635898 -0.1230614
0000b0 40 1a 8a bc c0 1e c3 bc 53 c9 db bd 80 b2 36 3e
       -0.01685822 -0.023818374 -0.10731759 0.1784153
0000c0 d0 85 94 bc 3c 33 2a 3e 80 a1 ea 3a c8 a6 5c 3d
       -0.018130213 0.16621107 0.0017900914 0.053869992
0000d0 4f 36 b2 bd 8a ed 38 3e b4 9d 8b bd fc e4 77 bd
       -0.08701765 0.18059364 -0.06817189 -0.06052111
0000e0 48 52 74 3d a4 62 99 3d d0 39 31 3e b4 16 5f 3d
       0.059648782 0.07489517 0.1730721 0.05446501
0000f0 d8 a3 59 bd e1 58 0c 3e 6f f4 9c bd 27 a4 04 be
       -0.05313477 0.1370578 -0.076638095 -0.12953244
000100 4b 3b c3 3c fd 89 0a be 7e 1e 15 3e e9 c5 f7 bc
       0.023831984 -0.13529201 0.14562413 -0.030245738
000110 a2 07 29 be ae 0e b6 3d 13 1b 9e bc 12 af 08 3d
       -0.16506818 0.08889519 -0.01930002 0.033370085
000120 e9 39 e1 3c 6d aa d6 3c 29 4b 0f 3e 96 d0 87 bd
       0.027493434 0.026204312 0.13993515 -0.066315815
000130 59 1b e9 bd 46 5c d2 bd ee 22 eb bc 84 ef 93 bd
       -0.11382169 -0.10271506 -0.02870318 -0.07223418
000140 3d 52 87 3b 54 06 02 3d fb 85 b0 3d 0a d1 c3 3d
       0.0041296766 0.031744316 0.08619305 0.095613554
000150 44 43 e5 bd 47 08 11 bc a2 11 e9 3d ea 19 b0 bd
       -0.111944705 -0.008852071 0.11380316 -0.08598693
000160 fd 25 24 bd ed 16 3b 3d 6c 5f 99 bb d2 cb 9c bd
       -0.04007529 0.04567616 -0.0046805646 -0.07656063
000170 0d 84 68 bd 3d f4 15 be 32 d6 6e bc ee 39 8b bd
       -0.05676656 -0.14643951 -0.014577435 -0.067981586
000180 7b b8 0b 3e 7c a9 0f 3c b1 c2 52 bd 2b ca 6b bd
       0.13644592 0.008768436 -0.051455203 -0.05756585
000190 5f da f1 bd db aa 85 bc 76 0d ef bd af e8 c3 bd
       -0.11809229 -0.016316822 -0.11672489 -0.09565865
0001a0 d1 9e 9e bc 26 ea c6 3d 35 d5 06 be cf c7 87 bd
       -0.019362839 0.09712629 -0.1316727 -0.06629907
0001b0 9f 2b 04 3e 3b 76 01 3e 2d f6 3d be 4d 25 a4 3c
       0.12907265 0.12642758 -0.1855094 0.020037318
0001c0 04 e6 0a 3e 5e da f1 bd 7a 94 2f be f9 af 84 bc
       0.13564306 -0.11809228 -0.17146483 -0.016197192
0001d0 ce 20 e0 3d 1d 43 c4 3d e6 60 33 be a9 f7 0b be
       0.10943757 0.09583113 -0.17517433 -0.13668694
0001e0 c9 69 5b 3d a8 6b eb 3b 79 eb 88 3e 23 c9 20 bd
       0.05356768 0.0071844645 0.2674215 -0.03925432
0001f0 fa 34 2b 3e ca 54 05 be e2 88 10 3e 59 be f3 bd
       0.16719428 -0.13020626 0.14114717 -0.1190154
000200 56 2d dd bd 8d b7 f2 bd 6a f4 3f be 8b 94 31 3e
       -0.10799663 -0.11851416 -0.1874558 0.17341821
000210 8d b0 93 3c ef b0 b3 be b0 42 c5 bd 33 4c 47 3d
       0.018028522 -0.35095927 -0.0963186 0.048656654
000220 f0 f4 43 be 40 30 cc 3b bf 38 f1 bd 0a 9e af 3c
       -0.19136405 0.006231338 -0.117784016 0.021437664
000230 e1 ab c1 3d b7 17 b6 3d 9e d1 5f be 55 77 ab 3d
       0.094566114 0.08891242 -0.21857306 0.0837237
000240 a6 d5 11 3e e1 8e b4 b9 9f 6d 1b 3e 8b 8d 28 3e
       0.14241657 -0.00034438728 0.15178536 0.16460244
000250 a0 b2 6b bd b3 ca 3b 3e 2f 3a 8c ba e5 e2 00 3d
       -0.057543397 0.18339042 -0.0010698492 0.031466383
000260 ca 79 ee 3d c9 c3 1c be bf 2d c8 bc 29 a7 1c bc
       0.11644323 -0.15309061 -0.024435876 -0.009561338
000270 a8 0e a6 3c c6 90 68 3d e5 42 0c be f8 9b e7 bd
       0.02027066 0.05677869 -0.13697393 -0.113090456
000280 07 43 2b bb 7a 9e a0 bd 1f 08 f4 3d cb d4 e1 bd
       -0.002613248 -0.07842727 0.119156115 -0.11026915
000290 73 a3 13 3e 91 7b 34 3c 4d de eb bd 69 af 0b 3e
       0.1441782 0.011015789 -0.1151701 0.13641132
0002a0 61 f1 38 3e 02 43 7b bd 7d 31 ec 3d 9d 2d fd 3d
       0.18060829 -0.0613432 0.11532877 0.12362216
0002b0 c2 cd 84 3d db cf b1 bc 08 80 05 bc 15 3f a6 bd
       0.06484558 -0.021705559 -0.008148201 -0.08117501
0002c0 73 01 16 3e 84 0b 2d bc 22 58 c3 bd 4f 05 d6 bd
       0.1464899 -0.010561828 -0.095382944 -0.10450231
0002d0 c4 7a 8b 3d b8 0e 66 bd 02 e6 8a 3e e6 61 1b be
       0.06810525 -0.05616638 0.27128607 -0.15174064
0002e0 91 fd bd 3e 45 09 a1 be ab 4b 05 3d 40 d6 98 be
       0.37107518 -0.31452385 0.032542866 -0.2985096
0002f0 31 02 1b be c7 60 eb bd 4f f0 db bd 9f cc b6 3e
       -0.15137555 -0.11493068 -0.107391946 0.35702989
000300 be fb 79 bd 3a dd 75 be 38 84 bd bd 59 35 11 3d
       -0.061031096 -0.24010172 -0.09253734 0.035451267
000310 2e 35 fd bd 56 c7 c0 bc 4b e8 83 3d 79 d6 60 be
       -0.12363659 -0.02353255 0.06440791 -0.21956815
000320 ac 3c 8c 3d 19 fb 68 3d 70 36 54 3c 29 45 2e 3e
       0.0684751 0.05688009 0.012952432 0.1701857
000330 ce 3e 26 be ff f8 78 3e 55 52 08 3e 36 db b5 3c
       -0.16234896 0.24313734 0.13312657 0.022199254
000340 ff 41 46 bd e9 4b a7 3d aa 1a d2 bd 46 a7 36 3e
       -0.048402783 0.081687756 -0.10258992 0.17837247
000350 e4 c3 6c 3d be 14 2d be c0 9e 1c be 0e 32 f2 bd
       0.057804003 -0.16902444 -0.15294933 -0.118259534
000360 62 ac 1a be b8 0f b6 bc b8 4a 90 3c 3a d1 18 be
       -0.15104821 -0.022224292 0.017613754 -0.14923564
000370 04 1a a0 3d 48 b7 d8 3c 48 74 fe bc 88 cc e7 bc
       0.07817462 0.026454583 -0.031061307 -0.02829577
000380 bc c0 5f bd 2c 8c 5f bd eb 70 0f be e1 0a 95 bd
       -0.054627165 -0.054577038 -0.14007919 -0.072774656
000390 54 9c 43 3d dc d2 3f bd 8a 74 02 be e8 fe 21 3e
       0.047756508 -0.04683195 -0.12739769 0.15819895
0003a0 28 31 e4 3c c3 0a d4 bd 84 3d 13 3d 50 20 6c bc
       0.02785547 -0.10353615 0.035947338 -0.014412001
0003b0 06 27 17 be cc c2 0e 3e a0 34 26 3e 82 b2 1c be
       -0.1476098 0.13941497 0.16231012 -0.1530247
0003c0 af a3 ac bc c7 ba 4f bd 6e 22 2f bd 78 a6 31 bc
       -0.021074144 -0.050715234 -0.042757444 -0.010842912
0003d0 f1 33 a3 bd 2b 8b 52 be 36 d2 85 bd cd 2f 2c be
       -0.079688914 -0.20560901 -0.06534235 -0.1681511
0003e0 81 71 a5 3d 01 2b 79 bd 4f d8 31 be c1 24 d4 bd
       0.0807829 -0.060832027 -0.17367671 -0.10358573
0003f0 6a 3c 11 be 9f 76 56 3c 8d 24 8b 3d 31 3b d1 bd
       -0.14183202 0.013089805 0.06794081 -0.10216368

fc1.bias f4 [64]
000000 d0 20 54 bd 6c 51 b1 3d fa 34 a7 bd 1f 67 be 3d
       -0.051789105 0.08658108 -0.08164401 0.092970125
000010 3c 15 14 3e 23 1c 0d 3e 1b 30 73 3e a0 42 11 3c
       0.14461225 0.13780265 0.2374882 0.008865982
000020 2e 1a 9e bd f5 a0 37 3d 10 02 58 3c 38 35 dc 3d
       -0.07719837 0.044831235 0.0131840855 0.10752338
000030 59 fe 7f 3e e9 eb 75 3d 35 0c 13 be 15 67 d9 bd
       0.2499937 0.060039435 -0.14360125 -0.106153645
000040 ca 2f 52 bd 07 be cb 3c e0 4b a9 bb 79 78 36 3e
       -0.051315106 0.024870886 -0.0051665157 0.17819394
000050 c4 06 4f be f0 16 fd 3d 40 b3 53 bb d7 a2 6f 3d
       -0.20217425 0.123578906 -0.0032302886 0.058504906
000060 58 b2 1c be c1 cc f9 bd 82 a8 ac b8 ca de 68 bd
       -0.15302408 -0.12197257 -8.232986e-05 -0.056853093
000070 5b 0d d8 bc 18 b4 2a 3e a0 17 d6 bc 09 aa 20 bd
       -0.026373556 0.16670263 -0.026134312 -0.03922466
000080 90 f9 81 3d 4c 2e 87 bd 4f 74 6e 3d cc 07 1e be
       0.063464284 -0.06600627 0.05821639 -0.15432662
000090 8f bb 2a 3e 53 e6 83 bd 80 a6 97 bc 4a a0 16 3e
       0.1667311 -0.06440415 -0.01851201 0.14709583
0000a0 e5 22 ca 3d fe 59 c0 3d 44 3b 1f be 70 0f da 3c
       0.09869937 0.09392165 -0.15549952 0.02661869
0000b0 e2 9b 21 be 08 3e c3 3d bc 1d 5f 3d 18 c6 6f bc
       -0.15782121 0.09533316 0.054471716 -0.014634632
0000c0 e5 d8 14 3e f6 5e e5 3d a9 86 26 be 87 52 a1 bd
       0.14535864 0.11199753 -0.16262306 -0.07877069
0000d0 09 bf ca 3d 70 e1 8f bc e5 5d b1 3b c0 99 bb bd
       0.09899718 -0.017563552 0.0054128044 -0.09160185
0000e0 15 18 5c bc 77 73 20 3e d3 39 38 bd 16 71 14 3e
       -0.013433476 0.15669046 -0.04497702 0.14496264
0000f0 f5 7e c9 bd 22 be 16 3e 96 74 b7 3c a4 aa 3d 3d
       -0.09838668 0.14720967 0.02239446 0.046305314

fc2.weight f4 [10, 64]
000000 b8 66 74 3d 88 7c 69 bd a1 83 c9 3d bc 51 91 bd
       0.059668273 -0.057003528 0.09839559 -0.07095668
000010 99 bb 67 3d 1e 93 02 bc 00 d0 b0 bc c0 05 b9 3d
       0.05657539 -0.007969646 -0.021583557 0.090343
000020 c1 a7 ea 3c cb aa 19 bd 18 b7 a5 bc 00 7c 77 b9
       0.028644444 -0.037516396 -0.020228907 -0.00023601949
000030 17 10 5a bb 94 d4 ed 3c 6c 21 b6 3d 08 b8 94 3d
       -0.003327375 0.02903203 0.088930935 0.07261664
000040 14 50 cb bd 44 ff 28 bd 9e 7c 98 bd c7 5e a1 3d
       -0.09927383 -0.041259065 -0.07445644 0.078794055
000050 d7 9f 9f 3d c2 04 b4 bd 44 8c c6 bd f3 1c 99 bd
       0.07794159 -0.0878997 -0.09694722 -0.07476225
000060 64 20 d5 bd 82 38 85 bc da 85 54 3c 5a 9c 05 3d
       -0.10406569 -0.016262297 0.012971366 0.03261981
000070 e6 9b 05 3a 96 cc b1 bd 63 11 89 bd a9 a8 9c 3c
       0.0005096778 -0.086816 -0.066927694 0.019123392
000080 5c c7 79 3d 36 b7 a6 bd c4 a7 46 bd aa 4d ce bd
       0.06098114 -0.081404135 -0.048499838 -0.10073407
000090 75 53 8b bd d8 ce d6 bd ac ad 15 bd 48 1a ff 3d
       -0.068030275 -0.10488671 -0.03654258 0.124561846
0000a0 e7 04 6a 3d fa 32 e8 bd 92 42 84 3d a0 db bd bc
       0.05713358 -0.11337848 0.0645801 -0.023176014
0000b0 66 f6 40 bb e4 f2 a7 bd f8 fd 93 3c e4 2f 68 3d
       -0.002944374 -0.082006246 0.018065438 0.056686297
0000c0 c7 f3 cc 3d bc e4 cc 3d 54 9c c4 3d 5d 33 3d 3d
       0.10007434 0.10004565 0.0960013 0.046191562
0000d0 0d ae 4f 3d 9c ed 24 3d 34 fc b9 bd 56 6a cf 3d
       0.050703097 0.040265664 -0.09081307 0.10127704
0000e0 e7 5a 9b 3d 0f d8 c2 3c 3b 0d de 3c a4 39 f2 3d
       0.075856976 0.023784665 0.027105918 0.118274
0000f0 ba f9 a4 bc b2 e8 fe bd 0d 23 2a 3c 2c ce 49 3d
       -0.02013861 -0.12446727 0.010384333 0.049268886
000100 5c 3b 8c bd 72 59 e0 3d 98 8d d8 bd 88 c0 9f 3d
       -0.068472594 0.1095456 -0.10573882 0.07800394
000110 26 9d d9 3d fc 2a d1 3c 8f 62 3e 3d 9a d8 d7 bd
       0.10625677 0.025533192 0.04648071 -0.1053936
000120 46 ad 9d 3d 31 3b 61 3c bc 21 df bd f4 02 b0 bd
       0.07699065 0.0137470225 -0.10895106 -0.08594313
000130 4c 6e 0a be a2 82 77 ba 04 5c 92 bd 72 25 c9 bd
       -0.13518637 -0.0009441768 -0.07146457 -0.09821595
000140 34 7d 14 3d 28 87 2e 3d 00 4e 7a bc 53 04 8d 3d
       0.036252216 0.042609364 -0.015277386 0.068855904
000150 c2 50 7e 3c e0 ba 1b 3d 60 35 b3 bb 99 ef 09 be
       0.015522184 0.038020015 -0.0054690093 -0.13470306
000160 d6 c1 b1 3d 1a 73 01 3d b4 00 76 3d d4 60 a5 bd
       0.086795494 0.03160391 0.060059264 -0.08075109
000170 d8 40 a4 3c 9a f7 da 3d 4d 94 05 be 75 b5 ea 3d
       0.020050451 0.106917575 -0.13044854 0.114603914
000180 d7 32 15 be 38 cc e3 3c 22 cb 1b bc b0 e3 bd bd
       -0.14570175 0.02780734 -0.00950888 -0.092719436
000190 72 72 60 bd 2d 4a 27 bd 64 f1 9c bd c9 ec bb 3d
       -0.054796644 -0.040842224 -0.07663229 0.091760226
0001a0 71 bd de 3c cd 7c 94 bd 70 50 74 bd 4e 86 cc 3d
       0.027189942 -0.07250366 -0.059647024 0.09986554
0001b0 4e 4c 9f bd 0e 7d f4 3d a2 07 b2 bd b4 3d 38 3d
       -0.07778226 0.11937915 -0.08692862 0.04498072
0001c0 1a 33 44 bd ef 97 b9 bc c0 dc 57 3b f7 a7 77 3c
       -0.047900297 -0.022655455 0.0032937974 0.0151157295
0001d0 1f d3 6e 3b 6c 0f aa 3d 17 81 10 be 8a 0f 91 3d
       0.0036441756 0.08303723 -0.14111744 0.07083042
0001e0 d4 fc 29 bc 23 00 c7 bd 21 20 63 3d 84 2f 9f bd
       -0.01037522 -0.09716823 0.055450562 -0.07772735
0001f0 70 58 01 be f0 94 dd 3d cb b8 2d 3d e8 af fb 3c
       -0.12631392 0.10819423 0.04241256 0.030723527
000200 40 03 9f bb 40 0a eb 3c de de 28 bd 2a cb e6 bd
       -0.0048526824 0.028691411 -0.041228168 -0.11269219
000210 8e 97 1d bb 91 e4 f7 3b b4 c7 da bd c0 cc a9 bc
       -0.0024046632 0.007565089 -0.106826216 -0.020727515
000220 8e 7a cb bd 5e e6 45 be 78 3f dc 3d 58 1c 24 bd
       -0.09935485 -0.1932616 0.10754293 -0.040066093
000230 03 ca ed bd 66 27 dd bb be 88 da bd 46 6a ec 3d
       -0.11610796 -0.0067490814 -0.10670613 0.115437075
000240 0a 77 09 be e2 d0 0b 3d b4 39 89 bd ac 65 0f be
       -0.13424316 0.034134753 -0.06700459 -0.14003628
000250 13 cf c0 bc a0 bd 1e bc c0 28 4d bd f2 74 ba 3c
       -0.02353624 -0.009688765 -0.05008769 0.022760842
000260 a0 30 a9 3c e4 22 97 bd b4 d4 21 be 72 64 db bb
       0.020653069 -0.07379702 -0.15803796 -0.0066953236
000270 d1 d3 cf bd ae fe 85 3d ad 5e 21 3b 04 4e 1a 3c
       -0.10147823 0.06542717 0.0024623082 0.009418014
000280 79 7c 10 be 7c 0b 2c 3d 52 59 95 3c 00 9b 8e bc
       -0.14109983 0.04200314 0.018231068 -0.017407894
000290 09 77 37 be d2 ea 96 bd f2 11 0c 3d e0 c9 12 be
       -0.17916502 -0.07369007 0.0341968 -0.14334822
0002a0 bc a9 5d be c8 61 4b be 70 39 4d 3c b0 01 64 bd
       -0.2164678 -0.1986152 0.012525901 -0.05566567
0002b0 61 44 ca 3d 20 b5 8a 3b 84 fb 57 3d fd e6 c9 bd
       0.098763235 0.0042330176 0.0527301 -0.09858511
0002c0 e4 7e 22 be 17 80 4a be 74 13 87 3d c3 ff 6d 3e
       -0.15868717 -0.19775425 0.06595507 0.23242097
0002d0 d7 e4 1a be 9c 87 77 bd 90 ac 00 be 24 85 2f bd
       -0.15126358 -0.06043206 -0.12565827 -0.042851582
0002e0 19 bf 5c ba d0 d2 86 bd c6 e1 8e 3d 98 d6 fd 3d
       -0.000842081 -0.06583178 0.069766566 0.12394446
0002f0 92 a6 e1 bc f8 8f 84 bc 27 c4 b1 3c 34 71 e4 3d
       -0.027545247 -0.01618193 0.021699978 0.11154404
000300 cc f4 e1 bd 00 61 be bc 4c 8f dd 3d f3 f3 ac bd
       -0.110330194 -0.023239613 0.10818347 -0.08444967
000310 36 81 8e be a4 ce af 3d 50 84 cd bd 74 51 88 3d
       -0.27832955 0.085843354 -0.10035002 0.06656161
000320 6f cc a1 bd f2 eb 96 3d f8 70 25 3d 26 d0 c5 3d
       -0.07900321 0.07369222 0.04039094 0.09658842
000330 9d ab 4d 3d 02 a9 9b bd 4c 96 ce 3d 58 e0 30 bd
       0.05021249 -0.07600595 0.100872606 -0.0431827
000340 0f 0d 12 bc 0a f0 06 bd 60 d3 be bb 4f 4a 8e bd
       -0.008914246 -0.032943763 -0.0058235377 -0.06947767
000350 b7 5f cd bd 96 19 e1 bd 40 9e b4 bc 15 c1 89 3d
       -0.10028022 -0.10991208 -0.022048116 0.067262806
000360 98 57 48 bd 80 65 38 3d 25 7e d1 bd 55 76 59 bc
       -0.04891166 0.045018673 -0.10229138 -0.013272841
000370 62 e8 0c be 28 5e 19 bd 45 9b d0 bc 25 f4 19 3e
       -0.13760522 -0.03744331 -0.025464663 0.1503454
000380 0f 9c 6d 3d 72 06 ab 3d b7 67 02 3d 04 ef 49 3d
       0.058010157 0.08350839 0.03183719 0.04930021
000390 1a 35 ae ba f3 fc 15 bd d3 59 88 3c 29 6f c8 bd
       -0.0013290972 -0.036618184 0.016644394 -0.09786827
0003a0 51 67 12 3d a5 2d 96 3d d0 87 47 3c 4c 31 5d 3d
       0.03574306 0.07332925 0.012178376 0.05400209
0003b0 e5 5e cb bd 60 c6 f8 3b 08 75 c4 bd 7c aa 8a bc
       -0.09930209 0.0075920075 -0.095926344 -0.016926996
0003c0 b9 f4 21 3c 9f 7a 51 3d 00 75 16 ba 71 dd be 3d
       0.009885007 0.05114233 -0.000573948 0.0931958
0003d0 8a 2b 9b bc e0 95 55 bc 9d 90 1c 3a 58 a8 bb 3c
       -0.01894166 -0.013036221 0.0005972477 0.022907421
0003e0 12 e9 81 bc ce 98 75 3d 4c 13 eb 3d 98 5a e4 3d
       -0.015858207 0.05996018 0.1147829 0.11150092
0003f0 59 4d 88 bd 58 b0 7c 3d 3c 9f db bc 00 2d 72 bb
       -0.06655378 0.061691612 -0.026809327 -0.0036953092

fc2.bias f4 [10]
000000 f0 57 21 be 3b 4c 0e 3e 91 51 07 be 2d 3d 90 3b
       -0.15756202 0.13896267 -0.13214709 0.004401824
000010 f8 28 96 3d 19 cb ce bd fe 16 b9 3c d7 35 8c 3d
       0.07332033 -0.100973316 0.022593971 0.06846207
000020 0a 23 90 3e 78 cf a3 bd
       0.28151733 -0.07998556

fc3.weight f4 [1, 10]
000000 0a 23 32 bd 89 b3 4b bc 69 3e 6d bd 69 a1 30 bd
       -0.043490447 -0.012432941 -0.057920847 -0.043122683
000010 ba ff 16 3a 32 6a 56 bd 29 08 87 bd 35 7a 43 bd
       0.0005760152 -0.05234737 -0.06593353 -0.047723968
000020 e8 7d 2a bc da e9 a0 bd
       -0.010405995 -0.07857104
