res/european/qnn/models/qnn_13.pt (torch, 13599 bytes, 5 tensors)

fc1.weight f4 [64, 30]
-0.10748524 0.15412903 0.16533032 0.017594948 0.11535475 -0.11073932 0.014311537 0.06340426
-0.15933527 0.065273285 -0.10904713 0.019015849 -0.043504655 -0.016238004 -0.038869023 -0.0694279
-0.00380373 -0.14318034 -0.07900595 0.16969922 -0.04508102 -0.15770721 -0.13048668 -0.114769265
0.05726248 0.075146556 -0.13364103 -0.14616059 0.12004611 0.13098586 0.10430941 -0.033179987
0.12654336 0.08765068 0.08722374 -0.16508813 -0.23237862 -0.034119476 0.07857277 -0.091762416
0.043581974 0.07153177 -0.046468727 0.11809635 -0.04069179 -0.134368 -0.1975345 -0.22323816
-0.13447942 0.2402633 0.04227701 -0.07924865 0.19226709 -0.17248738 -0.067084484 -0.13429298
0.08629779 -0.23999053 -0.17523861 0.22598425 -0.0019923828 -0.12178959 -0.07765855 0.011121206
-0.031503815 0.047895677 -0.14079426 0.10864738 -0.022957442 -0.19164221 0.138131 0.096415654
-0.10991612 0.020568779 0.14640415 -0.16068661 0.012472825 -0.13264556 0.001939425 0.003151779
0.2576942 -0.2786587 0.080588736 -0.09290988 0.007016015 -0.082703546 0.022068562 0.19107726
-0.014714956 -0.10392984 -0.003793206 -0.06372868 -0.040808424 0.074046135 0.13186207 0.01050632
-0.14586432 -0.14507778 0.13400358 -0.055881776 0.1440996 -0.08927218 -0.09042017 -0.04738993
0.05731561 0.13597313 -0.030730242 0.04862237 0.16948095 0.15095563 0.12907675 0.04744234
-0.0584933 0.024852358 0.19646604 0.10355359 0.091827855 0.107959576 -0.06636305 -0.12680164
-0.0049599367 0.042196378 -0.113849334 0.052777972 0.0737973 -0.0023974762 -0.12429762 -0.24842526
-0.03705416 -0.0612141 0.033345606 0.23456652 -0.009221991 0.05123654 -0.10792566 0.034422927
-0.18736641 -0.09282289 0.090273164 -0.10566172 -0.07775172 0.15046659 -0.067068465 0.09700084
-0.081605524 0.114921905 0.03185898 -0.15909433 -0.13032648 0.19099247 0.17301445 -0.13535485
0.14293772 0.014704679 0.21592063 -0.02147255 -0.25460875 -0.077441685 0.1358675 -0.36079872
-0.035908177 0.051110573 -0.3081381 -0.0071219606 -0.26265466 -0.09945913 -0.11707975 -0.19957851
-0.25556102 0.18639877 0.094204746 -0.3098314 0.16351527 -0.12505081 0.0931397 -0.026310677
-0.081799075 -0.092739 -0.074229516 -0.12780869 0.08943348 0.09169883 -0.23180637 -0.11068231
-0.06573876 -0.12004342 -0.054824613 -0.117964 0.16017638 0.09896097 -0.0182314 -0.04868186
-0.1541308 0.26418948 0.04712905 0.2266612 -0.19121197 0.048978385 0.101433 0.17365478
-0.022356605 -0.05538956 0.07466319 -0.20163052 -0.04600303 -0.11714481 0.07403732 -0.04211612
-0.12713484 -0.069127664 -0.13127597 0.06490211 -0.08619978 -0.030048564 -0.046716496 0.047782674
-0.088562235 0.10208303 -0.13605717 0.16068071 0.120479405 -0.18248068 -0.06468876 -0.004959658
0.1307458 0.061141312 -0.03458664 0.11992806 -0.1340878 -0.002191946 -0.07291989 0.07700017
0.18218163 0.09230882 -0.039559275 0.0057566613 -0.04432775 0.13611203 -0.01264073 -0.086532
-0.0857222 0.1291399 0.1122261 -0.044938788 0.11425951 -0.17293227 0.16126409 -0.055257916
-0.017726108 0.021973789 0.060754865 0.10408348 0.12026456 -0.102943115 -0.047476366 -0.10222586
00000000: 3921 dcbd 00d4 1d3e 5a4c 293e 4823 903c
00000010: 1c3f ec3d 4ccb e2bd f07a 6a3c 18da 813d
00000020: c928 23be 00ae 853d 1a54 dfbd 20c7 9b3c
00000030: f031 32bd 9005 85bc 2035 1fbd 3730 8ebd
00000040: 0048 79bb de9d 12be dfcd a1bd a2c5 2d3e
00000050: e0a6 38bd 007e 21be 4d9e 05be 260c ebbd
00000060: 108c 6a3d 70e6 993d 32d9 08be 1fab 15be
00000070: bcda f53d 2821 063e 2ca0 d53d bde7 07bd
00000080: 9594 013e 3382 b33d 5ca2 b23d dd0c 29be
00000090: a9f4 6dbe ddc0 0bbd c3ea a03d efed bbbd
000000a0: 0383 323d 407f 923d fe55 3ebd 80dc f13d
000000b0: 6fac 26bd c497 09be 7c46 4abe 8b98 64be
000000c0: f9b4 09be 9507 763e a82a 2d3d 1e4d a2bd
000000d0: aae1 443e 88a0 30be 9763 89bd 1984 09be
000000e0: e5bc b03d 14c0 75be c071 33be 6a68 673e
000000f0: a392 02bb d26c f9bd 720b 9fbd b835 363c
00000100: 250a 01bd 422e 443d 5f2c 10be 8482 de3d
00000110: 3f11 bcbc db3d 44be 3672 0d3e 9275 c53d
00000120: b41b e1bd db7f a83c f8ea 153e 088b 24be
00000130: d25a 4c3c 3dd4 07be 4e34 fe3a 148e 4e3b
00000140: 7ff0 833e 5aac 8ebe b50b a53d 8947 bebd
00000150: 99e6 e53b 7a60 a9bd 21c9 b43c c2a9 433e
00000160: 0017 71bc 2bd9 d4bd 7097 78bb 2f84 82bd
00000170: bc26 27bd 80a5 973d da06 073e b322 2c3c
00000180: 755d 15be 458f 14be 3c38 093e 4ae4 64bd
00000190: d88e 133e 55d4 b6bd 362e b9bd f11b 42bd
000001a0: c6c3 6a3d 8a3c 0b3e fdbd fbbc 4028 473d
000001b0: 6a8c 2d3e 1d94 1a3e b22c 043e e652 423d
000001c0: ac96 6fbd 2c97 cb3c 652e 493e e813 d43d
000001d0: 3e10 bc3d e919 dd3d 5ae9 87bd 4ad8 01be
000001e0: f786 a2bb 1cd6 2c3d d729 e9bd b72d 583d
000001f0: 0a23 973d fa1e 1dbb c08f febd 3163 7ebe
00000200: 1ac6 17bd a3bb 7abd 6795 083d 3532 703e
00000210: d517 17bc 68dd 513d 2108 ddbd 0eff 0c3d
00000220: fbdc 3fbe ed19 bebd 23e1 b83d 2c65 d8bd
00000230: 4b3c 9fbd ea13 1a3e 315b 89bd 60a8 c63d
00000240: cc20 a7bd 2d5c eb3d 907e 023d a0e9 22be
00000250: 4e74 05be 8893 433e b32a 313e 769a 0abe
00000260: 445e 123e e5eb 703c 4c1a 5d3e 34e7 afbc
00000270: 145c 82be bf99 9ebd da20 0b3e 9cba b8be
00000280: 7414 13bd 5259 513d 47c4 9dbe 565f e9bb
00000290: ac7a 86be 3ab1 cbbd 82c7 efbd 4f5e 4cbe
000002a0: e5d8 82be 52df 3e3e 6bee c03d 39a2 9ebe
000002b0: 8c70 273e 520d 00be 07c0 be3d 7d89 d7bc
000002c0: 4686 a7bd f2ed bdbd a505 98bd 48e0 02be
000002d0: e628 b73d 99cc bb3d a65e 6dbe 68ad e2bd
000002e0: 0ba2 86bd 53d9 f5bd c68f 60bd 1c97 f1bd
000002f0: 4705 243e 0dac ca3d 045a 95bc a166 47bd
00000300: 77d4 1dbe d843 873e 640a 413d e019 683e
00000310: 12cd 43be 8f9d 483d 1bbc cf3d 8fd2 313e
00000320: 3325 b7bc 2ae0 62bd 04e9 983d 3b78 4ebe
00000330: ac6d 3cbd 9ee9 efbd e1a0 973d f481 2cbd
00000340: a32f 02be ce92 8dbd 356d 06be 66eb 843d
00000350: 8389 b0bd 6828 f6bc cc59 3fbd c4b7 433d
00000360: 1e60 b5bd e810 d13d 9252 0bbe 7c89 243e
00000370: e8bd f63d 37dc 3abe 8a7b 84bd a084 a2bb
00000380: 3ae2 053e 506f 7a3d b8aa 0dbd d89c f53d
00000390: 504e 09be c0a6 0fbb 0657 95bd 44b2 9d3d
000003a0: d28d 3a3e 680c bd3d e808 22bd 60a2 bc3b
000003b0: 0491 35bd f460 0b3e 101b 4fbc b037 b1bd
000003c0: 1f8f afbd 403d 043e ccd6 e53d bc11 38bd
000003d0: e400 ea3d 2815 31be 6a22 253e 2056 62bd
000003e0: 5836 91bc 6002 b43c 18da 783d b829 d53d
000003f0: 444d f63d d7d3 d2bd 9476 42bd cb5b d1bd

fc1.bias f4 [64]
0.081674546 0.20920855 -0.08046928 -0.13284773 0.08188096 0.016444692 -0.05267635 0.04788971
-0.07782638 -0.08316635 -0.08388329 -0.052562725 0.16962574 -0.11740532 -0.06615221 0.15979913
0.109883524 0.032348596 -0.001668334 -0.036480185 0.15245272 0.0922949 -0.062014394 -0.12268622
-0.10769401 -0.09427408 0.018631488 0.15734076 -0.030905211 0.06491707 0.0040988475 0.15391687
-0.074935764 0.12761077 0.08584632 0.10769284 -0.1288604 -0.030914217 0.08154068 -0.15668145
-0.04239204 -0.08887075 0.036765814 0.13317746 0.102924176 -0.20049164 0.07105529 -0.003198574
0.11115044 -0.11691074 -0.21234104 -0.012353852 0.14359695 -0.113779746 -0.01511623 0.20079386
-0.003976225 0.02520214 -0.07725429 -0.11238326 0.034969762 -0.106821604 -0.08095272 0.0009676516
00000000: fc44 a73d c43a 563e 14cd a4bd 3c09 08be
00000010: 34b1 a73d 05b7 863c 28c3 57bd 0028 443d
00000020: 7063 9fbd 1f53 aabd 01cb abbd 034c 57bd
00000030: 5fb2 2d3e 3372 f0bd cf7a 87bd 62a2 233e
00000040: 9d0a e13d f67f 043d 00ac daba 3f6c 15bd
00000050: 911c 1c3e 1c05 bd3d ce02 7ebd ea42 fbbd
00000060: ad8e dcbd c512 c1bd 10a1 983c f01d 213e
00000070: ed2c fdbc 3ef3 843d a04f 863b 629c 1d3e
00000080: ec77 99bd 66ac 023e 32d0 af3d 108e dc3d
00000090: fbf3 03be d03f fdbc cdfe a63d 1a71 20be
000000a0: 47a3 2dbd de01 b6bd c097 163d ac5f 083e
000000b0: e9c9 d23d ae4d 4dbe 7085 913d 2b9f 51bb
000000c0: d8a2 e33d e66e efbd ee6f 59be d067 4abc
000000d0: 140b 133e 5b05 e9bd 10aa 77bc e89c 4d3e
000000e0: fe4a 82bb b874 ce3c 7f37 9ebd 3229 e6bd
000000f0: 743c 0f3d 49c5 dabd 8aca a5bd 00aa 7d3a

fc2.weight f4 [13, 64]
0.11070998 0.0025604665 0.0968257 -0.06770767 0.04531365 0.13298814 -0.059619956 0.040183842
-0.0728472 0.0800918 -0.018003546 0.07636664 0.00273791 0.07209919 -0.07311146 0.04479435
0.09187004 -0.031345483 0.11614421 -0.021095136 0.06424755 -0.039870292 0.06315102 0.033890605
0.0765356 0.09557076 -0.042736813 -0.07455437 -0.0034614434 0.03125985 -0.082588166 -0.08630876
0.021036804 -0.009333134 0.10667561 -0.03585702 -0.123000026 -0.07498504 0.123767965 0.045615256
-0.061215106 0.12823182 0.06644803 -0.10223369 0.0814791 0.045498498 -0.12369645 -0.1598747
0.09998743 -0.014696166 0.015785428 0.07456078 -0.068825364 0.12570778 0.10599916 0.01696336
-0.28580484 -0.00096961856 0.046059802 0.05953437 0.06921488 0.044450857 0.04960166 -0.084745646
0.020515174 0.0731516 -0.1542736 -0.091696374 0.00813071 -0.026459157 0.099592686 -0.031180784
-0.0825004 -0.066422865 -0.09930615 -0.059573386 0.1352138 -0.097588316 0.108714744 -0.017339155
-0.069294006 0.047576163 0.029955134 -0.018591398 0.118669845 -0.014973953 0.08986792 -0.1183158
0.09297784 0.032950073 -0.03889434 0.060592353 -0.09503715 0.037715476 -0.10394694 -0.06833121
-0.06757037 -0.014409125 -0.09903526 -0.11188847 0.03702286 -0.09237479 -0.0908951 0.034130275
0.0990419 -0.033934906 -0.03242068 0.0038437396 -0.14141248 -0.018179286 0.10882054 -0.008887198
0.121454 -0.050765112 0.025870081 -0.11626302 -0.11356142 -0.023941554 -0.11841759 0.099919125
0.18310903 0.057930052 -0.09309642 0.037614748 0.055394977 0.023944274 -0.05369988 0.055756226
0.11445294 -0.119042814 -0.08810942 0.006610703 -0.070421755 -0.09250888 -0.10848409 -0.122024104
0.01050283 -0.08615122 -0.080524 -0.13054247 -0.04139227 -0.07579661 -0.031286567 0.0693887
-0.09306353 -0.012399964 -0.106688276 -0.039159358 0.028745702 -0.01907821 -0.028970554 -0.005055234
-0.06039411 -0.040338114 -0.061754495 0.076111406 -0.07000863 -0.058018956 0.086657226 -0.010743558
-0.051514253 -0.10884848 0.00039672205 -0.093568966 0.04041231 -0.069082096 -0.11754239 -0.043814287
0.053807028 -0.03129643 0.1217964 -0.05910799 -0.10031304 0.0730905 -0.11778742 -0.021827202
0.060645267 -0.07430901 -0.12119005 -0.07728647 0.09560749 0.07989432 0.0059914887 -0.11614475
-0.058102712 -0.032132432 -0.013366483 0.003687337 0.05163984 0.10301745 -0.041572794 0.006974116
-0.07245751 0.19176404 0.08507192 0.10417681 0.0026165587 0.19315208 0.20200682 0.11339109
0.04056844 0.24858703 0.113088705 0.24596791 0.2324615 0.19835962 0.04677275 -0.08446598
-0.007049493 0.07467497 -0.08251132 -0.058106985 0.26405627 -0.039109334 0.05891505 0.07284327
0.074157625 0.0999286 0.018159524 -0.016765222 -0.11481457 0.28214914 -0.0757698 0.06579381
-0.04536192 0.10772689 0.23020092 -0.05356033 -0.00484537 0.009639353 0.24596584 -0.046998233
0.041088004 0.017087094 0.044040784 0.034487262 -0.048494313 -0.009877182 -0.062349007 0.2681936
-0.07767607 0.08570884 0.07797764 0.07095128 0.027382866 0.25835425 -0.03640105 0.19060199
0.14466698 -0.09854439 0.07265025 0.024296686 0.032701537 -0.058282778 -0.11465104 -0.03042616
00000000: eabb e23d 80cd 273b 8d4c c63d 52aa 8abd
00000010: ce9a 393d 0b2e 083e 0e34 74bd d097 243d
00000020: ea30 95bd 2b07 a43d 2c7c 93bc 1d66 9c3d
00000030: 826e 333b bda8 933d 76bb 95bd 487a 373d
00000040: 5c26 bc3d 1f64 00bd 04dd ed3d b5cf acbc
00000050: 3894 833d 084f 23bd 5255 813d e0d0 0a3d
00000060: b2be 9c3d 9aba c33d cc0c 2fbd f6af 98bd
00000070: 62d9 62bb 540a 003d fc23 a9bd a6c2 b0bd
00000080: 6055 ac3c 00ea 18bc be78 da3d d0de 12bd
00000090: 70e7 fbbd c291 99bd 0f7a fd3d 10d7 3a3d
000000a0: b1bc 7abd 344f 033e e815 883d e65f d1bd
000000b0: 84de a63d a25c 3a3d 9054 fdbd 31b6 23be
000000c0: 36c6 cc3d 30c8 70bc 7150 813c 52b3 983d
000000d0: 50f4 8cbd 8ab9 003e 1616 d93d bff6 8a3c
000000e0: 0355 92be 002e 7eba 34a9 3c3d 50da 733d
000000f0: 88c0 8d3d 1a12 363d 1c2b 4b3d 208f adbd
00000100: 700f a83c 82d0 953d e6f9 1dbe 4fcb bbbd
00000110: ab36 053c e0c0 d8bc 40f7 cb3d d86e ffbc
00000120: f8f5 a8bd b608 88bd 0661 cbbd 3903 74bd
00000130: 7d75 0a3e 62dc c7bd d6a5 de3d d80a 8ebc
00000140: 04ea 8dbd 39df 423d 7864 f53c fd4c 98bc
00000150: 2d09 f33d 5055 75bc ac0c b83d 8e4f f2bd
00000160: 2a6b be3d a8f6 063d ac4f 1fbd b02f 783d
00000170: d6a2 c2bd 8b7b 1a3d 22e2 d4bd 3cf1 8bbd
00000180: 5662 8abd 4014 6cbc 00d3 cabd c825 e5bd
00000190: 48a5 173d fe2e bdbd 3627 babd 30cc 0b3d
000001a0: 7bd6 ca3d 54ff 0abd 8ccb 04bd 40e7 7b3b
000001b0: 6fce 10be baec 94bc 4edd de3d 9c9b 11bc
000001c0: e0bc f83d 14ef 4fbd 7eed d33c 4e1b eebd
000001d0: e492 e8bd 1421 c4bc ec84 f2bd 66a2 cc3d
000001e0: ef80 3b3e 1048 6d3d 56a9 bebd ec11 1a3d
000001f0: d8e5 623d c826 c43c 68f4 5bbd a460 643d
00000200: 4e66 ea3d b8cc f3bd b672 b4bd 999e d83b
00000210: 4839 90bd 4c75 bdbd e82c debd c6e7 f9bd
00000220: 1014 2c3c 0d70 b0bd c4e9 a4bd edac 05be
00000230: f18a 29bd 413b 9bbd 5826 00bd aa1b 8e3d
00000240: 1898 bebd 3829 4bbc 627f dabd 9065 20bd
00000250: 1b7c eb3c e849 9cbc a853 edbc 60a6 a5bb
00000260: d05f 77bd 9439 25bd 48f2 7cbd 4ce0 9b3d
00000270: af60 8fbd 49a5 6dbd 5879 b13d c005 30bc
00000280: 9c00 53bd f4eb debd 22ff cf39 16a1 bfbd
00000290: 6187 253d ea7a 8dbd 11ba f0bd 9c76 33bd
000002a0: c264 5c3d af30 00bd 6470 f93d 381b 72bd
000002b0: ec70 cdbd 79b0 953d 883a f1bd f6ce b2bc
000002c0: 2c67 783d 522f 98bd 7d32 f8bd 5e48 9ebd
000002d0: dccd c33d a29f a33d 4054 c43b 4cdd edbd
000002e0: 1cfd 6dbd 4c9d 03bd 18ff 5abc 40a7 713b
000002f0: 4c84 533d d0fa d23d 3c48 2abd 2087 e43b
00000300: 9a64 94bd cb5d 443e 303a ae3d a75a d53d
00000310: 927a 2b3b a9c9 453e e0da 4e3e 9639 e83d
00000320: 182b 263d 998d 7e3e 0d9b e73d 03df 7b3e
00000330: 630a 6e3e c91e 4b3e c894 3f3d 80fc acbd
00000340: 6fff e6bb 31ef 983d b2fb a8bd 9701 6ebd
00000350: 6232 873e 1c31 20bd e850 713d da2e 953d
00000360: f4df 973d 5ea7 cc3d 48c3 943c 3857 89bc
00000370: e723 ebbd da75 903e 322d 9bbd e8be 863d
00000380: 6ccd 39bd ea9f dc3d cab9 6b3e 1462 5bbd
00000390: e9c5 9ebb 60ee 1d3c 78de 7b3e 3881 40bd
000003a0: e54b 283d 3cfa 8b3c 1c64 343d 8442 0d3d
000003b0: f9a1 46bd e7d3 21bc ac61 7fbd ac50 893e
000003c0: a214 9fbd 1e88 af3d beb2 9f3d e84e 913d
000003d0: 0852 e03c 0247 843e 4419 15bd 2b2d 433e
000003e0: 9523 143e a4d1 c9bd a7c9 943d d809 c73c
000003f0: 0cf2 053d ecb9 6ebd 2ace eabd 4840 f9bc

fc2.bias f4 [13]
0.102875076 0.04163932 0.09161564 0.06405957 0.09585719 -0.15228139 -0.03590952 -0.0049169045
-0.04469686 0.23810457 0.10733723 -0.0056943437 0.058246985
00000000: 2bb0 d23d fe8d 2a3d fba0 bb3d aa31 833d
00000010: c650 c43d a7ef 1bbe dc15 13bd fc1d a1bb
00000020: 0e14 37bd afd1 733e 9fd3 db3d 9e97 babb
00000030: 6494 6e3d

fc3.weight f4 [1, 13]
0.052111343 0.021942455 0.041503087 0.02885633 0.099209934 0.04336425 0.013991359 0.043653045
0.019298391 0.044066597 -0.037973408 0.041195996 0.034676425
00000000: b472 553d aac0 b33c 24ff 293d 1c64 ec3c
00000010: 942e cb3d b69e 313d 033c 653c 89cd 323d
00000020: a917 9e3c 2d7f 343d 018a 1bbd 22bd 283d
00000030: de08 0e3d
