res/european/qnn/models/qnn_6.pt (torch, 11807 bytes, 5 tensors)

fc1.weight f4 [64, 30]
00000000: 0437 02bd f0d8 7c3d 247a 143e b387 29be
00000010: 41dd 81bd 0052 c73c 7af9 073e 6400 49bd
00000020: 70a0 123c 019b d6bd 825b 003e 06a6 dcbd
00000030: cc68 f83d f898 ac3d 0fe1 05be 34e5 2c3d
00000040: 9c92 243e 5ea3 9abd 7ebf 2c3e 1c47 f73d
00000050: 5c28 083e 6049 183e 7ad7 1a3e 944f 09be
00000060: a8ba b33c b451 763d 39db 8fbd 5071 da3d
00000070: d052 a7bc 40c9 e8bb 8678 893c 0bf7 26be
00000080: 9415 ec3d a630 73be fc32 463e 9392 6cbe
00000090: 05d3 b6bd 4e85 21be 8888 213e 1d6c c0bd
000000a0: c727 31be 6973 c1bd 5c1f 1b3e 3524 f9bd
000000b0: 40f7 bdbd cfb3 a1bd ddba 2d3c 1770 39be
000000c0: 4e5d 89be c805 f63d 1436 f8bd cc3e 88be
000000d0: 381b 9d3e 084f d6bd 21a6 143e b2a7 9bbd
000000e0: 90d2 0ebe 7e9e ce3d 1cd4 0cbd e751 983d
000000f0: d918 b9bd 7aa7 0f3e 3038 8a3d 2e86 c5bd
00000100: 647e 323e 32c8 083e 2872 573d d8e4 26bd
00000110: d418 2abe 9fa6 e1bd 10fd 843d e02d b1bc
00000120: 40f3 b73d a05a 2b3d f89d d63d abed b5bd
00000130: 5784 e0bd 2ab2 32be 7eef 7bbd c0d6 313d
00000140: ea93 0f3e 9436 c43d b43a 0e3e 249d a6bd
00000150: f953 b7bd 1c6c 373e 842c 37bd 2829 e63c
00000160: fc7d 85bd f5f0 8fbd eafd 483e 4bff 8fbd
00000170: 6ce2 1b3e a478 96be 471c 1d3e 260a 093d
00000180: 707d db3b 62c4 3fbe 2880 5cbe c142 2abd
00000190: a7fc d3bd 651a 303d 17b6 55be 0e79 243e
000001a0: 9109 dd3d 38aa 36bd 0140 0a3d 0d15 85bc
000001b0: 04ad 783d 92e5 263c cf15 f43d afa8 c13c
000001c0: 9a64 e73c 780a d23d ef65 603e b833 9b3d
000001d0: 09ac 653d 5a55 04be 1c68 d33c 2f69 62be
000001e0: 89f5 873e fde9 333e 3d60 07bd df42 c03d
000001f0: e0a5 ab3d d4a9 0cbe 8429 eb3d 59ff 5fbd
00000200: 3547 52be 063b 22bc 4a0a 963c c57e fcbd
00000210: 384b 7d3c 5dc8 dfbd 8f54 2bbd afcc 9cbd
00000220: 04d1 d53d b92f 7b3d 9a46 443e 1a50 b2bd
00000230: edb2 493e 6d82 14bc 9cbe f5bd 39bf 8e3c
00000240: bc64 90bd 90fe 2dbe 8f62 71bd d642 f13d
00000250: 55f5 6e3e d379 21be 8388 2abe c091 3d3b
00000260: ac4f 473d 655d a5bd 80ad 9c3d a889 cabc
00000270: effb 37be 14d9 18bd 0493 183e 6eb1 8abd
00000280: acea d73d b322 3abe 8061 aeba 98ee 923d
00000290: 684d cd3d 70bb 13be 3c55 a43d 103b 6b3d
000002a0: 74dc 06be 18b6 223d 962c 063e ccf5 e0bd
000002b0: 5270 02be 527c 133e 6c74 8fbd fd66 1ebe
000002c0: a0cf 30bc 58e1 ab3c ec8f 823d b004 643c
000002d0: 765a 303c 1560 dabc 73f6 953d 876d 8dbe
000002e0: 3971 7ebd 0da7 34bb e5a1 b2bd 8df4 f6bd
000002f0: ad98 b33d 5ed2 0e3d 722b 15be 0d2d 99ba
00000300: 7575 1b3d c2b0 8abb 9da2 01be 589b 12be
00000310: 08a0 c4bd c43b 393d 47c8 72be 98fb d0bd
00000320: cf0b 4bbe 73fb 19be b6aa 043e b2ae 893e
00000330: cf1e 3c3e b130 b7bd cb62 ef3c c703 2a3e
00000340: 29e3 7fbe 90c9 6cbd 2f55 153d e15e a03c
00000350: 47c2 2dbd 3baf b7bc ef5f 2ebd 29d3 71be
00000360: f37f 6b3e 97ba 7ebd f95a 1f3e 747b 183d
00000370: cf36 f2bd 0a2a 18bd d0a9 e1bd 6363 b53d
00000380: e60a 3f3e 6e2f 31be 8564 b7bc f3d4 0ebe
00000390: 4a7e 34be 6d4e 86bd 9f2d ccbd 807b 14bd
000003a0: bdd2 783e 1995 94bc 7e5f c4bc f537 39bd
000003b0: 5e72 ec3d a80c 6fbe 3165 e8bd 881c ef3b
000003c0: bf43 a23d 5122 f4bc 3ba5 033e 0353 f7bd
000003d0: 947c 2c3c c04a 67be 313c 503d 8a75 b3bd
000003e0: 8395 463e 50b2 28be 412d 08be 104f d23d
000003f0: 940a b83d 5c48 1fbe 8df9 113e e2b1 febd
-0.03179075 0.061730325 0.14499718 -0.16555671 -0.06341029 0.024331093 0.13278762 -0.04907264
0.008949384 -0.104787834 0.12534907 -0.10773854 0.121293634 0.08427614 -0.13074134 0.042210773
0.16071552 -0.07550691 0.16869923 0.1207411 0.13296646 0.1487174 0.1512126 -0.13409263
0.02193959 0.060136512 -0.07024235 0.10666144 -0.02042523 -0.007104069 0.016781103 -0.16305177
0.11527553 -0.23749027 0.19355386 -0.23102789 -0.089269675 -0.15773508 0.15774739 -0.09395621
-0.1730033 -0.09445841 0.15148681 -0.12165109 -0.09275675 -0.07895624 0.010603634 -0.18109165
-0.26828998 0.120128214 -0.121196896 -0.2661041 0.3068483 -0.10464293 0.14516498 -0.07600345
-0.1394751 0.10088824 -0.03438197 0.07437497 -0.090379424 0.14028731 0.06748998 -0.09644733
0.17431027 0.13357618 0.052599102 -0.040745586 -0.16611034 -0.110181086 0.0649358 -0.02162832
0.08981943 0.041834474 0.10479349 -0.08883222 -0.10962742 -0.17450777 -0.061507694 0.043417692
0.14021268 0.095807225 0.13889581 -0.08135441 -0.089515634 0.17912334 -0.044720188 0.028095797
-0.0651817 -0.07028381 0.1962811 -0.07031115 0.15223092 -0.29388916 0.15342818 0.033456944
0.006698303 -0.18727258 -0.21533263 -0.041567568 -0.10350924 0.04299392 -0.20870243 0.16061804
0.1079284 -0.044595927 0.033752445 -0.01624539 0.060711876 0.01018657 0.11918222 0.023640005
0.028246213 0.10255903 0.21913885 0.07578224 0.05607227 -0.12923184 0.02580648 -0.22110437
0.26554516 0.17569728 -0.033050764 0.09387755 0.083812475 -0.1373666 0.11482528 -0.054686878
-0.20534976 -0.009901768 0.018315453 -0.12328867 0.015459828 -0.10926888 -0.04182869 -0.07656228
0.10440257 0.06132481 0.19167557 -0.087066844 0.19697161 -0.009064299 -0.119992465 0.017425166
-0.070504636 -0.16991639 -0.058931883 0.11780326 0.23335774 -0.15769129 -0.16653638 0.0028925985
0.048659965 -0.08074454 0.0765028 -0.024723843 -0.17967199 -0.037316397 0.14899832 -0.06772123
0.10542807 -0.18177299 -0.0013304204 0.071744144 0.1002453 -0.1442697 0.0802407 0.057429373
-0.13170034 0.03972444 0.13102946 -0.10984382 -0.1273816 0.14402893 -0.070046276 -0.15468974
-0.010791689 0.020981476 0.06375107 0.013917133 0.010763755 -0.026657144 0.07322397 -0.27622625
-0.062119696 -0.002756539 -0.08722285 -0.12058363 0.08769355 0.03486859 -0.14567354 -0.00116864
0.037953813 -0.004232497 -0.12659688 -0.14317071 -0.09600836 0.045223013 -0.23709212 -0.10204238
-0.19828723 -0.15037327 0.12955746 0.26891094 0.18371128 -0.08944834 0.029221913 0.16603003
-0.24988998 -0.057809412 0.03645819 0.019576492 -0.042421605 -0.022422424 -0.04257196 -0.23615707
0.22998028 -0.062189665 0.15562047 0.03722711 -0.1182686 -0.037149467 -0.11018717 0.08856847
0.18656501 -0.17303249 -0.022386799 -0.13948421 -0.176263 -0.06557927 -0.09969639 -0.03625059
0.2429914 -0.018137502 -0.023971315 -0.04521938 0.11545251 -0.23344672 -0.11347426 0.0072971024
0.07923078 -0.02980152 0.12855999 -0.1207638 0.010527749 -0.22587109 0.050838653 -0.08762653
0.19392972 -0.16474271 -0.13298513 0.10268986 0.089863926 -0.15554947 0.14255352 -0.12436272

fc1.bias f4 [64]
00000000: 4450 9d3d a742 883d 757e cabd 5c2c 973d
00000010: 1acd e53d 9e53 0abe 9fb8 39be 975d 913b
00000020: 6f5f 0cbe 40c2 ecbb 9391 063c 8faa 7c3d
00000030: bfc8 01be eadf e93c cc8d 423d eee7 183e
00000040: 1031 ef3d 7e5a b9bd f1bd 39be 4dcf 2ebe
00000050: 102d 2c3e ae31 dfbc 9b18 74bd 0044 7cb9
00000060: 7633 a33d 31f0 173e e123 ed3d ab6e 41be
00000070: 7c66 cc3d 8b23 b83d 9824 953d 041c fdbd
00000080: e5fe d23d bba1 bfbd fe1f 253e 6af9 293e
00000090: d8ab a8bd 7b00 4d3e 0c13 683d 57fe c33b
000000a0: 5051 463e 3b1c ce3d a4ba 57be 8946 063e
000000b0: e2a5 18be dd7e 3d3d 4fd3 34be a55a 2e3e
000000c0: 26a9 b1bc f537 b13d 0982 43bd 3bf6 83bd
000000d0: c528 8cbd 4667 0d3e f81b a6bd efa7 2a3e
000000e0: 8ebf 383e 3bc9 483e 4e1d 893d ff3d 4b3d
000000f0: f059 063d b435 0a3e fc7e ca3d 5c62 d7bc
0.07681325 0.06653338 -0.09887401 0.07381508 0.11220761 -0.1350846 -0.18136834 0.0044362056
-0.1370828 -0.007225305 0.008213419 0.061686095 -0.12674235 0.028549153 0.04749851 0.14932224
0.1167928 -0.09050463 -0.18138863 -0.17071266 0.16814065 -0.027245369 -0.059593778 -0.00024057925
0.079688 0.1483772 0.11579109 -0.18889873 0.09980485 0.08991154 0.0728237 -0.12358859
0.103025235 -0.093570195 0.16125485 0.1659905 -0.082359016 0.20019715 0.05665879 0.0059812474
0.19366956 0.10063978 -0.21067291 0.13112845 -0.1490703 0.046263564 -0.17658733 0.17026766
-0.021687102 0.08653251 -0.047731433 -0.06443449 -0.06843714 0.13808927 -0.08110803 0.16665624
0.18041822 0.19608013 0.066950426 0.04961967 0.032800615 0.13497049 0.098875016 -0.026292019

fc2.weight f4 [6, 64]
00000000: 8c18 09bd 9707 463d b83e e5bd 8f36 8c3d
00000010: 8572 d4bd 608d 2cbd 51a9 0a3e 39c1 873d
00000020: 2fb5 ba3d d028 84bd 8fa4 9e3d 5892 0a3e
00000030: ec3c 6c3d 7cba 84bd fabe dfbd 585a f83c
00000040: 8ca3 e13d 0007 27bd 3ccf d03d 4858 10be
00000050: 60db f13b 22d3 e0bc 7e68 fd3d 147f b23d
00000060: aa15 ffbd 0385 6c3c 27d4 cd3d b4ff aabd
00000070: a4bd a4bd b9de 5ebd 48f1 cebd 96a7 c5bd
00000080: bc01 76bc 20e9 ec3c a007 93bc 12ab 1e3d
00000090: 0042 1dbd ae8b 3a3d 92cf 18be ce1e e5bc
000000a0: bc0d 17be 0e9d c93d c19b d7bc b5d3 ab3d
000000b0: 09ca cebd 67a2 92bd 712a 05bd 3d43 77bd
000000c0: 2aa1 49bd 35bb b43d 1703 58bd 3a43 97bd
000000d0: 1859 90bc a4e2 b9bd 50cd 48bc a7f2 373d
000000e0: da55 dfbd 7291 3e3d 64b6 ff3c 3015 3abc
000000f0: 1857 17bd 9671 f03d a054 30bc 2f8c c73d
00000100: 7c42 2c3d 248c f2bc 56fb db3d 90b0 59be
00000110: 553e 12be 0cc7 3e3d 917a d7bb ac97 8abd
00000120: b43c cebd 2edf a3bd a099 5bbe 7e66 dcbd
00000130: 0e33 bdbd 7c60 73bd 884e 7abd e0c0 a0bd
00000140: 0248 89bd a490 cc3d 5754 f0bc 9a72 19be
00000150: 803c 0c3b 8a3c a6bd 9ce8 51be 0002 cc3a
00000160: 9b3e 49be 1973 2abd f417 1fbe c169 5f3d
00000170: 40d0 04bc b2c3 09be 92ab a13d ff74 57be
00000180: 4c16 94bd 7abf 9f3d a810 dfbc ec13 52be
00000190: 248d 283d 8936 59be f652 15be 7f93 2dbc
000001a0: 766b 53be 0487 12bd bf5e d1bc 3e59 a3bc
000001b0: c657 33be df13 e1bd edc5 44bb 2d86 a7bc
000001c0: d546 1bbe 7e0e e8bc 252f cdbd b3ed 47bd
000001d0: 30a4 c1bc 1e5f e1bd 94eb c63d acac c6bd
000001e0: 382f f33d 862d 20bc 5d6e c0bc 6777 53be
000001f0: d051 17bd 9416 a7bd 3e2e 8f3d a8b5 69bc
00000200: 423c d9bd 684b 04be 1829 2b3d c4c9 8fbe
00000210: 8edc 8dbe 78bd a2bd 80de d5bd 0a6b 98bd
00000220: f5c6 fdbd 2638 8c3d 63f6 92bd fbbe 323e
00000230: 76b4 b73d e9f4 423d 2cd0 b4bd a881 b8bc
00000240: 2012 19bc b8d6 b13c e46e b8bd dd81 ebbd
00000250: 08cc 5a3d 6955 9dbe cc35 d8bd d88c 83bd
00000260: c86e 8cbe e234 43be a316 f7bd 91d7 cf3c
00000270: 7afa 823d bce3 43be e46d 923d b776 9dbd
00000280: 4740 8ebe 3884 10bd 3892 fcbc 7f21 82be
00000290: 40b0 7a3c 3781 67be 9b97 43be a39f c43c
000002a0: cc52 6fbe 5e84 7fbe c164 d0bc 45fe 22be
000002b0: 695d 9abd 3a17 56be a37f 1dbe aa76 063e
000002c0: 9ff2 94be fbb4 a2bd 5584 d23d 1659 61bd
000002d0: 2c7e ecbd 562b dcbd 1a97 cebd 2213 89be
000002e0: 5017 d23d 09dc 47be 89cd 46be 0ba0 84be
000002f0: 4ea9 fe3d 706c 5fbd d0a9 e23c b417 f9bc
00000300: 1007 bd3c f7b6 803c b863 123d e0be b23c
00000310: d21c fc3b 1202 b03d f17a 573d 8f71 92bd
00000320: f5c7 c3bd de7c dfbd 269b 9a3d b951 f93c
00000330: 06d9 c13d 790c ca3d 20d9 b7bd 3252 d7bd
00000340: 68a9 123d c82f 7abd dad4 3abd c71c f43d
00000350: c436 84bd a8f9 20be fe12 e2bd e0c6 aebc
00000360: 606b 283c 0711 22bd 5426 f03c 28b0 6a3d
00000370: 483e 9abd bb78 a3bd aca6 5abd 4f12 bfbd
00000380: 44e5 27be 4c45 cc3d 00d3 af3c 8ba5 573d
00000390: a00c babc 15a5 883d 2065 cb3c 216d 7d3d
000003a0: 69cd ffbd af59 133d 8e5f a63c e4a5 dbbd
000003b0: 0a50 903d 6e98 cbbd ec25 04be dcac 87bd
000003c0: d038 d4bd 09c9 8b3a 2518 d23d 47b5 8d3d
000003d0: f815 60bd b488 c6bd a6db c43d 040d 5dbd
000003e0: 88d3 f5bc 469b d6bd 2829 95bb 07ec c3bc
000003f0: 2c0e f6bd 00b1 ff3b 284a e33d ddcc 88bb
-0.033470675 0.048347082 -0.11193603 0.06846344 -0.10373405 -0.042127013 0.13541152 0.06628651
0.09116589 -0.06453097 0.07746231 0.13532388 0.057675287 -0.064808816 -0.10925098 0.030316517
0.11017522 -0.04077816 0.10195777 -0.14096177 0.007380888 -0.027444426 0.12373446 0.087156445
-0.12455304 0.014436009 0.100502305 -0.08349553 -0.080439836 -0.054411624 -0.101046145 -0.09651105
-0.015015062 0.028919756 -0.017947972 0.038737364 -0.03839302 0.045543365 -0.14922932 -0.02796879
-0.14751333 0.09844409 -0.026319386 0.08389989 -0.10097129 -0.07159882 -0.03251118 -0.060366858
-0.049225964 0.088247694 -0.05273732 -0.07385869 -0.017620608 -0.090764314 -0.012255982 0.044909146
-0.10905047 0.046525426 0.0312149 -0.011357591 -0.036948293 0.11740415 -0.010762364 0.09743535
0.042055592 -0.02960784 0.10741298 -0.2125876 -0.1428159 0.046576545 -0.0065758904 -0.0676721
-0.10070172 -0.080015525 -0.21445322 -0.10761736 -0.092382535 -0.059418187 -0.06111005 -0.07849288
-0.067031875 0.099885255 -0.029337091 -0.14985123 0.0021398365 -0.08117016 -0.2049889 0.0015564561
-0.19652788 -0.041613672 -0.15536481 0.054544214 -0.008106291 -0.13453558 0.078940526 -0.21040724
-0.07230815 0.07800193 -0.027229622 -0.20515412 0.041150227 -0.2121221 -0.14582428 -0.010594248
-0.20646462 -0.035773292 -0.025557874 -0.019940015 -0.17513952 -0.10990118 -0.00300252 -0.020449722
-0.15163739 -0.028327223 -0.10018758 -0.048810672 -0.023637861 -0.1100447 0.09712902 -0.09700903
0.11874241 -0.009776479 -0.023490125 -0.20651017 -0.036943257 -0.08158603 0.06991242 -0.014264502
-0.106071964 -0.1291939 0.041787237 -0.28083622 -0.27707332 -0.079462945 -0.10442829 -0.07442291
-0.12391464 0.06846647 -0.07175901 0.17455666 0.08969967 0.047596846 -0.08828768 -0.022522762
-0.0093427 0.021708831 -0.09005526 -0.11499379 0.053417236 -0.30729225 -0.10557136 -0.06423348
-0.2742827 -0.19063142 -0.120648645 0.025371345 0.06395431 -0.19129843 0.07149866 -0.07688659
-0.27783415 -0.035282344 -0.030831441 -0.2541618 0.01530081 -0.22607885 -0.19100802 0.024001902
-0.23371428 -0.24952838 -0.025438668 -0.15917309 -0.07537348 -0.20907298 -0.15380721 0.13131204
-0.29091355 -0.079446755 0.102791466 -0.0550166 -0.11547503 -0.10750453 -0.10087414 -0.2677241
0.10258353 -0.1951753 -0.19414343 -0.25903353 0.12434636 -0.054546773 0.027668864 -0.03040681
0.023074657 0.015712244 0.03573963 0.021819532 0.0076938653 0.08594145 0.05260748 -0.07150566
-0.09559623 -0.109124884 0.075491235 0.030434476 0.09465222 0.0986566 -0.0897696 -0.105137244
0.03580609 -0.061080724 -0.045613147 0.11919551 -0.06455758 -0.15720236 -0.11038779 -0.021335065
0.010279506 -0.03956702 0.029315151 0.057296902 -0.075314105 -0.07982012 -0.053381607 -0.09329664
-0.16396052 0.09974155 0.021462917 0.05264811 -0.022711098 0.06672112 0.024828494 0.06187165
-0.12490351 0.0359742 0.020309236 -0.107250005 0.07046516 -0.09941183 -0.12905091 -0.06624767
-0.103623986 0.0010664772 0.102585115 0.069193415 -0.05470845 -0.09694043 0.09612207 -0.05396749
-0.030008093 -0.10478835 -0.0045520253 -0.023916258 -0.12014422 0.0078030825 0.110981286 -0.004174812

fc2.bias f4 [6]
00000000: b4e8 52bb cfd5 f3bd ef50 36be 382d ef3d
00000010: 2ad9 023e ba9c ab3b
-0.003218216 -0.11906015 -0.17804311 0.11678547 0.12778154 0.005237189

fc3.weight f4 [1, 6]
00000000: caf5 d43a 5bbc afbc 9de0 5abc 50a8 e0bc
00000010: 1b65 c2bc c95c dc3c
0.0016247567 -0.02145212 -0.013359216 -0.027424008 -0.023729851 0.026899712
