res/european/qnn/models/qnn_11.pt (torch, 13087 bytes, 5 tensors)

fc1.weight f4 [64, 30]
0	0xbe1438c0	-0.14474773
1	0xbc145280	-0.009052873
2	0x3d65a088	0.056061298
3	0x3df3d8ec	0.11906609
4	0x3ce93458	0.028467342
5	0xbdb96486	-0.090523764
6	0x3e20f6fe	0.1571922
7	0x3d417190	0.047227442
8	0x3d5215d4	0.05129035
9	0xbde664b7	-0.112496786
10	0x3ddf87b8	0.10914558
11	0xbdf6c11e	-0.12048553
12	0x3e0ac4b4	0.13551599
13	0xbb5ad500	-0.0033391118
14	0x3dbd8bcc	0.0925518
15	0xbc8b8080	-0.017029047
16	0xbd9ffbb4	-0.078116804
17	0xbde3b3a2	-0.111182466
18	0xbbef93c0	-0.0073113143
19	0xbdc7e87b	-0.09761139
20	0x3cb1d6d8	0.02170889
21	0x3e209034	0.15680009
22	0xbdd5812a	-0.10425027
23	0xbe38f842	-0.18063453
24	0xbd30bf80	-0.04315138
25	0x3d2447cc	0.040107533
26	0xbd314e18	-0.043287367
27	0x3db70268	0.08936006
28	0x3ca50900	0.020145893
29	0x3d991aa8	0.074757874
30	0xbe26cd2b	-0.16289203
31	0x3bb09fa0	0.0053901225
32	0xbd91225f	-0.07086634
33	0xbd590e50	-0.052992165
34	0x3d988a94	0.07448307
35	0xbb1daa00	-0.0024057627
36	0xbd2718ec	-0.04079525
37	0x3e108112	0.14111736
38	0xbd079ebc	-0.033110365
39	0xbd403590	-0.04692608
40	0xbe288862	-0.16458276
41	0xba4a3100	-0.000771299
42	0xbd548390	-0.05188328
43	0xbd36dccc	-0.044644162
44	0x3d6a6494	0.057224825
45	0xbe031df4	-0.12804395
46	0xbdcdab10	-0.10042393
47	0x3e2d0e78	0.1690005
48	0x3e2019d0	0.15634847
49	0x3debe894	0.1151897
50	0xbde1cc6d	-0.11025319
51	0x3e1c235e	0.15247867
52	0x3e03bbfc	0.12864679
53	0x3da9d61c	0.08292791
54	0x3d959bfc	0.07305142
55	0x3da7ac68	0.08187181
56	0xbe2cb665	-0.16866453
57	0x3df06b10	0.117391706
58	0x3d35abc8	0.044353276
59	0xbda0da92	-0.07854189
60	0x3e7af500	0.24507523
61	0xbe2cd3b0	-0.16877627
62	0x3d96c4e9	0.073617764
63	0xbcd4e005	-0.025985727
64	0x3e9383d6	0.2881152
65	0xbbde14aa	-0.0067773657
66	0xbd00b4d3	-0.031422447
67	0xbe73505d	-0.23761125
68	0x3d65b324	0.056079045
69	0xbd5f4b1e	-0.054514997
70	0xbe805443	-0.25064287
71	0x3e7bbcd9	0.24583758
72	0xbdb8e586	-0.09028153
73	0x3ca11d12	0.019667182
74	0xbe9f1815	-0.3107306
75	0xbd00b275	-0.03142019
76	0x3d405687	0.04695752
77	0x3cc44bd6	0.023961943
78	0xbe5cdac5	-0.21567829
79	0xbdc17b07	-0.09447294
80	0x3e636968	0.22208178
81	0xbd5ad70c	-0.05342774
82	0x3d97fe33	0.074215315
83	0xbdf921e5	-0.12164668
84	0xbcb0d342	-0.02158511
85	0x3e7eeb5e	0.24894473
86	0x3ce2283c	0.027607076
87	0xbd1c890a	-0.038216628
88	0x3dd98472	0.10620965
89	0x3e3d6419	0.18495215
90	0x3e9c33e7	0.30508348
91	0x3d81d2ef	0.063390605
92	0x3cb182be	0.021668788
93	0xbe85b2b0	-0.2611289
94	0xbc02bacf	-0.007979109
95	0xbd83e685	-0.064404525
96	0xbdf8a246	-0.12140326
97	0xbe3504a9	-0.17677559
98	0x3db3098b	0.087420546
99	0xbe61e5ed	-0.22060366
100	0xbe84ca95	-0.25935808
101	0x3d1f7cda	0.038937427
102	0xbd5ad86e	-0.05342906
103	0xbe279dde	-0.16368815
104	0xbdde4b2c	-0.10854182
105	0xbe0eb666	-0.13936767
106	0xbe820ae3	-0.2539893
107	0xbe674c64	-0.22587734
108	0x3da92be2	0.08260323
109	0x3d9aa96d	0.07551847
110	0xbd933974	-0.07188693
111	0xbe1e1508	-0.1543771
112	0x3d94410c	0.07238969
113	0xbe1fe09e	-0.15613028
114	0x3e4cc2cf	0.19996189
115	0x3d22c918	0.03974256
116	0x3de86ad2	0.11348499
117	0x3cf78683	0.030215507
118	0x3e53acdc	0.2067141
119	0xbd7f1243	-0.062273275
120	0xba71289e	-0.0009199473
121	0x3ccc5eb2	0.024947498
122	0xbdfceedc	-0.12350246
123	0x3dbbb295	0.09164921
124	0xbcc51446	-0.024057519
125	0x3d12d9c9	0.035852227
126	0xbd4502e7	-0.04809847
127	0xbddc2f28	-0.10751182
128	0x3e78a351	0.2428105
129	0xbbf35f27	-0.0074271145
130	0x3e6218ec	0.2207982
131	0xbdc6f082	-0.09713842
132	0xbdb0be7e	-0.086300835
133	0x3e652a2c	0.22379369
134	0x3d08eb67	0.033427622
135	0x3e818bc2	0.2530194
136	0xbbe5a5be	-0.0070082834
137	0x3df1ea0a	0.118122175
138	0x3e3296a3	0.17440276
139	0x3d8eff3b	0.06982275
140	0xbce07aee	-0.027402367
141	0xbe54853d	-0.20753951
142	0xbdf397ef	-0.118942134
143	0xbc4a2474	-0.012337793
144	0x3e9dd119	0.3082359
145	0xbda68dd4	-0.0813252
146	0xbbad98f3	-0.005297774
147	0xbd400d8c	-0.04688792
148	0x3d9feada	0.07808466
149	0xbd192b70	-0.03739494
150	0xbc634405	-0.013871198
151	0x3d088ebf	0.03333926
152	0x3e2f2f49	0.17107882
153	0x3a5c3f5a	0.0008401774
154	0x3cc6aa25	0.024251053
155	0xbd8ae6ec	-0.06782326
156	0xbb904850	-0.0044031516
157	0xbd607c24	-0.05480589
158	0xbdb82573	-0.08991518
159	0xbdff79f8	-0.124744356
160	0xbd42eec0	-0.04759097
161	0x3d22d6bf	0.03975558
162	0xbdfa7efe	-0.12231253
163	0x3e5033dc	0.20332283
164	0xbe008876	-0.12552056
165	0x3e1b25bc	0.15151113
166	0xbdc6c9f1	-0.09706486
167	0x3d2d8423	0.042362344
168	0xbd722c5d	-0.05912434
169	0xbc3879f5	-0.011259546
170	0xbe2b5cb5	-0.16734584
171	0xbd87096e	-0.065935954
172	0x3caae3ec	0.020860635
173	0x3c93f99f	0.018063365
174	0x3e10a097	0.1412376
175	0xbc3e2468	-0.01160536
176	0xbdd25d75	-0.10271732
177	0x3e464107	0.19360743
178	0xbd9fed6d	-0.07808957
179	0x3e3d3ac6	0.18479452
180	0x3e4df5d1	0.20113303
181	0x3de4f245	0.11179022
182	0xbe39dcfb	-0.18150704
183	0xbd6f4a76	-0.05842062
184	0xbd954738	-0.072889745
185	0xbc9be114	-0.019028224
186	0xbe8adf43	-0.2712346
187	0xbdf32524	-0.118723184
188	0x3efffc14	0.49997008
189	0xbe81d465	-0.25357357
190	0xbdd6d7de	-0.10490392
191	0x3d6da5e0	0.05801952
192	0xbe7065f8	-0.23476398
193	0xbc79d37b	-0.015248175
194	0xbab87c49	-0.0014075126
195	0xbd8bdbf1	-0.0682906
196	0x3db4c10e	0.08825885
197	0xbd02aac4	-0.031901136
198	0x3c963637	0.018336399
199	0xbd570b40	-0.052500963
200	0x3e7543d8	0.23951662
201	0xbdd68d5f	-0.10476183
202	0x3e501268	0.20319521
203	0xbc03b80d	-0.008039487
204	0xbd74e9af	-0.05979317
205	0x3b9f1778	0.0048550926
206	0x3dc0f5ce	0.094218835
207	0xbe4d59f8	-0.20053852
208	0x3e0c8b7c	0.13725084
209	0xbd12a4f3	-0.03580184
210	0xbac2a5e9	-0.001485047
211	0x3acd0a25	0.0015643282
212	0x3d8df9c6	0.06932406
213	0x3ac756a4	0.0015208316
214	0x3dae8806	0.08522038
215	0xbd1c34c4	-0.03813626
216	0x3d64cbb0	0.055858314
217	0xbe1c890f	-0.15286659
218	0xbde0826e	-0.109623775
219	0x3e47e24b	0.19519918
220	0x3d0fb517	0.03508481
221	0xbdea9b14	-0.1145536
222	0x3e6843ed	0.22682162
223	0xbc3fa698	-0.011697434
224	0x3e4e54b9	0.20149507
225	0xbe2d3cb5	-0.16917689
226	0x3dd3f566	0.103495404
227	0x3e298e2b	0.16558139
228	0x3e4a0e2e	0.19731972
229	0xbe2c7c4d	-0.16844292
230	0xbc826704	-0.015918262
231	0x3c83c466	0.016084861
232	0xbd011cf4	-0.031521752
233	0x3d658558	0.05603537
234	0x3d3a8700	0.045538902
235	0x3dc007e4	0.09376505
236	0x3c82f169	0.015984254
237	0x3c9f0e89	0.01941611
238	0xbb9eee30	-0.0048501715
239	0xbd4d2989	-0.05008844
240	0x3e9de3b0	0.30837774
241	0xbe1c37d3	-0.1525567
242	0x3de1e31b	0.11029645
243	0xbe91a3b6	-0.28445214
244	0x3d965cdb	0.073419295
245	0x3e01bbf9	0.12669362
246	0xbe5a0f9a	-0.21295014
247	0xbd7618db	-0.060082298
248	0xbd231ac9	-0.039820466
249	0xbe886380	-0.26638412
250	0xbc40ce45	-0.0117679285
251	0x3c7f9f63	0.015601966
252	0xbe79a9b2	-0.2438114
253	0xbd03f411	-0.03221518
254	0xbec95d3b	-0.39328942
255	0x3bb06f95	0.0053843954

fc1.bias f4 [64]
0	0x3dd42a60	0.10359645
1	0x3d8527da	0.06501742
2	0xbd26d6fe	-0.040732376
3	0x3e881fe0	0.2658682
4	0x3d27746b	0.04088251
5	0x3e0c109b	0.1367821
6	0xbe230c07	-0.15922557
7	0xbe42bd38	-0.19017494
8	0x3e1762b2	0.14783743
9	0x3dd4c3f5	0.10388938
10	0x3e057b4d	0.13035317
11	0x3d687b24	0.05675806
12	0xbddb578f	-0.1071006
13	0xbe374ccb	-0.17900388
14	0xbdc05998	-0.09392089
15	0xbd7de7a0	-0.061988473
16	0x3d9b072e	0.07569729
17	0xbe2bac0f	-0.16764854
18	0x3e1e1586	0.15437898
19	0xbd8b25fe	-0.06794356
20	0x3dd90bfe	0.105979905
21	0xbd46abd4	-0.04850371
22	0x3c89a350	0.016801506
23	0x3e145979	0.14487256
24	0x3e1644b4	0.14674646
25	0x3d4040ee	0.04693692
26	0x3d900edf	0.070340864
27	0x388d99ea	6.752073e-05
28	0xbca5aa88	-0.020222917
29	0xbe42e9a4	-0.1903444
30	0x3d4dca20	0.05024159
31	0x3e6df90a	0.23239532
32	0x3e44be7b	0.19213288
33	0x3d4b8ac7	0.049692895
34	0x3dd07b7d	0.101798035
35	0x3d121cb4	0.035671905
36	0xbe009ddd	-0.1256022
37	0xbe0466a2	-0.12929776
38	0x3db82b8c	0.08992681
39	0xbda22a93	-0.07918277
40	0x3ea5cb4e	0.32381672
41	0xbe08b1aa	-0.13349023
42	0x3c364a58	0.011126123
43	0xbde6cdc4	-0.112697154
44	0x3cb35190	0.021889478
45	0x3e2ddb7e	0.16978261
46	0x3dc0dd31	0.09417189
47	0xbddeae64	-0.10873106
48	0x3cd58008	0.026062027
49	0x3de766d4	0.1129891
50	0x3dfae612	0.12250914
51	0x3e04b7aa	0.12960687
52	0x3db86204	0.0900307
53	0xbd123461	-0.035694484
54	0x3dcba238	0.0994305
55	0xba80cd25	-0.0009826763
56	0xbd3beff3	-0.04588313
57	0x3de79700	0.11308098
58	0xbdb14f7b	-0.08657738
59	0xbd96abe2	-0.07357003
60	0xbe1410de	-0.1445956
61	0xbd62921c	-0.055315122
62	0x3e18bf2a	0.14916673
63	0x3e769662	0.24080804

fc2.weight f4 [11, 64]
0	0x3d456eb0	0.048201263
1	0xbcabc770	-0.020969123
2	0x3e7245df	0.23659466
3	0x3e0e6bf3	0.13908367
4	0x3e220f47	0.1582614
5	0x3d992787	0.07478242
6	0x3e058951	0.13040663
7	0xbc9b86e7	-0.018985225
8	0x3e7a2ca0	0.24431086
9	0xbd67e4d0	-0.056614697
10	0x3e58800c	0.21142596
11	0xbdba164e	-0.090862855
12	0xbde975d3	-0.11399426
13	0xbc80a540	-0.015703797
14	0x3df368cd	0.118852235
15	0xbc8d8d68	-0.017279342
16	0x3e06024a	0.1308681
17	0x3d9c65c4	0.07636598
18	0x3e4798c7	0.19491874
19	0x3d98037c	0.074225396
20	0x3e6c93a3	0.23103194
21	0x3cd05e45	0.025435576
22	0x3de47735	0.111555494
23	0x3dc6485c	0.0968177
24	0xbd5b95e8	-0.05360976
25	0x3cc889ea	0.024479825
26	0x3d83c778	0.0643453
27	0x3e6c1097	0.23053204
28	0xbd27bb3c	-0.040950045
29	0x3da8f3df	0.0824964
30	0x3da33e38	0.07970852
31	0x3d6396ae	0.05556362
32	0x3e13079b	0.1435837
33	0x3e04a617	0.12953983
34	0x3d0ed500	0.0348711
35	0x3dcf7630	0.10129964
36	0x3e135a88	0.14390004
37	0xbdb81b96	-0.089896366
38	0x3b439800	0.0029845238
39	0x3c858c78	0.016302332
40	0x3e0a59d8	0.13510835
41	0xbdacb933	-0.084337614
42	0x3e094a4b	0.13407247
43	0x3cea1b70	0.028577536
44	0x3d1582b3	0.036501598
45	0x3bf45520	0.0074564368
46	0x3d54a70e	0.05191713
47	0x3dea3462	0.114357725
48	0x3d44b684	0.048025623
49	0xbcac1478	-0.021005854
50	0x3d5855ad	0.05281608
51	0xbdf72564	-0.120676786
52	0x3b93bf60	0.0045088977
53	0xbdfe6cf7	-0.12423127
54	0xbb781900	-0.0037856698
55	0xbd220bb3	-0.03956194
56	0xbddb0bbe	-0.10695599
57	0xbc95e268	-0.018296435
58	0x3cef22f8	0.02919148
59	0x3d16ab50	0.03678447
60	0x3d08c6d4	0.033392742
61	0x3e1b792a	0.15182939
62	0x3e36ca09	0.17850508
63	0x3dff7918	0.12474269
64	0x3cb13990	0.021633893
65	0x3dc15b18	0.09441203
66	0x3e4d8053	0.20068483
67	0x3e3d5e6e	0.18493053
68	0x3c51eb88	0.012812503
69	0xbd6d1105	-0.05787756
70	0x3e6d5ac8	0.23179162
71	0xbce3fd74	-0.027830817
72	0x3e269275	0.16266806
73	0x3ddeba8d	0.108754255
74	0x3e206b39	0.15665902
75	0xbd68b0d8	-0.056809276
76	0x3d7b0c95	0.061291296
77	0xbcd758d0	-0.026287466
78	0x3b0608e5	0.002045208
79	0xba18c400	-0.0005827546
80	0x3de6e704	0.112745315
81	0x3e4a3d8c	0.19750041
82	0x3e7e869e	0.2485604
83	0xbde2983a	-0.11064191
84	0x3dae3fd2	0.085082665
85	0x3e69825e	0.22803637
86	0x3db90c89	0.09035594
87	0x3e58adc0	0.2116003
88	0xbd546074	-0.051849797
89	0x3d8cc156	0.068728134
90	0x3d84a05b	0.06475898
91	0x3e1e1b7b	0.1544017
92	0xbcf799d0	-0.03022471
93	0x3dabd7ec	0.08390793
94	0xbded0b30	-0.115743995
95	0x3c965aec	0.018353902
96	0x3cfab783	0.030605083
97	0x3dab6782	0.08369352
98	0x3e1a45fb	0.15065758
99	0x3d060458	0.032718986
100	0x3daebf3a	0.08532567
101	0x3dd5f238	0.1044659
102	0x3d3d3888	0.04619649
103	0xbdccc9f0	-0.09999454
104	0x3dfa0b4d	0.12209187
105	0xbc258531	-0.010102556
106	0x3e0afd16	0.13573107
107	0xbdcd3654	-0.10020128
108	0x3d5d60a6	0.05404725
109	0x3dab6956	0.083697006
110	0x3dd87973	0.105700396
111	0xbdafc7e0	-0.08583045
112	0x3cb4e928	0.022083834
113	0x3d4a8c4c	0.049450204
114	0xbb9d4c9c	-0.0048003923
115	0xbde1ed24	-0.11031559
116	0x3dd0d384	0.101965934
117	0x3d981ce5	0.07427386
118	0x3decc720	0.115614176
119	0x3e3386bb	0.17531864
120	0xbe106ad1	-0.14103247
121	0x3c945370	0.018106192
122	0xbd50f000	-0.05101013
123	0x3e00b137	0.12567602
124	0x3daaf154	0.08346811
125	0x3e838f03	0.25695047
126	0x3e610a0b	0.21976487
127	0x3e31409c	0.17309803
128	0xbde0dca8	-0.10979587
129	0xbb8bb1c0	-0.004263133
130	0xbdc6d671	-0.0970887
131	0xbe1db166	-0.15399703
132	0xbd5227e1	-0.051307563
133	0xbdc1987d	-0.09452913
134	0xbd96ba16	-0.07359712
135	0xbd0b4838	-0.03400442
136	0xbe35fd2d	-0.1777236
137	0x3c8ed55d	0.017435724
138	0xbde98452	-0.11402191
139	0x3d62c8a8	0.055367142
140	0xbc916e12	-0.01775268
141	0xbd5d177c	-0.053977475
142	0xbdd0081f	-0.10157799
143	0x3df9f360	0.12204623
144	0xbe196a3a	-0.14981928
145	0xbe05d70e	-0.13070318
146	0xbe4286df	-0.18996762
147	0x3cbb1358	0.022836372
148	0xbdc78e82	-0.09743978
149	0x3c97e7b4	0.018543102
150	0xbd048bda	-0.032359935
151	0xbded63d7	-0.115913086
152	0xbde6554e	-0.11246739
153	0xbcdef3e3	-0.027215904
154	0xbe184a60	-0.14872122
155	0xbe119e61	-0.14220573
156	0xbd52c2cc	-0.051455304
157	0x3c2639cb	0.010145615
158	0x3d62cf64	0.055373564
159	0xbd455cee	-0.048184328
160	0x3e15820e	0.14600393
161	0x3ca59825	0.02021415
162	0xbe0a174f	-0.13485454
163	0xbdef6502	-0.116891876
164	0xbd90cc9d	-0.07070277
165	0x3c8479b0	0.016171306
166	0xbda710ac	-0.08157477
167	0xbcb03528	-0.021509722
168	0xbdd5e050	-0.10443175
169	0x3d05b03e	0.03263878
170	0xbe267152	-0.16254166
171	0xbb2bf440	-0.0026238114
172	0xbdbc6883	-0.091996215
173	0x3de55ea2	0.111996904
174	0xbe5443ea	-0.20729032
175	0x3e04db89	0.12974371
176	0xbdb286a2	-0.087170854
177	0x3bb6b700	0.0055760145
178	0xbdac86f7	-0.0842418
179	0xbdacc9b4	-0.08436909
180	0xbc0011e0	-0.007816762
181	0x3d610c7f	0.054943558
182	0xbd7680a4	-0.060181275
183	0xbd1b6fa6	-0.037948273
184	0x3d3591ea	0.044328608
185	0xbb527f00	-0.0032119155
186	0xbbed7900	-0.0072470903
187	0xbd62887c	-0.055305943
188	0xbc49b590	-0.012311354
189	0xbe0f4527	-0.13991223
190	0xbde259df	-0.11052298
191	0xbd6a7aa1	-0.057245854
192	0xbde6bc8e	-0.11266433
193	0xbd997c26	-0.074943826
194	0xbdad3dee	-0.08459078
195	0xbddc881c	-0.10768148
196	0x3d4a5bb5	0.049403865
197	0x3d6b0e74	0.05738683
198	0xbd9e4e5b	-0.07729789
199	0x3d98dc76	0.074639246
200	0xbe7a3344	-0.24433619
201	0x3d842a6b	0.06453403
202	0xbe61ef84	-0.22064024
203	0xbd4a91c8	-0.049455434
204	0xba25b938	-0.000632185
205	0xbd54b960	-0.0519346
206	0xbd354aea	-0.044260897
207	0x3d7ada20	0.061243176
208	0xbe747edf	-0.23876522
209	0xbd454337	-0.048159804
210	0xbd028381	-0.031863693
211	0xbdde866a	-0.10865481
212	0xbd6bbb9c	-0.057551965
213	0xbe69d0cd	-0.22833557
214	0xbdba295e	-0.090899214
215	0xbdf85eb1	-0.12127436
216	0xbdd00f20	-0.10159135
217	0xbcfa5981	-0.030560257
218	0xbe3e0088	-0.1855489
219	0xbdb84a8f	-0.08998596
220	0x3d8db66e	0.06919561
221	0xbb86e4e8	-0.004116643
222	0xbc57aae0	-0.013163298
223	0xbdf3a36d	-0.11896405
224	0xbd5f47e8	-0.054511935
225	0xbd3e52b6	-0.046465598
226	0xbd9c907b	-0.07644745
227	0x3dc0ca36	0.09413569
228	0xbe34c557	-0.17653404
229	0xbdc849ea	-0.09779723
230	0xbd7ef72c	-0.06224744
231	0x3dc22e9c	0.09481546
232	0xbd6f21bc	-0.05838178
233	0xbbfed300	-0.007776618
234	0xbe7126df	-0.23549984
235	0xbd2cf610	-0.04222685
236	0xbe24ebf4	-0.16105634
237	0x3d86f5b4	0.06589833
238	0xbe580f75	-0.21099646
239	0xbd0ebf27	-0.034850266
240	0xbdc702e4	-0.09717348
241	0xbd986ffa	-0.07443233
242	0xbd0b0b5e	-0.033946387
243	0xbb8a7400	-0.004225254
244	0x3dfa0924	0.12208775
245	0x3d3b48b9	0.04572365
246	0x3cb75c30	0.022382826
247	0xbd404c43	-0.04694773
248	0xbd7caf51	-0.061690632
249	0x3d740168	0.059571654
250	0xbb149440	-0.0022671372
251	0xbdbbd14c	-0.091707796
252	0x3dc3bbde	0.09557317
253	0xbdfba500	-0.122873306
254	0xbe74d8f2	-0.23910883
255	0xbddfd4ab	-0.10929235

fc2.bias f4 [11]
0	0x3e04c939	0.12967385
1	0xbcef82a9	-0.029237108
2	0xbe0841c4	-0.13306338
3	0xbe439bcb	-0.19102399
4	0xbe581716	-0.21102557
5	0xbe1fd09d	-0.15606923
6	0x3dcfaad8	0.10140008
7	0x3e397c3d	0.181138
8	0xbe09dc66	-0.13462982
9	0xbd343e01	-0.044004444
10	0x3decab69	0.115561314

fc3.weight f4 [1, 11]
0	0xbc3026cf	-0.01075144
1	0xbb334790	-0.0027355887
2	0xbcdf6a3b	-0.027272334
3	0x3d5c2c7b	0.053753357
4	0x3ca61581	0.020273926
5	0x3c40931b	0.011753823
6	0x3dac5853	0.08415284
7	0x3d0938d8	0.033501476
8	0xbd99e7c9	-0.07514913
9	0x3b619844	0.0034423033
10	0xbc89d6df	-0.016826091
