res/european/qnn/models/qnn_9.pt (torch, 12575 bytes, 5 tensors)

fc1.weight f4 [64, 30]
0	0xbdd98bb0	-0.106223464
1	0x3d980d64	0.07424429
2	0xbccddd00	-0.025129795
3	0x3e2c3bf4	0.16819745
4	0xbe0eedf4	-0.1395796
5	0x3da5ffa4	0.081054
6	0x3dd1505c	0.102204055
7	0xbe102d1b	-0.14079706
8	0x3da1c5e8	0.07899076
9	0x3dc0b278	0.0940904
10	0xbd495888	-0.049156696
11	0xbd78e4e8	-0.060765177
12	0xbdbde8dc	-0.0927293
13	0xbd0fed74	-0.035138562
14	0xbdd97f9a	-0.10620041
15	0x3d7ebf4c	0.062194154
16	0x3cd82e90	0.02638939
17	0xbe08d7a5	-0.13363512
18	0x3dc17d70	0.094477534
19	0xbd68bc98	-0.056820482
20	0x3dea0cd8	0.11428231
21	0xbdf6590a	-0.120287016
22	0x3d8393f4	0.06424704
23	0xbe233b8d	-0.15940686
24	0x3d0f5fd8	0.035003513
25	0x3dcfacac	0.101403564
26	0xbdbacbe9	-0.09120924
27	0xbd0d03f0	-0.034427583
28	0x3e12f170	0.14349914
29	0xbe240e23	-0.16021018
30	0x3def8144	0.11694577
31	0x3cb77eb4	0.022399284
32	0xbd822dbd	-0.0635638
33	0x3d59000d	0.052978564
34	0x3d857a28	0.0651744
35	0x3d7758cc	0.060387418
36	0xbe25765a	-0.16158429
37	0x3deee2a9	0.11664326
38	0x3c2fae98	0.010722779
39	0xbe56f1f1	-0.20990731
40	0xbcf169af	-0.02946934
41	0x3e2c40cb	0.16821592
42	0xbd569e21	-0.052396897
43	0x3d18cc42	0.03730417
44	0xbd58765c	-0.05284725
45	0x3e4e22ae	0.20130417
46	0xbe500e1d	-0.20317884
47	0xbc4ce024	-0.012504611
48	0xbe2bfda5	-0.16795976
49	0x3c67b27b	0.014141674
50	0xbda5971e	-0.08085464
51	0xbc91ea8e	-0.01781204
52	0x3c430796	0.011903664
53	0xbe2c4883	-0.16824536
54	0x3e5ec252	0.21753815
55	0x3d1e0b32	0.038584895
56	0xbd1b93ec	-0.037982866
57	0xbd6d9b30	-0.058009326
58	0x3cb70ba0	0.02234441
59	0xbdbbd211	-0.09170926
60	0xbd9091fd	-0.07059095
61	0xbdfd703c	-0.12374923
62	0xbe24471a	-0.16042748
63	0xbe3099c6	-0.1724616
64	0xbe0ca306	-0.13734064
65	0x3ad4f400	0.0016247034
66	0xbdddec97	-0.108361416
67	0xbdff02bb	-0.12451693
68	0xbda90285	-0.08252434
69	0xbe2f9403	-0.17146306
70	0xbc911660	-0.017710865
71	0x3d82a83a	0.06379743
72	0xbe229cd2	-0.15880135
73	0x3db25aa4	0.087086946
74	0xbe134262	-0.14380792
75	0x3d6217a4	0.055198327
76	0xbd03d954	-0.032189682
77	0x3df60844	0.12013295
78	0xbda57c4f	-0.080803506
79	0xbe2c9276	-0.16852745
80	0x3d31ed5c	0.043439254
81	0x3df69c38	0.12041515
82	0x3db45730	0.08805692
83	0xbe0dc1e9	-0.13843502
84	0xbe250b8c	-0.16117686
85	0x3de604e4	0.112314016
86	0xbcc1ebd8	-0.02367203
87	0x3d9a8660	0.07545161
88	0xbdb84250	-0.08997023
89	0xbe2d755b	-0.16939299
90	0xbde09d77	-0.10967534
91	0x3d7c43e4	0.061588183
92	0x3e10aa52	0.14127472
93	0x3c700a40	0.014650881
94	0x3cfe6d10	0.031057864
95	0xbc67d9c0	-0.014151037
96	0xbd6966fc	-0.05698298
97	0xbb93ea40	-0.0045140088
98	0xbd68edb4	-0.056867316
99	0xbe03599a	-0.12827149
100	0x3debf8c8	0.11522061
101	0x3deafde4	0.11474207
102	0xbd94a4d4	-0.07258001
103	0x3cd9fc50	0.02660957
104	0xbdc4f944	-0.09617856
105	0xbdf535b5	-0.119731344
106	0x3d85913a	0.065218404
107	0xbdb7a6b3	-0.08967342
108	0x3d88ccfe	0.06679724
109	0x3db81180	0.08987713
110	0xbe19cfca	-0.15020671
111	0x3c4d3050	0.012523726
112	0xbdf18ab4	-0.11794034
113	0xbdecdfa4	-0.115660936
114	0xbe2bf720	-0.1679349
115	0x3e3930c6	0.18085012
116	0x3cab81d8	0.020935938
117	0xbe1edc94	-0.15513831
118	0x3cb13740	0.02163279
119	0x3bab3d00	0.0052257776
120	0xbc17e20b	-0.009270201
121	0x3e04be72	0.12963274
122	0x3d911af4	0.07085219
123	0x3de462d6	0.11151664
124	0x3e1cb316	0.15302691
125	0x3d4bd03c	0.049759135
126	0xbc9e6a45	-0.019337783
127	0xbd860485	-0.06543831
128	0xbdaede02	-0.085384384
129	0xbd9dd44e	-0.077065095
130	0x3c5b89d9	0.013399565
131	0x3d5f38cc	0.054497525
132	0x3db8e1ba	0.09027429
133	0xbdb6e431	-0.08930243
134	0xba8508ce	-0.0010149719
135	0xbd8fdd04	-0.07024577
136	0x3c92e8f2	0.017933343
137	0x3cf8e1cf	0.030381111
138	0xbdfe6fe9	-0.12423689
139	0x3dc0093e	0.09376763
140	0xbe1afd42	-0.15135673
141	0xbc3e5f69	-0.011619427
142	0xbdaecec5	-0.08535532
143	0x3dd3bd26	0.103388116
144	0xbdb6247e	-0.08893679
145	0x3decf194	0.11569515
146	0x3c79a553	0.01523717
147	0x3cd92b3a	0.02650987
148	0xbdf18f47	-0.11794906
149	0x3c3fc784	0.011705283
150	0x3d4d7653	0.05016167
151	0x3e19bbe1	0.15013076
152	0xbda2efb7	-0.07955878
153	0xbad24d5b	-0.0016044782
154	0xbe4b4a2e	-0.19852516
155	0x3de29a2c	0.11064562
156	0x3e132158	0.14368188
157	0x3d23588b	0.039879363
158	0xbe5d15f0	-0.215904
159	0x3e17a094	0.1480735
160	0xbcfba52c	-0.030718409
161	0xbd8292af	-0.06375634
162	0xbd110fdd	-0.03541552
163	0xbdb7c269	-0.08972628
164	0x3df95aca	0.1217552
165	0xbe0b7362	-0.13618234
166	0x3cd7e996	0.0263565
167	0x3e36ef44	0.1786471
168	0x3d100da3	0.035169255
169	0xbdf07c01	-0.11742402
170	0xbda7a16e	-0.08185087
171	0x3e2ba079	0.16760434
172	0xbe0f5165	-0.13995893
173	0x3df5a33e	0.119940266
174	0x3d795e4c	0.060880944
175	0x3d71909c	0.0589758
176	0xbd61a26c	-0.05508654
177	0xbe24c920	-0.16092348
178	0x3de2d894	0.11076465
179	0xbd38846f	-0.045048174
180	0xba9ab5f3	-0.0011803493
181	0xbd051388	-0.03248933
182	0xbe25fac5	-0.16208942
183	0x3e1434d9	0.14473285
184	0xbe09c32e	-0.13453361
185	0x3e32add5	0.17449124
186	0x3e10d566	0.14143905
187	0x3e323c30	0.17405772
188	0x3e1ce9bb	0.15323536
189	0x3d3df0f5	0.046372373
190	0x3e615294	0.22004157
191	0xbb17dc10	-0.002317194
192	0x3dc7b585	0.09751419
193	0xbcdc69b3	-0.02690587
194	0x3e1c8056	0.15283331
195	0xbe084cdc	-0.1331057
196	0x3d47d4ae	0.04878681
197	0x3c50ee39	0.012752109
198	0x3debd783	0.11515715
199	0x38c650f7	9.4564566e-05
200	0xbe04e557	-0.12978111
201	0xbe3c9cc0	-0.1841917
202	0x3e30acc5	0.17253406
203	0xbe0bba4f	-0.1364529
204	0x3d9db324	0.07700184
205	0x3e21bc2a	0.15794435
206	0xbe07de85	-0.13268478
207	0xbe20fbb9	-0.15721025
208	0xbe19416e	-0.14966366
209	0x3a007f6b	0.0004901799
210	0xbe00a1a2	-0.12561658
211	0xbdedc783	-0.116103195
212	0xbdd3496a	-0.10316737
213	0xbd5e6f04	-0.05430509
214	0xbdb445d3	-0.088023804
215	0x3dc94eec	0.09829506
216	0x3d64f344	0.05589606
217	0xbd637a0c	-0.055536315
218	0x3e128a92	0.14310673
219	0xbe382629	-0.17983307
220	0x3dd0a92c	0.10188517
221	0x3d8089c2	0.06276275
222	0xbdaaf0ec	-0.083467335
223	0x3d84e60a	0.06489189
224	0xbd232370	-0.039828718
225	0xbcb22ca8	-0.02174981
226	0x3de96af4	0.11397353
227	0x3e25b7da	0.16183415
228	0x3dae7144	0.085176975
229	0xbddcd526	-0.10782842
230	0xbd7b4b22	-0.06135095
231	0xbd5b3d4c	-0.053525254
232	0x3e1e0e90	0.15435243
233	0x3e311c32	0.17295912
234	0xbd4e3e10	-0.050352156
235	0xbdf01759	-0.11723203
236	0xbda2900a	-0.079376295
237	0xbc864eb0	-0.016394943
238	0xbc72d6e0	-0.014821738
239	0xbd7a54ba	-0.061115958
240	0xbcaacfe0	-0.020851076
241	0xbcb5a826	-0.022174906
242	0xbd822d12	-0.06356253
243	0x3e5fa739	0.21841134
244	0xbe546fcd	-0.20745774
245	0xbe1838d4	-0.14865428
246	0xbe28b6b2	-0.16475943
247	0x3e6423d9	0.222793
248	0x3cd68673	0.026187157
249	0xbd649b6d	-0.055812288
250	0x3dd2d46e	0.10294424
251	0x3d3eb491	0.04655892
252	0x3e5ecd61	0.21758033
253	0xbdba7c12	-0.09105696
254	0x3dc4f216	0.09616487
255	0xbd9cde0c	-0.076595396

fc1.bias f4 [64]
0	0xbd4883c4	-0.048953786
1	0x3e274c40	0.16337681
2	0xbdf3a56c	-0.11896786
3	0xbe115317	-0.14191853
4	0xbe1400db	-0.14453451
5	0x3d72b79b	0.05925713
6	0xbe295e42	-0.16539863
7	0xbe10919d	-0.14118047
8	0xbe2e00fc	-0.16992563
9	0x3e2fd5df	0.17171429
10	0x3dcb6b64	0.099325925
11	0x3e242fbb	0.16033833
12	0xbe483357	-0.19550835
13	0xbcc1bf92	-0.023650918
14	0x3db42d00	0.087976456
15	0xbdad2a3c	-0.08455321
16	0x3e1c7d74	0.15282232
17	0x3e199c71	0.15001084
18	0x3d83eba0	0.06441426
19	0x3d67ea84	0.056620136
20	0x3e24b01a	0.16082802
21	0x3d13f819	0.036125276
22	0x3e0fb02a	0.14032045
23	0xbd9e9f71	-0.07745255
24	0x3e7263fd	0.23670955
25	0x3d850787	0.06495576
26	0xbd4be89e	-0.049782388
27	0x3e0f5cb7	0.14000212
28	0xbde5c691	-0.11219514
29	0xbe2d8533	-0.16945343
30	0xbe3665ef	-0.17812322
31	0xbdd2977f	-0.10282802
32	0xbe44ff37	-0.19237982
33	0x3ded0718	0.11573619
34	0x3e307e66	0.17235717
35	0xbca64687	-0.020297302
36	0x3c805ec4	0.015670188
37	0x3d86e7e6	0.065872
38	0xbde052f7	-0.10953324
39	0x3b2471c5	0.0025092226
40	0x3dc0cbe0	0.09413886
41	0x3e207343	0.15668969
42	0xbc9b757f	-0.018976925
43	0xbe1cbeee	-0.15307209
44	0xbdbcdaaf	-0.09221398
45	0xbd8a149b	-0.067422114
46	0x3e10b7f2	0.1413267
47	0x3dc86884	0.0978556
48	0x3e2bd52d	0.16780539
49	0xbd92c386	-0.071661994
50	0x3dde9e98	0.10870093
51	0xbe39a836	-0.18130574
52	0x3db1807f	0.08667087
53	0x3d9e71c2	0.07736541
54	0xbe20cb15	-0.1570247
55	0x3db75ec0	0.08953619
56	0xbe071c2d	-0.13194342
57	0xbe4d892d	-0.2007186
58	0x3c97d860	0.018535793
59	0x3d73f3ec	0.059558794
60	0x3e16843a	0.14698878
61	0x3ce09818	0.027416274
62	0xbdc8c0e5	-0.09802417
63	0x3e16fa74	0.14743978

fc2.weight f4 [9, 64]
0	0x3c3b52b0	0.011433288
1	0xbdaab04a	-0.08334406
2	0x3c9f83c8	0.019472018
3	0x3d807adc	0.062734336
4	0x3d6103c5	0.054935236
5	0x3cfa9b34	0.030591585
6	0xba8342ad	-0.0010014378
7	0x3d82fb68	0.06395608
8	0xbc8f2b59	-0.017476724
9	0x3d8558ac	0.065110534
10	0xbdcab0a2	-0.09896971
11	0xbe134f78	-0.14385784
12	0xbe182c57	-0.14860664
13	0xbc465843	-0.012106004
14	0xbd88fb49	-0.06688554
15	0x3d33b986	0.0438781
16	0xbd92174e	-0.07133351
17	0xbdf73197	-0.120700054
18	0xbdc4ad8a	-0.096034124
19	0xbdb2a42c	-0.087227196
20	0x3d5cb7b2	0.053886123
21	0xbe119db9	-0.14220323
22	0xbd63788c	-0.055534884
23	0xbdf1e770	-0.11811721
24	0x3cfbaf7b	0.030723324
25	0x3ced41de	0.028962072
26	0x3d08b643	0.033376943
27	0xbd6a5a12	-0.057214804
28	0xbd0e954b	-0.034810346
29	0xbdb5145c	-0.08841774
30	0x3d639762	0.05556429
31	0x3d58dce4	0.052945033
32	0x3cfb1fdc	0.03065484
33	0x3db32a4a	0.087483004
34	0xbd465b10	-0.048426688
35	0xbe1b3a0e	-0.15158865
36	0xbdea1dd9	-0.11431474
37	0xbdd527d1	-0.10407985
38	0x3d710084	0.058838382
39	0x3e6c6dac	0.23088712
40	0xbd1f0ce5	-0.038830657
41	0xbcc27c14	-0.023740806
42	0xbb5329c2	-0.0032220935
43	0xbd3d41c8	-0.046205312
44	0xbe10fab2	-0.14158133
45	0xbd02de4a	-0.031950273
46	0x3db4e43a	0.08832593
47	0xbdd7406b	-0.105103336
48	0x3d95e5bc	0.07319209
49	0x3dba63c7	0.09101062
50	0xbcf217d0	-0.02955237
51	0xbe08c057	-0.13354622
52	0x3d7ed361	0.062213305
53	0xbdf76fae	-0.12081848
54	0x3d66b2ce	0.056322865
55	0x3c8d0fad	0.017219389
56	0x3c2cfa1a	0.010557676
57	0xbd9e268e	-0.077221975
58	0x3d61a114	0.055085257
59	0x3dea4b90	0.11440194
60	0x3d398004	0.0452881
61	0xbd1ae074	-0.03781171
62	0xbe04b8ee	-0.1296117
63	0x3d993380	0.07480526
64	0x3db9b0f2	0.09066953
65	0xbc6c5651	-0.014424876
66	0xbdfc4530	-0.12317884
67	0x3dd7518a	0.10513599
68	0xbdc267b8	-0.09492439
69	0xbded2322	-0.11578967
70	0x3d1a6a52	0.03769905
71	0xbdadacb6	-0.084802076
72	0x3dd3b81a	0.10337849
73	0xbd5c60a4	-0.0538031
74	0xbe05f51a	-0.1308178
75	0xbb57c6d2	-0.0032924903
76	0x3d0cb4cf	0.03435212
77	0xbd775b7a	-0.060389973
78	0x3d966dab	0.07345136
79	0xbd4d773c	-0.05016254
80	0x3e1e909e	0.15484855
81	0xbd910f41	-0.070829876
82	0x3d187df8	0.03722951
83	0x3d892156	0.066958115
84	0xbdaf01fe	-0.08545302
85	0xbdd310a9	-0.10305912
86	0x3ccc77e0	0.024959505
87	0x3d58a69c	0.052893266
88	0xbcea69b4	-0.028614856
89	0x3d906fa0	0.07052541
90	0xbd7de665	-0.0619873
91	0x3d61c133	0.05511589
92	0xbe06d14a	-0.13165775
93	0x3d48ea04	0.0490513
94	0x3d86c487	0.06580453
95	0x3c6e1fc0	0.014533937
96	0x3db3f752	0.08787407
97	0xbd558ef4	-0.052138284
98	0x3d3d6e7c	0.046247944
99	0xbdf21bee	-0.118217334
100	0x3d9823c8	0.074287
101	0xbcf6ca0c	-0.03012564
102	0xbd17c71b	-0.037055116
103	0xbd301181	-0.042985443
104	0x3cf1c7f7	0.029514296
105	0x3c76d421	0.015065224
106	0xbcd18291	-0.025574954
107	0xbc022c80	-0.00794518
108	0xbb89a220	-0.004200235
109	0xbe185179	-0.1487483
110	0xbcddda78	-0.027081713
111	0x3dca0f0c	0.09866151
112	0xbd3de723	-0.046363007
113	0x3c922cac	0.017843567
114	0x3bb54c60	0.0055327863
115	0xbdbe59d9	-0.09294481
116	0x3d5ce2ec	0.053927347
117	0xbda22bcb	-0.07918509
118	0xbdf9a1f3	-0.121890925
119	0xbdb050cb	-0.0860916
120	0xbd38ef76	-0.045150243
121	0xbc37864b	-0.0112014515
122	0xbde0e5d8	-0.10981339
123	0xbdb32d54	-0.0874888
124	0xbd116dfc	-0.03550528
125	0x3bcb88a0	0.0062113553
126	0xbdd68a4d	-0.104755975
127	0x3d489034	0.048965648
128	0xbc8c72e0	-0.01714462
129	0x3dba57af	0.090987556
130	0x3de5b9ce	0.1121708
131	0x3dd72642	0.10505344
132	0xbd8dd964	-0.069262296
133	0x3d377926	0.04479327
134	0xba4c15b5	-0.0007785217
135	0x3d3d8008	0.04626468
136	0xbd9fe340	-0.078070164
137	0xbd6a1828	-0.057151943
138	0x3e32f5f3	0.17476635
139	0x3d3c0bb7	0.04590961
140	0x3d87a9a4	0.06624153
141	0x3e55c37d	0.20875354
142	0x3e7b0d3a	0.24516764
143	0x3dac9e3c	0.08428618
144	0xbd5f1ed0	-0.054472744
145	0x3e71a7b5	0.23599131
146	0x3e450b5f	0.19242619
147	0xbd1e2e08	-0.038618118
148	0x3e0db7b0	0.13839602
149	0x3e72639f	0.23670815
150	0xbdaa5136	-0.08316271
151	0xbd214a50	-0.03937751
152	0x3e4aca65	0.1980377
153	0xbcc0223d	-0.023453826
154	0x3dec586b	0.11540302
155	0x3e1947ce	0.14968798
156	0x3e460de3	0.19341235
157	0xbcd963e0	-0.026536882
158	0xbb4d3115	-0.0031309773
159	0x3de902ee	0.11377512
160	0xbd997821	-0.07493616
161	0xbafaeb80	-0.0019143671
162	0xbdb30798	-0.08741683
163	0x3e0f39fc	0.13986963
164	0x3e82c05a	0.25537378
165	0x3debb6f4	0.11509505
166	0x3d200379	0.03906581
167	0xbe057b67	-0.13035356
168	0x3dd3c76e	0.103407726
169	0xbd86c568	-0.06580621
170	0x3de33271	0.11093605
171	0xbd70136c	-0.058612272
172	0x3d3fb37b	0.046802025
173	0x3d24414d	0.04010134
174	0x3d8b495c	0.068011016
175	0x3dd034f8	0.10166353
176	0x3d441fc4	0.047881857
177	0xbdc68ff6	-0.09695427
178	0xbc5a49b0	-0.0133232325
179	0x3e821600	0.2540741
180	0x3db46a19	0.08809299
181	0x3d9b9781	0.075972565
182	0x3d3947dc	0.045234546
183	0x3e572c08	0.2101289
184	0xbd2726e2	-0.040808566
185	0xbcb1c21a	-0.021699
186	0x3de114be	0.109902844
187	0xbd367378	-0.044543713
188	0xbd240c60	-0.040050864
189	0xbd931c34	-0.07183114
190	0x3d3e495e	0.046456687
191	0xbc7b4990	-0.015337363
192	0xbca2cb28	-0.019872263
193	0xbd9cee50	-0.07662642
194	0x3d0a800c	0.03381352
195	0xbd89bd9e	-0.0672562
196	0x3aaa594c	0.0012996583
197	0xbddae164	-0.10687521
198	0x3d812e54	0.063076645
199	0x3da5055a	0.08057661
200	0x3c89ac07	0.016805662
201	0x3981eb7f	0.00024780256
202	0x3d6a62e9	0.057223234
203	0x3c823583	0.015894657
204	0x3c287d68	0.010283805
205	0x3d0f28ef	0.034951147
206	0x3cac3df6	0.021025639
207	0xbcabe6f9	-0.02098416
208	0xbd8ea498	-0.069649875
209	0x3cd1f7d7	0.025630875
210	0x3b42ef47	0.0029744671
211	0xbcd60438	-0.026125059
212	0xbd293915	-0.041314203
213	0x3d3cc897	0.046089735
214	0xbda9455a	-0.08265181
215	0xbd32bbbc	-0.04363607
216	0x3d6643d0	0.056217015
217	0xbd7eb31b	-0.062182527
218	0x3c508e16	0.012729188
219	0xbe0368fc	-0.12833017
220	0xbd71e771	-0.05905861
221	0x3dd7ed9a	0.10543366
222	0x3cdc3454	0.02688042
223	0xbd187ab0	-0.03722638
224	0x3db53eeb	0.08849891
225	0xbdba5e94	-0.091000706
226	0x3ce9cc90	0.028539926
227	0x3ac336b4	0.0014893622
228	0xbde7657f	-0.11298656
229	0xbd222971	-0.039590303
230	0x3d503c9d	0.050839055
231	0xbe0934e4	-0.13399082
232	0x3dbd8527	0.092539124
233	0x3dc42fe3	0.09579446
234	0x3d3266ec	0.043555185
235	0xbc3fc5c0	-0.011704862
236	0xbddf84ee	-0.10914026
237	0xbdf2ed0e	-0.11861621
238	0x3aaf8f00	0.0013394058
239	0xbdaf7725	-0.08567647
240	0xbe03eda1	-0.12883617
241	0x3dba4d87	0.090968184
242	0xbdffa698	-0.12482947
243	0xbe0e7e5d	-0.13915391
244	0xbdf38fff	-0.118926995
245	0x3c3a69bc	0.011377748
246	0xbb325f4e	-0.002721745
247	0xbd899d57	-0.06719463
248	0x3d505666	0.050863646
249	0x3d73ecd3	0.059552025
250	0x3c9311e8	0.017952874
251	0x3dadecae	0.08492409
252	0xbdb04ea4	-0.086087495
253	0xbdd714b4	-0.10501996
254	0xbd877207	-0.06613546
255	0x3dd75e12	0.10515989

fc2.bias f4 [9]
0	0x3dd1baae	0.102406844
1	0xbe041262	-0.12897637
2	0xbcc93a62	-0.024563972
3	0x3d2c65e6	0.042089365
4	0x3e3433ed	0.17597933
5	0x3d0e764d	0.03478079
6	0xbe1de605	-0.15419777
7	0xbc7256d1	-0.014791206
8	0xbe5ef5da	-0.21773472

fc3.weight f4 [1, 9]
0	0x3c802cf5	0.015646437
1	0x3d8164d4	0.063180596
2	0x3c823bcc	0.015897654
3	0x3d8651c8	0.06558567
4	0x3d8bdc94	0.06829181
5	0x3d33917b	0.043839913
6	0xbb1c2cb0	-0.0023830347
7	0x3b8f2b31	0.0043691625
8	0x3d01fabf	0.03173327
