res/european/qnn/models/qnn_5.pt (torch, 11551 bytes, 5 tensors)

fc1.weight f4 [64, 30]
0.02400962 0.12704507 0.0833635 -0.07278747 -0.037235986 -0.021912456 0.034878116 -0.06508773
-0.03252974 0.12991588 0.053027727 -0.067400545 0.13910252 -0.0032941515 0.022006739 0.12618642
-0.09861322 -0.038978256 -0.18364479 -0.11987423 -0.03175607 0.13672715 -0.13849391 -0.084839195
-0.0075824675 -0.012561085 -0.076276615 0.003961627 -0.09751356 0.022060012 0.12649174 0.09150985
0.12322766 0.03278836 0.16369903 -0.1372091 0.12444232 -0.2550035 -0.053323496 -0.0852089
-0.14023113 0.028783057 -0.008763625 -0.003969653 -0.19484651 -0.03879715 -0.21589631 -0.044167876
0.12317976 -0.1078312 -0.12297556 0.25166762 -0.03712473 -0.030974632 0.024494562 -0.059286233
-0.00784392 0.20642483 0.113274224 0.07384796 -0.032389686 -0.10534677 -0.0220339 -0.04786037
0.006875679 0.033489138 0.019268036 -0.001163885 0.041894495 7.791817e-05 -0.041994303 0.12099284
-0.03724256 0.13633269 0.16514695 0.13153484 -0.108808875 0.026499048 -0.1540586 0.12211117
-0.09707737 -0.07514899 -0.088903636 0.0028833002 0.0631268 0.07709125 -0.16842723 -0.083928585
0.04543449 -0.07266509 0.035027996 0.04859408 0.034132823 0.045216642 -0.18079388 -0.10907471
0.008282974 -0.090376206 -0.13524042 0.17656787 -0.014279342 -0.045383215 -0.012307825 -0.32369912
-0.038788915 0.119445495 -0.10419075 -0.016181104 -0.06579702 0.18712407 0.11039807 0.13428149
-0.20143153 -0.028758002 -0.05764727 -0.06026967 0.077370405 -0.12564443 -0.17843953 -0.15593433
-0.036113784 -0.055851653 -0.092984706 -0.011035562 -0.04873763 -0.07036824 0.07109618 0.014065295
-0.024788916 -0.06864997 -0.14859773 -0.057001933 -0.18211545 -0.0017142147 0.0040165633 0.005496457
0.069375545 -0.060290016 0.17135221 -0.024490505 0.1702359 0.061687708 0.039347976 -0.067907795
0.122344196 0.06562565 -0.18174276 0.17854255 -0.12787627 -0.059842624 -0.0024758081 -0.0085812425
0.091599256 -0.12167326 -0.0953755 -0.12805396 0.02394126 0.08804922 -0.11297588 0.071341634
0.07738821 -0.12455427 0.049240373 0.14677276 0.054047447 0.18179485 -0.042810317 0.17593212
0.04541775 0.12514167 0.14781491 0.05523328 -0.121960126 -0.13284093 -0.032990683 0.16273108
-0.046247702 -0.17825036 -0.06739137 -0.03932794 -0.06548949 -0.09430579 0.07781419 -0.10736682
-0.076442264 0.1074124 0.05474843 -0.050433904 0.012150362 -0.13332814 0.095410526 0.035908654
0.1714412 -0.13392238 -0.12686431 0.011476874 0.16374382 0.03989856 -0.023459032 -0.058934756
-0.031005412 -0.071317755 0.07528153 -0.08997741 -0.1701456 -0.103635944 0.00994961 0.04151568
-0.01702024 -0.09394796 0.025644938 0.10218241 0.02831381 0.14326015 -0.21745268 -0.23955539
0.042693146 0.06340061 -0.2269803 -0.061114218 0.06664411 -0.12126596 -0.12985903 0.009988384
0.0849046 0.09295483 -0.105403535 -0.11110556 -0.031439405 0.25182799 -0.33251485 0.04387316
-0.055539872 0.07891892 0.03146249 0.10606197 0.1452307 0.12783635 -0.22449626 0.12438548
0.099678084 -0.070265934 -0.09664899 0.0051288614 0.074265145 0.13709395 0.13915893 -0.040363017
-0.13221721 -0.04201791 0.1593793 0.067760795 0.052741107 0.014348801 -0.039318383 0.050145384
00000000: d3af c43c 1a18 023e 7cba aa3d 9911 95bd
00000010: c384 18bd c081 b3bc 5bdc 0e3d b74c 85bd
00000020: e83d 05bd ab08 053e 9a33 593d 4c09 8abd
00000030: e470 0e3e b1e2 57bb 7a47 b43c 0337 013e
00000040: baf5 c9bd aaa7 1fbd 610d 3cbe 9f80 f5bd
00000050: a712 02bd 3402 0c3e 59d1 0dbe 2cc0 adbd
00000060: 5976 f8bb 02cd 4dbc ea36 9cbd 89d0 813b
00000070: 30b5 c7bd 33b7 b43c 0d87 013e 8469 bb3d
00000080: c95e fc3d 164d 063d b8a0 273e 8b80 0cbe
00000090: 9ddb fe3d d28f 82be bd69 5abd 0182 aebd
000000a0: c098 0fbe 72ca eb3c 4f95 0fbc dd13 82bb
000000b0: d885 47be c3e9 1ebd ec13 5dbe 60e9 34bd
000000c0: ac45 fc3d 9bd6 dcbd 9cda fbbd 94da 803e
000000d0: 1a10 18bd 83be fdbc d2a8 c83c 1fd6 72bd
000000e0: c983 00bc 0861 533e 51fc e73d 993d 973d
000000f0: 0cab 04bd 0cc0 d7bd 7080 b4bc 3c09 44bd
00000100: 604d e13b e82b 093d 00d8 9d3c 808d 98ba
00000110: 9099 2b3d 0068 a338 3802 2cbd 18cb f73d
00000120: a88b 18bd cc9a 0b3e 481c 293e 12b1 063e
00000130: 30d7 debd 8814 d93c 8ac1 1dbe 6c15 fa3d
00000140: 80d0 c6bd b7e7 99bd 1c13 b6bd c0f5 3c3b
00000150: a048 813d 04e2 9d3d 3078 2cbe c0e2 abbd
00000160: 8419 3a3d 6fd1 94bd 8479 0f3d 960a 473d
00000170: dcce 0b3d 1635 393d 0822 39be 9062 dfbd
00000180: 50b5 073c 2917 b9bd 777c 0abe 35ce 343e
00000190: e7f3 69bc c0e3 39bd c2a6 49bc e4bb a5be
000001a0: 20e1 1ebd d79f f43d f661 d5bd 3c8e 84bc
000001b0: 97c0 86bd 749d 3f3e 6218 e23d 1681 093e
000001c0: 1144 4ebe e795 ebbc 8b1f 6cbd 54dd 76bd
000001d0: 6074 9e3d efa8 00be dab8 36be 40ad 1fbe
000001e0: 0cec 13bd b4c4 64bd c46e bebd 80ce 34bc
000001f0: 1ca1 47bd 391d 90bd e09a 913d 2072 663c
00000200: 2012 cbbc 5b98 8cbd 012a 18be dc7a 69bd
00000210: 797c 3abe 80af e0ba 609d 833b a01b b43b
00000220: c414 8e3d aaf2 76bd f476 2f3e 50a0 c8bc
00000230: 5252 2e3e 40ac 7c3d 582b 213d 3e13 8bbd
00000240: 988f fa3d be66 863d c61a 3abe dcd3 363e
00000250: fff1 02be 8a1d 75bd 2b41 22bb 5798 0cbc
00000260: 6498 bb3d d52f f9bd 3b54 c3bd 9420 03be
00000270: 7620 c43c 2653 b43d e65f e7bd 901b 923d
00000280: b67d 9e3d 4f16 ffbd 46b0 493d 994b 163e
00000290: db60 5d3d 6e28 3a3e df59 2fbd 8d27 343e
000002a0: f607 3a3d 2325 003e cb5c 173e 4b3c 623d
000002b0: 3bc6 f9bd 7407 08be 3d21 07bd faa2 263e
000002c0: 3b6e 3dbd 4387 36be 7d04 8abd 5616 21bd
000002d0: 5b1f 86bd 6523 c1bd 0c5d 9f3d 23e3 dbbd
000002e0: c38d 9cbd 08fb db3d e43f 603d c893 4ebd
000002f0: 5012 473c 2c87 08be 9866 c33d f414 133d
00000300: 488e 2f3e f322 09be b8e8 01be 8009 3c3c
00000310: 76ac 273e ac6c 233d 282d c0bc 9265 71bd
00000320: 10ff fdbc 0b0f 92bd 342d 9a3d 1446 b8bd
00000330: a63a 2ebe 153f d4bd b003 233c 580c 2a3d
00000340: 086e 8bbc ca67 c0bd 5515 d23c 0345 d13d
00000350: 5df2 e73c cab2 123e eaab 5ebe 024e 75be
00000360: 02df 2e3d 2ed8 813d 866d 68be e752 7abd
00000370: b57c 883d 4a5a f8bd c4f9 04be 52a6 233c
00000380: 77e2 ad3d 1a5f be3d cfdd d7bd 508b e3bd
00000390: 9bc6 00bd 99ef 803e 633f aabe 58b4 333d
000003a0: c77d 63bd 3ea0 a13d d0de 003d 0537 d93d
000003b0: 5bb7 143e 88e7 023e 59e2 65be d1bd fe3d
000003c0: 0624 cc3d 96e7 8fbd e8ef c5bd 0210 a83b
000003d0: 5318 983d 5b62 0c3e ae7f 0e3e b153 25bd
000003e0: f363 07be f91a 2cbd 5434 233e 2cc6 8a3d
000003f0: 0f07 583d 3c17 6b3c 500c 21bd 3f65 4d3d

fc1.bias f4 [64]
-0.08213661 1.489179e-05 0.09184411 -0.1353896 -0.15361723 -0.23301128 -0.028062522 -0.22310387
-0.2410927 0.025779786 -0.1411092 -0.026613528 -0.029974073 0.0053468943 0.15653159 -0.1544421
-0.1469794 -0.1727041 -0.02867943 0.16272783 -0.13065855 0.07891343 -0.14776255 0.08568078
0.14178514 -0.004784107 0.007895912 -0.061978213 0.072383836 -0.02171533 0.058861434 0.14942735
-0.13324662 -0.08364427 -0.16211376 0.16105944 -0.124679446 0.08220872 0.05909954 -0.04006388
-0.1292407 0.0939177 0.09536919 0.08121425 0.0066284006 -0.12274965 -0.049394734 0.0022205263
-0.2478503 -0.16179408 -0.13586287 0.13619632 0.21582463 0.11937562 -0.1705876 0.023365501
0.10592079 -0.118379645 -0.039706115 -0.08083662 -0.0996706 -0.0893433 -0.040283054 0.17302135
00000000: 3d37 a8bd c0d7 7937 c418 bc3d 92a3 0abe
00000010: d64d 1dbe 829a 6ebe 60e3 e5bc 5775 64be
00000020: 01e1 76be 2130 d33c ee7e 10be 9d04 dabc
00000030: 308c f5bc 0035 af3b d149 203e 1226 1ebe
00000040: c581 16be 58d9 30be 20f1 eabc 20a2 263e
00000050: 5bcb 05be 5d9d a13d 114f 17be 6879 af3d
00000060: 2030 113e 00c4 9cbb db5d 013c dedc 7dbd
00000070: fa3d 943d 59e4 b1bc b018 713d 7c03 193e
00000080: cd71 08be b04d abbd 2601 26be c4ec 243e
00000090: f057 ffbd 0c5d a83d 5c12 723d 061a 24bd
000000a0: ad57 04be ec57 c03d ec50 c33d a853 a63d
000000b0: 0e33 d93b 2b64 fbbd 2252 4abd 4086 113b
000000c0: 78cc 7dbe 59ad 25be a31f 0bbe 0c77 0b3e
000000d0: 2201 5d3e 347b f43d 84ae 2ebe 0269 bf3c
000000e0: 00ed d83d 0771 f2bd e1a2 22bd ab8d a5bd
000000f0: 1920 ccbd 9ff9 b6bd d8ff 24bd 822c 313e

fc2.weight f4 [5, 64]
-0.08694412 0.013501627 -0.08284517 0.029224483 -0.115866855 -0.033397537 -0.09755756 -0.009838951
-0.12709685 0.10456249 0.011306479 0.04010247 0.11337699 0.0077917427 0.017497255 -0.007146731
-0.019264609 -0.0031148102 -0.07905307 0.06292356 0.01913517 -0.028726485 0.06965114 0.10029282
0.047011927 0.10249901 -0.018678036 -0.032148656 0.049728606 -0.104561545 -0.085794 -0.048868664
-0.099094704 -0.061950084 0.05179842 0.100211054 -0.09427331 0.07268666 0.08595967 -0.015144998
0.033597574 -0.053978786 -0.12313637 0.1012007 -0.054009564 0.0045135403 0.097747505 0.030125812
-0.0058380654 0.1194631 -0.04454743 0.009214494 0.061727613 -0.104444176 0.0038236082 0.025006957
-0.047114342 0.057802286 -0.0038904995 0.087824486 -0.022653192 -0.10810377 0.011382431 0.08750822
-0.110864386 -0.26762316 0.12272458 -0.17098619 0.053980872 -0.06648193 0.10171218 -0.17537923
-0.118287854 -0.103405006 -0.107394405 -0.10643122 -0.04715635 0.051602602 -0.22877224 -0.020928696
0.07617916 0.025015444 -0.22657669 -0.18122488 -0.32741803 -0.22083095 0.10595754 0.113117024
-0.008114606 -0.05378501 -0.08909185 -0.0709111 -0.09961536 -0.1519974 -0.030487195 -0.17040966
0.07658161 -0.2527989 -0.004391864 0.10448761 -0.038633194 -0.08895542 0.008058339 -0.07216345
0.0715791 0.10944979 -0.014945358 0.04304275 -0.21673997 0.07770002 -0.10853905 -0.11978294
0.012122035 0.116081476 -0.059891008 -0.32541794 -0.20247145 0.10141626 0.07969284 -0.13876653
-0.066036046 -0.256646 -0.044600636 -0.078901514 -0.037537068 0.049132437 -0.107651755 0.05729808
0.04602437 -0.09959705 0.0221674 -0.0047415807 -0.0034280568 0.022185614 -0.04853742 -0.0816179
0.09734237 -0.23766367 -0.02928328 -0.14908642 -0.05445023 0.085033074 -0.17216481 0.07595457
0.11250995 -0.053382587 -0.0146863 -0.067628786 -0.054500576 0.0066831885 0.10647857 -0.07914364
-0.025157273 -0.06388104 -0.0643563 -0.07939198 -0.13347818 -0.09550308 -0.10781731 -0.11088535
0.025761873 -0.14428757 -0.09831494 0.06995556 0.09025844 -0.111324444 0.12294459 -0.054416142
0.020371601 0.054046616 -0.06462057 0.06144844 0.039122455 -0.07317455 -0.11102914 0.05509253
-0.059765182 -0.03357199 0.0233308 -0.11356947 0.0027714733 -0.060874403 -0.123901054 -0.14398994
0.06803273 -0.036140256 -0.04081146 -0.06453093 0.07032734 -0.12243329 0.08648202 0.0626308
-0.058080904 0.18768407 -0.12337874 0.133659 0.03629142 0.008809633 0.0015774071 -0.030075746
0.0042815497 -0.031408537 0.16912167 0.04279726 0.12448467 0.055434465 0.10093066 0.049049318
-0.04989341 -0.066140845 0.12977229 -0.042861626 0.033364877 -0.0020933796 0.077381216 -0.11946502
0.029980958 0.014748588 -0.054929513 0.09075412 0.026668599 0.048628595 0.04905577 0.15329868
-0.090927824 0.003367373 -0.114601806 0.080688 -0.053028658 -0.05061342 -0.03327033 0.03755256
0.12168011 0.0035238713 -0.063993365 -0.10948238 0.029179495 -0.003692377 -0.02441545 -0.004900232
-0.09697 0.0010212958 -0.1005124 0.12386263 0.14069316 -0.054086 0.07242195 0.13202527
0.05770588 0.12041199 0.054617304 0.073758855 0.10101727 0.079635635 -0.006948933 0.061395645
00000000: c20f b2bd ee35 5d3c baaa a9bd 2f68 ef3c
00000010: 9a4b edbd dbcb 08bd 42cc c7bd 8d33 21bc
00000020: ad25 02be dc24 d63d cf3e 393c 7d42 243d
00000030: 3232 e83d e051 ff3b 6756 8f3c 202f eabb
00000040: d0d0 9dbc d821 4cbb 93e6 a1bd 11de 803d
00000050: 5cc1 9c3c ce53 ebbc 42a5 8e3d 5266 cd3d
00000060: 948f 403d 00eb d13d ae02 99bc 4fae 03bd
00000070: 39b0 4b3d 5d24 d6bd c4b4 afbd 822a 48bd
00000080: 2af2 cabd 5fbf 7dbd 942a 543d 743b cd3d
00000090: 5d12 c1bd bedc 943d a00b b03d ba22 78bc
000000a0: 9c9d 093d dc18 5dbd ec2e fcbd 5042 cf3d
000000b0: 2239 5dbd 52e6 933b d82f c83d 68ca f63c
000000c0: 3e4d bfbb 12a9 f43d 5e77 36bd 64f8 163c
000000d0: 18d6 7c3d d4e6 d5bd 8095 7a3b 64db cc3c
000000e0: f8fa 40bd 17c2 6c3d c0f7 7ebb 53dd b33d
000000f0: 3093 b9bc 8265 ddbd 607d 3a3c 8237 b33d
00000100: de0c e3bd e705 89be 0657 fb3d 0117 2fbe
00000110: 0c1b 5d3d ae27 88bd 7a4e d03d 9d96 33be
00000120: e740 f2bd 01c6 d3bd 99f1 dbbd 9df8 d9bd
00000130: 0427 41bd 405d 533d 4543 6abe a872 abbc
00000140: d203 9c3d 30ed cc3c b803 68be 0493 39be
00000150: 56a3 a7be 8221 62be 4400 d93d e6a9 e73d
00000160: 20f3 04bc ac4d 5cbd ca75 b6bd d739 91bd
00000170: 2303 ccbd 35a5 1bbe 48c0 f9bc df7f 2ebe
00000180: d2d6 9c3d db6e 81be a0e9 8fbb 9afd d53d
00000190: d73d 1ebd 422e b6bd 2007 043c 6eca 93bd
000001a0: 1098 923d 3627 e03d 60dd 74bc 984d 303d
000001b0: 15f1 5dbe 3021 9f3d b949 debd c250 f5bd
000001c0: 809b 463c 20bc ed3d 4650 75bd 2e9d a6be
000001d0: ad54 4fbe 54b3 cf3d 0036 a33d d018 0ebe
000001e0: e83d 87bd 1b67 83be 28af 36bd 1e97 a1bd
000001f0: 78c0 19bd 183f 493d 8678 dcbd 64b1 6a3d
00000200: 0d84 3c3d 8af9 cbbd 6898 b53c 435f 9bbb
00000210: 40a9 60bb 9bbe b53c 2ccf 46bd 4927 a7bd
00000220: 705b c73d 1b5e 73be 7de3 efbc 1caa 18be
00000230: 3407 5fbd d225 ae3d f94b 30be 128e 9b3d
00000240: 9e6b e63d b3a7 5abd cf9e 70bc f680 8abd
00000250: ff3b 5fbd a6fe da3b 7011 da3d 1016 a2bd
00000260: a016 cebc 10d4 82bd 3ccd 83bd 4398 a2bd
00000270: 81ae 08be 1e97 c3bd 52cf dcbd dc17 e3bd
00000280: 900a d33c 1fc0 13be 5859 c9bd dc44 8f3d
00000290: 6bd9 b83d 12fe e3bd 60ca fb3d 76e3 5ebd
000002a0: 58e2 a63c fc5f 5d3d ca57 84bd 5cb1 7b3d
000002b0: de3e 203d 8adc 95bd 3f63 e3bd b4a8 613d
000002c0: 56cc 74bd c882 09bd 3c20 bf3c 1c97 e8bd
000002d0: 9ba1 353b 7057 79bd d6bf fdbd 1972 13be
000002e0: be54 8b3d ce07 14bd eb29 27bd cb28 84bd
000002f0: c807 903d 4ebe fabd 7c1d b13d 9444 803d
00000300: 3ee6 6dbd 4130 403e fead fcbd e8dd 083e
00000310: 50a6 143d 4756 103c 00c1 ce3a 6961 f6bc
00000320: 3e4c 8c3b 3da6 00bd 3b2e 2d3e 2e4c 2f3d
00000330: d2f1 fe3d 400f 633d bcb4 ce3d f0e7 483d
00000340: 085d 4cbd da74 87bd 07e3 043e ac8f 2fbd
00000350: 9ca9 083d 1531 09bb 0b7a 9e3d 14aa f4bd
00000360: a09a f53c 10a4 713c c5fd 60bd 4cdd b93d
00000370: 1b78 da3c c72e 473d b4ee 483d 54fa 1c3e
00000380: 5e38 babd 25af 5c3b 5ab4 eabd c03f a53d
00000390: 9434 59bd 0450 4fbd 7846 08bd b7d0 193d
000003a0: 6c33 f93d c0f0 663b f40e 83bd 4c38 e0bd
000003b0: d609 ef3c cefb 71bb e902 c8bc 2092 a0bb
000003c0: 3598 c6bd 00dd 853a 72d9 cdbd b1ab fd3d
000003d0: de11 103e 4889 5dbd f651 943d a231 073e
000003e0: 005d 6c3d 909a f63d 65b6 5f3d e20e 973d
000003f0: 24e2 ce3d 0218 a33d e0b3 e3bb 007a 7b3d

fc2.bias f4 [5]
0.042234246 -0.07813598 -0.039023384 0.1327418 -0.02285217
00000000: d1fd 2c3d c205 a0bd fcd6 1fbd 77ed 073e
00000010: 7934 bbbc

fc3.weight f4 [1, 5]
-0.11556639 -0.06790611 -0.027451573 -0.07415854 0.002948037
00000000: 12ae ecbd 5c12 8bbd 1fe2 e0bc 6fe0 97bd
00000010: db33 413b
