res/european/qnn/models/qnn_14.pt (torch, 13983 bytes, 5 tensors)

fc1.weight f4 [64, 30]
000000 8a 7e 48 bb 3f 66 a5 bd 3c a5 10 bd 0b 01 01 bd
       -0.0030593001 -0.080761425 -0.03531383 -0.031495135
000010 b5 35 dd bc bf a1 52 be 75 55 f7 bc 3d 28 0a bc
       -0.027003149 -0.20569514 -0.030192116 -0.008432445
000020 93 c1 ef 3d e1 2f 67 bc f4 d1 32 be b7 d2 bf 3d
       0.11706843 -0.014110536 -0.17462903 0.093663625
000030 e7 ec 3b be d1 50 b7 bd aa aa 1a be a3 94 3c bd
       -0.1835209 -0.089509614 -0.15104166 -0.04604019
000040 e1 7d 11 3e a1 05 25 be 5f 23 85 bd fc 47 f8 bd
       0.14208175 -0.16115429 -0.06500887 -0.12123105
000050 2f e0 e2 bd 18 b8 66 3d a5 29 af bd a3 cd 10 3e
       -0.11077916 0.05632791 -0.08552865 0.14140944
000060 84 b8 ac bd 6d d4 f7 3d 54 5e 2b be ba 46 19 bd
       -0.08433631 0.12101064 -0.16735202 -0.037420966
000070 c7 bf ed bc 87 6e 52 bd 06 8c ce 3c 7c ed 75 3e
       -0.02902211 -0.05137494 0.025213253 0.24016374
000080 43 f3 9f 3d f0 60 09 3e d5 01 4d 3d e0 86 3d 3e
       0.0781007 0.13415885 0.050050575 0.18508482
000090 9f 39 d3 3d 3f 7e bc 3d 06 e0 bd 3d 1b b2 06 be
       0.10313725 0.09203767 0.09271245 -0.1315388
0000a0 23 95 8d 3e d7 ca 55 be fe fd 37 3e a2 71 99 3c
       0.27652845 -0.20878159 0.17967984 0.018730942
0000b0 6e d5 67 3e e9 38 8a bc e6 2e 1e bd 12 44 3f bd
       0.2264001 -0.01687284 -0.038618945 -0.046695776
0000c0 1f c5 01 3d 2e 6f 1b be fa 54 49 be d5 61 c0 3b
       0.03168213 -0.1517913 -0.19661322 0.0058710375
0000d0 cc 56 07 be 93 7b 2a be 39 c4 53 be 66 0f 24 bd
       -0.13216704 -0.16648702 -0.20680322 -0.040053748
0000e0 a9 d5 81 bd 5c 9e 15 3e a7 f5 30 3e 1d c1 7f 3e
       -0.063395806 0.1461119 0.17281209 0.2497601
0000f0 84 0d 07 be 94 18 29 be b3 71 f4 bd 37 25 22 be
       -0.1318875 -0.16513282 -0.11935749 -0.15834509
000100 82 50 2c be 18 f0 a3 3d 8c 3e f5 bd 88 32 28 be
       -0.16827586 0.080047786 -0.119748205 -0.16425526
000110 c9 ac 06 be be db c3 bd a5 66 13 be 38 5a 92 bc
       -0.1315185 -0.09563397 -0.14394625 -0.017865285
000120 a4 47 d6 3d a0 ce 8a bb 8a 9e 8f bd d8 f7 3b 3d
       0.10462883 -0.0042360574 -0.07012661 0.04589066
000130 d0 72 10 3e 11 ee fe bd f8 88 47 bd ac d4 11 3d
       0.14106297 -0.12447751 -0.048714608 0.03560321
000140 88 d0 9b 3c c8 35 58 bd 36 13 31 be b4 a2 31 3d
       0.019020334 -0.052785665 -0.17292485 0.043368056
000150 13 29 1a be d7 8f 88 bd 89 85 d8 bd c8 89 d5 3c
       -0.15054731 -0.0666806 -0.10572345 0.026066676
000160 58 45 7a bd 6a 35 39 be a5 ad 1f 3b ff 82 73 3e
       -0.061101288 -0.18086782 0.0024364975 0.2378044
000170 df 7f 6a bd 1f 55 0e 3e 12 7a 4e 3c 3e 4c 21 3e
       -0.057250854 0.13899659 0.012602346 0.1575174
000180 74 66 a0 3c cc fc 4e 3e 7d 28 8c bc a6 88 d7 3d
       0.019580103 0.20213622 -0.01710915 0.105241105
000190 f6 1d 98 bb 49 27 3e bd 60 9a 2d 3e 02 68 88 bd
       -0.0046422435 -0.046424184 0.1695342 -0.06660463
0001a0 81 70 ed 3d 72 fe e7 bd 41 4b 2a bd 65 8f b1 b9
       0.11593724 -0.113278285 -0.041575674 -0.00033866908
0001b0 e2 66 09 3e 89 47 b5 3d 69 58 06 3d 63 e1 2c 3d
       0.13418153 0.08851535 0.03279916 0.042207133
0001c0 cd 80 f9 bd 8e 01 e2 3c 6e 4a 0c be 75 70 db 3b
       -0.1218277 0.027588632 -0.13700268 0.0066967555
0001d0 ac 7f 34 bd 44 36 b2 3b b0 80 d4 bd 45 1e 50 3e
       -0.04406707 0.005438598 -0.10376108 0.20324047
0001e0 0c 31 08 bd 34 46 fa 3d e7 4d 89 bd 51 f8 b2 bd
       -0.0332499 0.122204214 -0.06704312 -0.08738769
0001f0 4c 81 1a 3e d8 66 f6 3c 98 42 f7 3d de 18 1b 3e
       0.15088385 0.030078337 0.120732486 0.15146205
000200 8e 6a 2a 3e 98 f0 0f be 38 b0 dc 3d 58 11 1f 3e
       0.1664221 -0.14056623 0.107757986 0.1553396
000210 c0 b3 53 bc ac d3 ea 3d 60 77 af 3c cc 37 f0 3d
       -0.012921274 0.114661545 0.021419227 0.117293924
000220 76 53 21 be a4 0f 3b bd e5 e1 ca bd 90 5f 8c bd
       -0.15754494 -0.045669213 -0.09906367 -0.068541646
000230 b0 e7 f0 3d 40 ad c3 3b 88 9f 21 3e 9a 73 08 3e
       0.11762941 0.0059715807 0.15783513 0.13325348
000240 00 45 3a 3c c0 65 12 3e 51 49 0c be 6e cf 03 3e
       0.01136899 0.14296627 -0.13699843 0.12872097
000250 08 ee f2 3d c0 61 09 bc 10 5a f2 bd 75 af 27 be
       0.11861807 -0.008385122 -0.11833584 -0.16375525
000260 00 ca 4d ba d0 41 cd 3c 56 bc 1d 3e 22 0f 00 be
       -0.000785023 0.025055796 0.15403876 -0.12505773
000270 78 72 99 3d 7a 45 0d 3e 20 7c 47 3c 68 d9 19 bd
       0.07492536 0.13796034 0.01217559 -0.03756085
000280 7e a6 27 3e 0c 0b c3 3d c3 52 94 bd a4 8c 8d bd
       0.16372105 0.095235914 -0.07242348 -0.06911591
000290 ae 6b 0b 3e 84 be 34 be 42 54 30 be cc 9e 3d bd
       0.13615295 -0.17650801 -0.17219642 -0.04629402
0002a0 c8 09 01 bd ea f8 01 3e 7c f2 0c 3d 28 f6 f4 3c
       -0.03150347 0.1269261 0.03441094 0.029902533
0002b0 97 62 ad bd 98 ed a2 3d a0 3f df 3d 40 d6 44 bd
       -0.0846607 0.07955474 0.109008074 -0.048055887
0002c0 50 33 54 bc 9c f7 2c 3e d4 1c 0f 3e 50 1b d9 3c
       -0.012951687 0.1689133 0.13975841 0.026502281
0002d0 a3 51 db 3d b5 84 e9 3d 3f de 08 3e 8d 6e e2 3c
       0.1070893 0.11402265 0.1336603 0.027640605
0002e0 b9 0b 69 be 84 30 04 be f3 ef f3 bd 7b 39 46 be
       -0.22758378 -0.12909132 -0.11911001 -0.19357865
0002f0 2e 7d 13 be 9d 94 0f 3b ee 65 b5 3d 5c 2c 57 be
       -0.14403221 0.0021908649 0.08857332 -0.21013016
000300 a9 97 8c bc 27 a0 22 be ac ef 3b 3d 84 87 2b 3e
       -0.017162161 -0.15881406 0.045882866 0.16750914
000310 a3 73 ab bd f3 44 5f 3e 72 0b 8c 3c f3 f4 5f be
       -0.08371665 0.21803646 0.017095301 -0.21870784
000320 bc 39 c4 3d ed 15 e6 3d 4d 40 75 be 4a b5 27 3c
       0.095813245 0.11234651 -0.2395031 0.010236094
000330 42 7f 82 bd 6d 63 ae bd 93 2d 7c bd 95 91 bd 3d
       -0.06371929 -0.08515058 -0.0615669 0.09256283
000340 a9 98 46 3d f4 1f 91 b9 d7 c7 24 be 00 40 c4 3b
       0.04848543 -0.00027680362 -0.16091858 0.0059890747
000350 24 17 9a 3d ec 22 08 3d c4 6c 0b 3e 68 19 dd 3d
       0.07523945 0.03323643 0.1361571 0.107958615
000360 14 7e cd 3d b0 d7 bd 3c 5c 5d bf 3d c4 74 3d bd
       0.10033813 0.023174137 0.09343979 -0.046253935
000370 52 4e 33 3e 77 57 c6 bd f0 a9 e5 3d f4 9b 55 bd
       0.17510346 -0.09684651 0.11214054 -0.05215068
000380 c0 03 3f bc 00 0c 5f 3c 98 bf 3a 3e 53 d9 80 bd
       -0.011658609 0.013613701 0.1823715 -0.06291451
000390 08 1f 81 3d b0 1c 90 3d 84 b6 48 bd 39 4b d4 bd
       0.06304747 0.07036722 -0.049002185 -0.1036591
0003a0 74 3b 31 be 64 4f e0 3d 64 40 43 3d 92 0e d0 bd
       -0.17307836 0.109526426 0.04766883 -0.10159029
0003b0 b0 9c 1f 3e e0 ea 42 3c 50 7a 08 3c 96 d5 0e 3e
       0.15587115 0.011896819 0.008329943 0.13948664
0003c0 7f 16 9a bd 0b 01 36 ba e4 02 fe bd 90 18 ff 3d
       -0.07523822 -0.00069429044 -0.12402895 0.12455857
0003d0 d8 52 3b be d7 46 bc bd f5 f8 43 be 8c ae ce bd
       -0.18293321 -0.09193199 -0.19137938 -0.10091886
0003e0 8d 7e ed bc df 88 a9 bd 92 ff e8 3d 15 bc 98 3a
       -0.028991008 -0.08278059 0.11376871 0.0011652733
0003f0 20 65 9b bd c4 b9 b5 bd f1 7c 9c 3d 23 d4 c8 3d
       -0.075876474 -0.088733226 0.07641018 0.09806087

fc1.bias f4 [64]
000000 0f c6 b5 3d 62 41 82 3d cf 7e 94 bd cc b5 9e 3c
       0.08875667 0.06360127 -0.07250749 0.019373797
000010 2c 68 90 3d 30 13 25 bd 39 08 a0 3d 58 f3 1b 3d
       0.07051119 -0.0403015 0.07814068 0.038073868
000020 a6 08 8b bd 45 15 db bd 2d 6e 11 be 70 56 1f 3e
       -0.06788759 -0.10697416 -0.14202185 0.15560317
000030 a0 5c 8a bc ac f2 18 be c8 fc e5 3c a0 ac a5 bd
       -0.01688987 -0.14936322 0.028074637 -0.08089566
000040 ae fb 58 be a4 06 04 3e 7d 58 29 3e b5 5c 1a 3e
       -0.21189758 0.12893158 0.16537662 0.15074427
000050 62 77 c7 bd e0 74 2d 3d ec 85 81 bb 9b 7c bb bd
       -0.09739567 0.04234779 -0.0039527323 -0.09154626
000060 b7 39 35 be d4 18 34 bd ec 35 1f 3e 30 98 04 bd
       -0.17697798 -0.04396899 0.15547913 -0.0323717
000070 d2 0c cd bc d6 fd 01 3e 1a 27 0b 3e 5e e5 a2 3d
       -0.025030527 0.12694487 0.13589135 0.079539046
000080 80 4a 90 bd 6f a2 80 bd ec 58 d4 3d fe 4f 65 bd
       -0.0704546 -0.06280982 0.10368523 -0.05598449
000090 00 0b 09 be f2 07 ce 3d 38 89 b3 3d 19 29 cc 3d
       -0.13383102 0.10060109 0.08766407 0.09968776
0000a0 2d 68 19 be e8 fd fb bc 3b db 5f 3b 35 ff d4 bc
       -0.14981146 -0.03076072 0.003415777 -0.026000598
0000b0 c3 9d a1 bd 19 07 96 3e 06 e7 a1 3d cf 61 20 3d
       -0.07891419 0.2930229 0.07905392 0.039155778
0000c0 02 10 34 3d ff da cd bd fc de e0 3d 64 08 02 3d
       0.04396058 -0.10051536 0.10980031 0.031746283
0000d0 00 a8 b1 b8 24 fb b7 bd bd 00 36 be 30 26 02 be
       -8.47131e-05 -0.08983448 -0.17773719 -0.1270988
0000e0 97 9d 05 3e 28 c8 aa bc 2c 8e 01 3e 0e 53 88 bd
       0.13048397 -0.020847395 0.1265189 -0.066564664
0000f0 31 e9 8f 3d fe 7c fc 3b 74 cf c8 3a 67 28 0c be
       0.070268996 0.00770533 0.0015320615 -0.13687287

fc2.weight f4 [14, 64]
000000 d3 73 67 bd 11 c9 a5 3d e2 9e cf 3d fb dc ee 3c
       -0.056506943 0.08094991 0.10137726 0.029158106
000010 2c 76 ee 3d 48 76 8d bc fe 89 73 3d 00 08 6a 3b
       0.11643633 -0.017268315 0.05945777 0.0035710335
000020 12 2b a5 bd e0 f4 b9 3c c2 7d 43 3e 59 90 38 3e
       -0.08064856 0.022699773 0.19090942 0.18023814
000030 5b d4 44 bd d8 e7 c3 3d b0 3a 47 bd b3 7a 73 3e
       -0.04805408 0.09565705 -0.048639953 0.23777275
000040 c2 e5 d1 3c e8 87 8e bc 29 69 cb bc 63 c3 c4 3d
       0.025622252 -0.01739879 -0.024830418 0.096075796
000050 71 2f 81 3d 90 ca 74 bd be 63 a0 3d 15 fa 9a 3d
       0.06307877 -0.05976349 0.07831524 0.075672306
000060 a2 cd 91 bd 89 d8 5e 3e 08 16 08 bd 62 03 ba 3d
       -0.071192995 0.21762289 -0.033224136 0.090826765
000070 3c c9 94 3c 40 bb 70 3c f4 1e 24 3d bd 2e fa 3d
       0.018162362 0.014693081 0.04006858 0.12215946
000080 98 61 51 bd bb e7 57 3e 34 28 a2 bd ad 93 76 3d
       -0.051118463 0.21084492 -0.079178244 0.06019943
000090 17 a1 32 3e d9 e8 9f 3d 29 36 4f 3e f0 4c 1a 3d
       0.17444263 0.07808084 0.20235504 0.03767103
0000a0 59 5c 71 3e bc dc a1 bd ff eb 29 3e e6 ac d7 3d
       0.23570384 -0.0790343 0.16593932 0.10531025
0000b0 4c 29 2e 3e ca 0c 4e 3e f5 74 fc 3d 01 7b c4 bd
       0.17007941 0.20122066 0.12326995 -0.09593774
0000c0 89 7d 1f 3d 80 99 38 3d d0 df 8a 3c de a6 87 3d
       0.03893808 0.045068264 0.016952425 0.06623624
0000d0 b2 4c d5 3d 9e b6 44 3e 0f 26 d7 3c dc 44 4c 3d
       0.10415019 0.19210288 0.026263265 0.049870357
0000e0 da 06 bc bd 1e cd 64 3e 28 2e ab bd 14 86 e5 3d
       -0.09180994 0.22343871 -0.08358413 0.11207214
0000f0 52 70 08 3e 79 07 af bc 25 85 64 bb 10 52 e5 bd
       0.13324097 -0.021365868 -0.00348694 -0.11197293
000100 7d f5 c9 3b 4b 2a 04 3e 40 8b 05 3c c5 be 97 3d
       0.0061632977 0.12906758 0.008150876 0.07409433
000110 22 01 ac 3d 20 a4 98 3b 4c 50 28 bd 02 7c cb 3d
       0.083986536 0.004658237 -0.041092202 0.09935762
000120 13 22 28 bc 74 e6 c1 3d e4 29 00 3e 24 8c 85 3d
       -0.01026203 0.094677836 0.1251598 0.0652087
000130 73 38 32 3c e8 f6 06 bd a6 f3 e7 bd 50 46 96 3d
       0.010877716 -0.032950312 -0.11325769 0.0733763
000140 7c 75 49 bd 64 d8 b5 3d 01 a7 fa 3b f0 cd 48 3d
       -0.049184307 0.08879164 0.007649303 0.049024522
000150 c2 bb fd 3d 1e 01 e3 3d 96 99 03 3d 66 10 97 3d
       0.123893276 0.110841975 0.032128893 0.07376175
000160 f8 10 af bd ae 2c c2 3d 40 73 82 3c 44 08 d5 3d
       -0.085481584 0.09481178 0.015924096 0.10401967
000170 f4 d8 dc 3d d0 db c5 bd 08 29 d0 3c 9e 63 86 3c
       0.10783568 -0.096610665 0.02541019 0.016404923
000180 80 c9 17 3d 45 70 c4 bd 48 95 37 3d ac 39 e0 3d
       0.0370574 -0.09591726 0.0448201 0.109485
000190 d3 01 a3 3d 88 0d e4 3d be 5c 03 bd 8c 76 9d bd
       0.07959332 0.111353934 -0.032070868 -0.07688627
0001a0 af f4 b1 3d 32 3f 9e 3d 2d 61 2e bd a3 8d 96 bd
       0.08689248 0.07726897 -0.042573143 -0.07351234
0001b0 44 82 aa 3d 82 39 84 bd 1a 1a 0c 3e 6a 98 23 3d
       0.083256274 -0.06456281 0.13681832 0.039940275
0001c0 df e4 8e 3d 24 00 90 bd 38 74 3c bd d8 e3 7d 3d
       0.069772474 -0.07031277 -0.046009272 0.061984867
0001d0 b8 02 a9 bc 14 72 18 3d 77 05 06 3e e4 02 b4 bd
       -0.02063118 0.03721817 0.13088022 -0.08789614
0001e0 9a 8f 21 3e 78 c5 03 bd ec 2b 88 3d 30 49 c1 bd
       0.15777436 -0.032170743 0.066490024 -0.094377875
0001f0 22 ed 1c 3e 86 e2 db bd 0f d3 91 3c 1e 41 bc bd
       0.15324834 -0.10736565 0.017800836 -0.091921076
000200 b6 85 09 bc 5a e0 0a bd 40 cc 8d bc b3 78 cf 3c
       -0.008393696 -0.033905365 -0.017309308 0.025326109
000210 16 90 94 3d 58 7d 5b bd 37 ac c1 bd 9e ce de bd
       0.07254045 -0.053586334 -0.094566755 -0.10879253
000220 cb ff 9e 3b 08 d4 66 3d b0 25 d1 bd 7e 89 df 3c
       0.0048522702 0.056354553 -0.102122664 0.027287241
000230 10 36 ba 3d b0 53 d0 3d 84 34 34 bd 0e c2 a8 3d
       0.09092343 0.10172212 -0.043995395 0.08240138
000240 ae ee 30 bd ce 15 d3 3d dc e9 e4 bd 0d 5f 99 3d
       -0.043196373 0.10306893 -0.11177418 0.074888326
000250 93 7f 98 bd 7e 01 d4 bd 00 38 3b 3d d6 f1 4f 3d
       -0.07446208 -0.10351847 0.045707703 0.050767742
000260 30 1c b4 3c 97 38 ea bd 74 75 29 3d bc 04 70 bd
       0.021986097 -0.11436575 0.041371778 -0.058598265
000270 36 5e 23 be c4 be f7 3d b8 42 73 bb 2b 8c 29 bd
       -0.15953907 0.120969325 -0.0037118625 -0.04139344
000280 00 fc 30 bb 59 04 ab bd 18 8b b9 bc 6b b0 df bb
       -0.0027005672 -0.083504386 -0.022649333 -0.0068264506
000290 41 5c 10 bd d7 27 13 bd bc 60 46 3d a4 8a 5f 3d
       -0.03524423 -0.035926666 0.048432097 0.054575577
0002a0 16 c8 3a bd 98 d7 07 3d 19 50 0d be 30 a2 1e 3d
       -0.045600973 0.03316459 -0.13800086 0.038728893
0002b0 fb 5f 88 3c f0 16 87 3d 05 5e 9d bd e2 e1 e4 3c
       0.01664733 0.06596172 -0.076839484 0.02793974
0002c0 71 90 ee 3c 1b 14 1c bd cc d9 7b 3d fc 62 4f bd
       0.02912161 -0.03810511 0.061487004 -0.05063151
0002d0 80 ec ab bc be 25 71 bc a4 e6 04 bd fc 9b a8 bd
       -0.020986795 -0.014718471 -0.03244652 -0.08232877
0002e0 f8 dc ed 3d 13 ea 4c bc 98 cc 07 bd 80 7c 13 3d
       0.11614412 -0.0125069795 -0.0331541 0.036007404
0002f0 10 63 88 bd ea c3 16 be 78 54 ed bc 80 44 40 3b
       -0.0665952 -0.14723173 -0.028970942 0.0029337704
000300 c7 84 7f 3d 9a 36 7d 3d 60 a0 ef bb cd b0 1d 3e
       0.062382486 0.06181965 -0.0073128194 0.15399475
000310 18 66 87 3c 5c b7 9f bd f5 ad ab bc 3a 17 de bd
       0.016528174 -0.07798645 -0.020956973 -0.10844274
000320 af 93 06 3e 28 31 a7 3c 79 02 75 bc 2a c7 76 3c
       0.13142274 0.020409182 -0.014954203 0.015062133
000330 b2 9e b9 3d c4 63 9f bd 8e f4 92 bd 1b 36 40 3c
       0.09063472 -0.07782701 -0.07175551 0.01173165
000340 91 f3 12 bd 00 35 e1 bb 2a 3b 07 3e 49 77 a3 3d
       -0.035876814 -0.006872773 0.13206163 0.07981736
000350 d1 a1 6d 3d cc 80 94 3d 92 71 ad 3c 10 85 05 bd
       0.05801565 0.072511286 0.021172319 -0.0325976
000360 d8 30 df bd 56 b8 b3 bc 14 2c 33 bd b8 88 03 3d
       -0.10897988 -0.021938484 -0.043743208 0.032112807
000370 6c 51 86 3d e4 4b 3a 3d 8f 0f 62 bd 64 cc a5 bc
       0.06558499 0.04548253 -0.05519062 -0.020239063
000380 cc 6f 33 3d 31 9f b2 3d 34 e8 da bd 86 7c e9 3d
       0.04380779 0.087217696 -0.106888205 0.11400704
000390 3a 70 6a bc 1f e2 c2 bc 64 b1 2f bd 9e c4 3c be
       -0.014308983 -0.023789464 -0.042893782 -0.18434379
0003a0 28 2e 1c 3e e6 09 f7 3d 6a 8b 6f bd 8e 0e d5 b9
       0.15251982 0.12062435 -0.058482565 -0.0004063737
0003b0 62 05 68 3c ce 88 24 3e b0 8f 21 bd c9 cb 1f 3c
       0.01416144 0.16067812 -0.03944367 0.009753176
0003c0 84 f8 48 bc fe 3f a1 3d ec dd 62 bd 40 4a 5d bd
       -0.012266282 0.07873534 -0.055387422 -0.05402589
0003d0 6e f3 c2 bd c4 8a b5 bc 2b 2f 52 bd ca 04 cf bd
       -0.09519087 -0.022160895 -0.051314514 -0.10108335
0003e0 1a e4 2c bd c3 53 c9 3d 3c 74 80 3d 08 65 1f bd
       -0.042209722 0.098304294 0.0627217 -0.03891471
0003f0 7f 87 81 3d d7 39 e5 bc 9f 6d b7 3c b0 29 00 3d
       0.06324672 -0.027981682 0.022391139 0.031289756

fc2.bias f4 [14]
000000 93 44 dd 3d f5 59 91 3d 74 a1 e2 3d 4e ae 7e 3d
       0.10804095 0.07097236 0.11065951 0.06217795
000010 7d 9a 27 3e 88 7f 11 3d df 37 59 3d 39 f6 a7 bc
       0.16367526 0.035522014 0.0530318 -0.02050315
000020 d8 8d 67 be 50 41 73 3e c0 77 0f 3d c7 b7 a8 bd
       -0.22612703 0.23755383 0.035026312 -0.08238178
000030 e2 45 82 3d 9b 4b 22 3c
       0.06360985 0.009905721

fc3.weight f4 [1, 14]
000000 25 5b 36 3d ab 6c 1a 3d d2 95 06 bb fc 38 fd 3c
       0.044520516 0.03770129 -0.0020536077 0.030910961
000010 0d 8d 10 3d e7 c7 60 3c 16 4a 93 3c e1 17 8e 3c
       0.035290767 0.013719535 0.017979663 0.01734537
000020 0b 3d a2 3b 69 7f a3 3d 02 f7 df 3d a8 d1 62 bc
       0.0049511245 0.07983286 0.10935785 -0.013843931
000030 95 63 28 ba e8 d2 5d bc
       -0.000642353 -0.0135390535
